Results/leftandright/2D/KWSCNN 6, 32/qat_checkpoint.pth.tar (torch, 896059 bytes, 66 tensors)

conv1.op.weight f4 [8, 1, 3, 3]
000000 ac 82 03 3d e6 24 8f 3f 1c 24 9d bf 1b 41 b2 bf
       0.03210704 1.1183136 -1.2276645 -1.3926119
000010 e9 23 2b bf 46 84 13 3f a8 58 10 bc 02 1b d2 3f
       -0.6685167 0.5762371 -0.0088102 1.6414492
000020 86 4b ae 3d b5 98 80 3e 11 f1 8b be 7d c3 19 be
       0.08510499 0.25116506 -0.27332357 -0.15015979
000030 a6 da 7b bf f3 e1 2c bf d5 54 b8 be a6 3f bc 3d
       -0.98380506 -0.6753227 -0.36002222 0.091918275
000040 bf ab c8 3e 63 0b 0b 3f 84 70 7e bf 10 b7 25 bf
       0.39193532 0.5431425 -0.99390435 -0.64732456
000050 f9 d7 e8 3e 7d 1f 7a 3f 74 2a ba be d5 e1 63 3f
       0.45477274 0.977043 -0.36360514 0.8901647
000060 3d aa 86 be 68 5b 79 3e 71 94 8b 3f 6f bb 31 bf
       -0.26301757 0.24351275 1.0904676 -0.69426626
000070 ae c0 02 bf b1 27 1b be eb aa 62 be 93 bc 13 3f
       -0.51075256 -0.1515186 -0.22135513 0.57709616
000080 cc cd d1 be 21 79 8d be 7b c0 d2 be a8 31 0b bf
       -0.40977323 -0.27631477 -0.41162476 -0.54372644
000090 bc b2 47 bf 3c 01 c3 3f a4 69 44 3f d1 67 22 3f
       -0.780071 1.5234752 0.76723695 0.6343966
0000a0 94 78 ea 3c 82 2c 34 bf fb 64 6d 3e 18 b3 97 bf
       0.02862195 -0.70380414 0.23183052 -1.185153
0000b0 9e ee 53 bf fe 1c 4c bf de 0d 44 3f 5b ba 01 3f
       -0.82785976 -0.7973174 0.7658366 0.5067498
0000c0 60 5e 6f bf 77 6d a8 be b0 2b f6 3e d2 27 b5 3f
       -0.9350338 -0.32896015 0.48080206 1.4152777
0000d0 38 7c ae 3e b9 c0 0f 3e eb d9 4a 3f 52 c2 3d bf
       0.34079146 0.14038362 0.79238766 -0.74124634
0000e0 b9 36 31 3e d1 7c 64 bf b9 d9 49 bf d3 c0 13 bf
       0.17306031 -0.89252955 -0.78847843 -0.577161
0000f0 0b 2d 0d 3f 83 a1 ee 3e 6a 4d 38 bf 38 bf ab 3e
       0.55146855 0.466076 -0.71993124 0.33544326
000100 c4 18 78 3f 36 87 4e bf 20 8b 0f be ac 53 c6 3e
       0.9691279 -0.80675066 -0.14017916 0.38735712
000110 a7 2d 74 3f 6e d8 01 40 62 26 e5 bf 7e d3 73 bf
       0.9538216 2.0288348 -1.7902339 -0.95244586

conv1.op.bias f4 [8]
000000 d2 42 e2 3c 80 e8 a1 bf ad 8c b2 3f a1 a5 2c c0
       0.027619753 -1.2649078 1.3949181 -2.6976092
000010 7b 12 95 be 7d 76 d0 3f f8 0c d2 bf 94 6c 7a 3f
       -0.29115662 1.628616 -1.6410208 0.9782193

conv2.op.weight f4 [16, 8, 3, 3]
000000 90 c4 8c be 16 35 bb 3d 80 3e a9 3e 1b 91 d9 be
       -0.27493715 0.09140985 0.33055496 -0.4249352
000010 c3 7c e1 3d d1 34 39 3b 94 72 68 bd 42 fc 15 be
       0.110101245 0.002826024 -0.056749895 -0.1464701
000020 d2 c0 60 3d 98 1b b9 bd a7 4e 97 3d 51 46 71 3e
       0.054871388 -0.09038466 0.073880486 0.2356198
000030 44 1c 18 3e 57 91 df 3d 41 88 8d be fa 9c 62 be
       0.14854532 0.10916393 -0.27643016 -0.22130194
000040 67 ee 0d 3d 09 c4 b7 3c 4d 0e 98 be 4e d3 68 be
       0.034651186 0.022432344 -0.2969841 -0.22736856
000050 78 5c bc 3e c3 77 0f 3e 01 71 eb bd f2 45 c8 3c
       0.36789298 0.14010529 -0.11496163 0.024447415
000060 79 a8 8a be 44 d4 d1 3c f7 59 6b be b6 58 a9 bd
       -0.2708166 0.025613911 -0.22983538 -0.082688734
000070 93 45 03 3d 26 58 bd 3d 30 bd c7 3d 88 8d 66 3e
       0.032048773 0.092453286 0.097528815 0.22514927
000080 56 1e 75 bd 34 55 84 3e de 0e ca 3e b4 97 55 be
       -0.059843384 0.25846255 0.39464468 -0.20858651
000090 d6 83 36 be 1c 46 d9 bd 1c 60 92 bc b2 76 ee 3c
       -0.17823729 -0.106090754 -0.017868094 0.029109333
0000a0 1a c7 60 bc 0a 02 e9 3d ed fb 62 be bb 49 25 3e
       -0.0137193445 0.11377342 -0.22166415 0.16141407
0000b0 4f 88 2d be 52 0a 2f be 69 17 1c be ef 4f 15 bd
       -0.16946529 -0.1709378 -0.15243305 -0.036453184
0000c0 11 2e 24 be 45 3c 70 be 1c a1 ba 3d b7 4c 8c 3d
       -0.16033198 -0.23460491 0.091127604 0.0685057
0000d0 e1 e7 dd bd 93 02 7a 3d e6 24 79 3e 5a e5 78 bd
       -0.10835243 0.06103761 0.24330482 -0.0607656
0000e0 de e4 23 bd f9 bf 52 bd 35 b7 f7 3c 27 49 6a 3e
       -0.040013187 -0.05145261 0.030238727 0.22879468
0000f0 c8 aa 1e 3e 56 a0 27 3e 85 4a 96 3e 11 f5 54 bc
       0.15494835 0.16369757 0.2935373 -0.0129978815
000100 6a 87 a9 be 6b 5d 9b bd 29 a9 58 3d ec e7 d2 3c
       -0.33111125 -0.075861774 0.0528957 0.025745355
000110 05 e7 72 bd 34 e8 70 be 27 70 7d be d7 6a 3a be
       -0.05930235 -0.23526078 -0.24749814 -0.18204819
000120 6a 2e de bd 50 b6 d3 3d b0 b0 04 3e 07 0f 7a be
       -0.108486965 0.10337508 0.12958026 -0.24419795
000130 97 05 22 3e 5b 44 58 be 3e d1 94 bd 6b b0 27 be
       0.15822445 -0.21119826 -0.07266472 -0.16375892
000140 48 b9 fe bd 71 09 f6 bd a9 fb 56 be 94 83 8f be
       -0.12437683 -0.120135196 -0.20994438 -0.28030074
000150 83 3a 73 3d 10 11 b5 3c 83 20 10 be 8a c5 0c 3e
       0.059381973 0.022102863 -0.14074902 0.1374723
000160 68 29 8d be ad cb 90 bd af 5c 8f 3e 8f 06 11 be
       -0.27570653 -0.07070098 0.280004 -0.14162658
000170 43 10 3a 3e 47 f4 5f 3d 20 7f 98 be 90 52 02 3e
       0.18170266 0.05467632 -0.2978449 0.12726808
000180 09 20 e4 bd c7 ba 68 be 7c 09 05 3e 15 4a 66 be
       -0.11138923 -0.227275 0.12991899 -0.22489198
000190 f0 5a d8 3b 1a 0a 38 3c 56 a5 36 3d d8 8d 5b 3d
       0.0066026375 0.011232877 0.04459127 0.05360207
0001a0 e7 e9 d9 3c 0f cb 3f 3e 63 9d 3b bc 60 17 99 bd
       0.026600791 0.18729804 -0.011451098 -0.074751616
0001b0 79 d7 bc bd 53 6b f6 3d 20 4d 4a 3e 1e 35 49 3e
       -0.09220786 0.12032189 0.19755983 0.19649169
0001c0 bf 91 83 be 57 79 b9 bc ed b7 16 be e2 0d 24 be
       -0.25697133 -0.022640867 -0.147186 -0.16020921
0001d0 e9 b8 2b be 69 4a f3 3d 25 01 54 be 5a d5 7c bd
       -0.16769756 0.11879427 -0.20703562 -0.061726905
0001e0 c1 00 d4 3b cf 82 1d 3e d1 5c 35 be 67 01 4b be
       0.0064698164 0.15381931 -0.17711188 -0.19824754
0001f0 c1 2e 25 be 61 d2 1b 3e 8a 5c 9a bd 8b c7 84 3e
       -0.16131116 0.15216972 -0.07537182 0.2593349
000200 95 5e 8b 3c 2e 20 f5 3d f7 b3 47 bc 7a 53 e0 bd
       0.017012874 0.119690284 -0.012188903 -0.10953422
000210 52 30 8f 3d 74 fd f9 bd 8a 69 b0 bd 0a 7e ca 3d
       0.06991638 -0.122065455 -0.0861388 0.09887321
000220 8e 4f 46 be fa 59 58 be b8 14 83 3e 84 a7 74 be
       -0.19366285 -0.21128073 0.25601745 -0.23892027
000230 36 07 ab bd 5f 08 80 3e 68 37 a7 3c 79 ae 2b bd
       -0.08350985 0.25006387 0.020412162 -0.041914437
000240 91 f9 be be 41 10 5b 3d b7 00 3b be df f2 fe bd
       -0.3729978 0.053482298 -0.18261991 -0.12448668
000250 08 ac 6c bd 51 41 ed bd bc 19 00 3d 8e 33 9a 3e
       -0.05778125 -0.11584724 0.031274542 0.30117458
000260 ff 9d 68 be 67 1b 98 3e 95 ca 00 3e 8e 1a 42 be
       -0.2271652 0.29708406 0.12577279 -0.18955442
000270 48 dc 04 3e 53 0e 57 be 4d fd 8d be 47 39 00 3e
       0.12974656 -0.21001558 -0.27732316 0.1252185
000280 20 4e 46 3d ce be a7 3d 22 56 86 be 68 22 d6 bd
       0.04841435 0.0819069 -0.2623759 -0.10455781
000290 ab 4b c8 3d f1 08 ad be 54 37 31 3e 3e 76 80 be
       0.097800575 -0.33795884 0.17306262 -0.25090212
0002a0 74 9c 3e 3d be 0b 29 bd ed 45 70 be 9a 6e 94 3d
       0.046535924 -0.041270964 -0.23464175 0.07247658
0002b0 69 15 e9 3d ba 19 a1 bd 85 85 3b 3d a4 00 de 3d
       0.11381037 -0.07866235 0.04578163 0.10839966
0002c0 33 38 3b be c9 fb aa 3e 34 d6 23 bd f0 4f a0 be
       -0.18283157 0.33395222 -0.039999202 -0.31310987
0002d0 f2 69 ae be 3e a3 9e 3d 04 0f 45 3e 94 05 5f 3d
       -0.34065205 0.0774598 0.1924401 0.05444868
0002e0 37 79 3b 3d 0c f9 4e 3d 5d e9 35 be 7d 46 4b 3e
       0.045769896 0.05053048 -0.17764802 0.19851108
0002f0 0a 4d 84 3e cf 6b 01 bd 09 71 ea bd e4 7e 50 bd
       0.25840026 -0.031596955 -0.11447341 -0.050902262
000300 54 87 58 be fd a8 96 3d 13 60 af bd 63 a6 26 be
       -0.21145374 0.07356451 -0.085632466 -0.16274409
000310 49 ba a7 3e a8 ff 31 be c9 9f 17 bd 6d 88 33 3d
       0.32759312 -0.17382681 -0.037017617 0.043831278
000320 43 1f be bc 9e b4 4d be ed 11 5a bd 6d b7 71 3e
       -0.023208266 -0.20088431 -0.05323975 0.23605128
000330 d4 50 2f 3d ea f1 a2 3e 40 37 48 be 48 bb c9 bd
       0.042801693 0.3182519 -0.19552326 -0.09850174
000340 ca e8 3e be 64 26 b9 bc f4 54 a9 be 9f 31 a3 3d
       -0.1864349 -0.022601314 -0.33072627 0.07968449
000350 9e 51 86 3d 05 4d 85 bc 26 50 a4 3d 43 83 4c be
       0.06558536 -0.016272077 0.080230996 -0.19971947
000360 43 b2 81 3e 7b f5 4d be 83 0d b0 3d 18 97 bd bd
       0.25331315 -0.20113175 0.08596327 -0.092573345
000370 ce 7a 8f be 48 fc 4d 3c 84 b3 cb be 78 f4 42 3e
       -0.2802338 0.012572356 -0.39785397 0.1903857
000380 37 5b d5 3d 0b 44 29 bf 87 07 a7 3d 8d 88 89 3e
       0.104177885 -0.6611945 0.081557326 0.26861992
000390 c7 bd 46 3e 85 0b 38 be 84 5c 12 bf a5 cd 85 be
       0.19408332 -0.17973144 -0.5717242 -0.26133457
0003a0 99 41 96 3e a0 ba b6 be 4d 52 77 3e da f8 23 3f
       0.29346922 -0.3568926 0.24152489 0.6405159
0003b0 e5 2d 9f be 93 9f a6 bd ea 9c 4a 3e 83 f4 af 3b
       -0.31089702 -0.08135905 0.1978642 0.0053697242
0003c0 e9 ad b8 3d ce 9d 91 3d 00 74 1f bf a1 c5 a5 3e
       0.09017546 0.07110177 -0.62286377 0.3237734
0003d0 f6 1c 30 3f 4e 66 78 3e ff 0a 2e 3e c5 cf e1 be
       0.6879419 0.24257776 0.16996382 -0.44103828
0003e0 5d 9f 44 be a6 d7 04 bf 7d 39 2a bf 4d e8 ca be
       -0.19201417 -0.51891553 -0.6649397 -0.39630356
0003f0 e8 b6 fe 3e b2 15 ca 3e 4a 07 4b bf f2 40 e3 bd
       0.4974892 0.39469677 -0.79308 -0.11096372

conv2.op.bias f4 [16]
000000 59 58 4c 3d 2e 0a ba 3d 73 da bb 3d 61 f5 25 bd
       0.049888942 0.09083973 0.09172525 -0.040517215
000010 2b 81 44 3d 21 18 85 3d 1d 17 c3 3d 29 4c 53 3d
       0.047974747 0.06498743 0.09525893 0.051586304
000020 02 37 de 3c 27 2b 89 3c e0 14 03 3c 1b c2 d9 3b
       0.02712584 0.01674421 0.008000582 0.0066454536
000030 27 92 0f 3e 2a c5 58 bc 27 25 21 3e 7a 36 bb 3d
       0.14020596 -0.013230601 0.15736829 0.0914125

conv3.op.weight f4 [32, 16, 3, 3]
000000 d0 9c 8f 3e 96 04 78 3d 00 13 45 3e 81 4f c5 3e
       0.28049326 0.06055125 0.19245529 0.3853722
000010 59 ca 73 3e 74 dc 84 be c9 67 10 3e de eb 38 3e
       0.23807658 -0.25949442 0.14102091 0.18058726
000020 a1 cf 5a 3e 6a a5 c4 be 8d 2f 9c 3e 4d 4a af 3e
       0.21368267 -0.3840745 0.30505028 0.34236374
000030 8e ab 41 be 07 00 cb 3d 64 59 89 3e ef 5e 79 be
       -0.18913099 0.099121146 0.26826012 -0.2435262
000040 1f 72 77 bd 88 86 43 3e 95 5b 6f 3e c8 14 d2 3e
       -0.06041157 0.19094288 0.2337478 0.4103148
000050 dc 6e 9a 3e 3b a9 e7 3d ea 5f 96 3c 6a 92 59 3e
       0.30162704 0.11311575 0.018356282 0.21247259
000060 ce 80 58 be 79 b5 82 bd 18 2f 6d be b6 7c ce bd
       -0.21142885 -0.063822694 -0.23162496 -0.100823805
000070 7f b7 52 3e ee 8b f8 3d d1 51 3e 3e a2 96 8d 3e
       0.2057781 0.121360645 0.18585898 0.27653986
000080 2c ad 90 be df f3 7f be 7c 44 e0 bd e1 e9 74 3c
       -0.2825712 -0.24995373 -0.10950562 0.014948339
000090 8e ed 95 3c 64 12 6a be 0e 09 17 be 0f 68 95 3e
       0.018301751 -0.22858578 -0.14749548 0.29180953
0000a0 a3 fd 8b bc e5 7b 84 be f5 6c 6b 3e 2a 4d 59 3e
       -0.017088717 -0.25875774 0.22990783 0.21220842
0000b0 64 ab 88 bd be 7d ef bd eb 6f 1f be c5 16 6c be
       -0.06673315 -0.11693905 -0.15570037 -0.23055561
0000c0 ed b1 27 3e 96 86 78 be 85 3f 69 3e 05 d2 6e be
       0.16376467 -0.2427009 0.22778137 -0.23322304
0000d0 76 ac 9e bd f8 ea aa bd d2 d4 86 bc 06 52 3d 3e
       -0.07747738 -0.08345598 -0.016458903 0.1848832
0000e0 4f 7d 86 3e df bc 5c 3e a2 07 c1 bc 21 54 27 be
       0.26267478 0.21556424 -0.02356321 -0.16340686
0000f0 cd e3 89 be 17 8f 19 3d 7c 51 79 3e 2e 19 00 be
       -0.2693161 0.037489977 0.2434749 -0.12509605
000100 91 dd 47 bd 02 11 9c be 27 b4 54 3e 4b f5 22 3e
       -0.048795287 -0.30481726 0.20771848 0.15913884
000110 95 93 95 be 7c aa 60 be 18 69 a9 3e a6 b0 7a 3e
       -0.2921416 -0.21940035 0.33087993 0.24481449
000120 b3 ce 24 bd 64 29 66 3d 21 58 f9 bd 13 1e 41 be
       -0.040236186 0.056191817 -0.121750124 -0.18859129
000130 d8 ad b3 be 96 c5 51 3e 5a 26 99 bd bc bb 4a be
       -0.3509357 0.2048553 -0.07478018 -0.19798177
000140 c3 c1 09 be f4 1a 6f be dc 8a c0 bd 74 9e 05 be
       -0.1345282 -0.23350126 -0.09401485 -0.13048726
000150 35 be 91 3e 00 e8 62 3d a8 3c 1f be 52 17 2d be
       0.2846543 0.055397034 -0.15550482 -0.16903427
000160 4b 25 31 3e 07 fd 32 be 53 5f 63 3e 2c 8f 2f 3d
       0.17299382 -0.17479335 0.22204332 0.04286115
000170 d8 24 c8 bd 3e 33 87 3d 0e 77 80 bc ab f4 a8 3e
       -0.097726524 0.066015705 -0.01568177 0.32999167
000180 54 b4 5b be bd 30 a9 bd 50 5b 9f 3e 06 94 77 be
       -0.21455508 -0.08261249 0.31124353 -0.2417756
000190 b5 f9 79 bc ba 70 b4 3e 44 f6 74 be 77 37 88 3e
       -0.015257289 0.35242254 -0.23922068 0.26604816
0001a0 2e fe 5b 3e 7b f6 6f 3e 96 b2 64 bc 61 6a 79 3e
       0.2148368 0.23433869 -0.013958594 0.24356987
0001b0 87 cf 44 be b5 eb 1e be 5b 3f 0b 3e c7 36 3f bc
       -0.1921979 -0.15519603 0.13598387 -0.011670775
0001c0 7f d6 10 3e 8f 37 d7 3d a4 4b f5 3d 0d 44 94 3e
       0.14144324 0.10508644 0.11977318 0.2895817
0001d0 6c 96 85 bd a5 6d 2f 3e 4c 43 17 3e fb 0b 8f be
       -0.06522831 0.1713167 0.14771765 -0.27938828
0001e0 cf 2f 6a be a9 76 a5 3e 10 fa 0d be 8a ee 17 3e
       -0.228698 0.32317093 -0.13864923 0.14837089
0001f0 e0 2c b6 be 93 ce fd bd 98 e4 cf 3d 2b 44 52 3e
       -0.35581112 -0.123929165 0.10151023 0.20533817
000200 ea 51 87 3e 39 2f d7 bc 42 8c 3d be 90 d0 e7 3c
       0.26429683 -0.026267635 -0.18510535 0.028297693
000210 df 66 d5 3e 3b e7 dd bd a7 bb 1f be b0 db b3 bd
       0.41680047 -0.10835119 -0.15598927 -0.087821364
000220 1e 66 bf 3e 2c 4f 94 3e 90 95 5f 3d fd 1b 9b bd
       0.37382597 0.28966653 0.054585993 -0.07573698
000230 73 e9 3f be 01 94 46 3e 48 4b 2e bd 42 a4 cf 3e
       -0.18741398 0.19392397 -0.042552263 0.40555006
000240 55 8d 93 3d 14 ce 88 3d 1a 38 17 3e c7 18 0a be
       0.07204691 0.06679931 0.14767495 -0.13486014
000250 c4 66 17 3e 76 11 f4 bd 4f c9 8b bc 22 15 1e bd
       0.14785296 -0.11917393 -0.017063765 -0.038594373
000260 d4 6b 5f bd 04 c5 15 be a5 eb 02 be 22 f2 f6 3c
       -0.054546192 -0.14625937 -0.12785204 0.030144755
000270 05 52 16 bd c7 56 0e bd 2d 64 f9 3d be e0 7f bd
       -0.036699314 -0.034750726 0.1217731 -0.06247019
000280 24 6e c5 bd 02 d6 6a bd 17 b9 76 3d 73 03 ab bd
       -0.09640148 -0.057333 0.06023511 -0.08350267
000290 45 94 12 3e d4 e0 ed 3d 5b 00 9f 3d ef 15 b9 3d
       0.14314373 0.11615148 0.0776374 0.090373866
0002a0 9e a0 98 bb 8f 1b a6 bd 10 1a f9 bd e5 11 a3 ba
       -0.004657819 -0.08110725 -0.12163174 -0.0012441246
0002b0 e7 1a 3a bd ac cf 89 bd f1 73 84 bd 57 7c 2f bd
       -0.045435812 -0.067290634 -0.064674266 -0.04284319
0002c0 58 c1 2c be c4 f1 fe bc 67 b7 f4 3d af eb b4 3d
       -0.1687063 -0.031121142 0.11949044 0.088340156
0002d0 ca dd 0e bd f2 92 b4 bd 9f 73 80 bd 65 08 f3 3c
       -0.034879483 -0.0881709 -0.06272053 0.029667089
0002e0 7f d8 aa 3d db aa 01 bd 31 97 31 bd 3e 61 8f bd
       0.083420746 -0.03165708 -0.043357078 -0.07000969
0002f0 db 91 1b 3d b2 a1 27 be d5 e9 1d be 7e b1 f6 3d
       0.037980895 -0.16370276 -0.15421231 0.12045573
000300 91 89 5a bd 11 88 60 bd ec fa 58 3d 49 9b dc bc
       -0.05335385 -0.054817263 0.052973673 -0.026929514
000310 7f f8 f2 bb 0b 64 1f 3d 51 54 9e bd 88 9d ee bb
       -0.007414877 0.038913768 -0.07730926 -0.007281963
000320 76 e5 52 bc 38 3e 5f be 5c b4 08 3d 9f da 46 3e
       -0.012872091 -0.21801078 0.03337513 0.19419335
000330 b9 f0 e5 3c 89 97 ea bd c5 f0 0b 3d 97 d0 54 be
       0.028068887 -0.11454684 0.034165163 -0.20782696
000340 53 e3 db bd ed c3 8b bc b4 ac e0 bd bb c6 6a bc
       -0.10736718 -0.017061198 -0.109704405 -0.014329608
000350 ca dd aa bd ad 79 1c bd a8 8f 62 bd a6 f6 36 be
       -0.08343084 -0.038201977 -0.055312783 -0.17867526
000360 fb b8 d0 bd 52 55 68 be bc 15 5a 3d 09 cf 9b bb
       -0.10191532 -0.22688797 0.053243384 -0.004754905
000370 f6 22 91 3d 56 cc 12 bd 77 43 a9 bc b3 02 99 3c
       0.070867464 -0.0358394 -0.020662053 0.018678045
000380 89 97 1e 3d 5d b3 af bc 3a 76 e8 bd 1d 6d f0 bd
       0.038718734 -0.021447832 -0.11350675 -0.11739562
000390 d2 f5 67 be ff e7 88 bd a3 df 03 3e 83 3d f9 3c
       -0.22652367 -0.06684875 0.1287828 0.030424839
0003a0 b5 c6 db 3d 6b ef d8 3d 2b ac a0 bd aa ca 1a be
       0.1073126 0.1059254 -0.078453384 -0.15116373
0003b0 f0 71 cc 3d 87 da 1d 3d f3 f7 8d 3c 92 3d d4 bd
       0.09982669 0.038538482 0.017330145 -0.10363306
0003c0 f5 fe 1e 3d a5 55 78 3d e5 e0 94 3d 4b 84 2d bd
       0.038817365 0.060628552 0.07269458 -0.042362493
0003d0 a7 5b 8a 3b 77 7b 00 be 02 b0 0b be ba 07 71 3d
       0.0042223516 -0.12547098 -0.1364136 0.05884526
0003e0 67 a7 bc bd a8 22 53 be 9c d1 34 3e 57 ed c8 bc
       -0.09211617 -0.20618689 0.17658085 -0.024527235
0003f0 80 b6 22 3e ed 02 ec bc c4 b3 fb 3d f4 7e 8d bd
       0.1588993 -0.028809989 0.12290147 -0.0690898

conv3.op.bias f4 [32]
000000 3c 8c 78 be 1b 91 11 3e 8e bc 9c bc 05 fd b0 bd
       -0.24272245 0.1421551 -0.019132879 -0.0864201
000010 3b da 46 3d 46 7a 41 3e 08 46 dd bc 8b e3 27 3e
       0.048547965 0.188943 -0.027010933 0.16395395
000020 56 66 80 3d 12 56 5b 3e e1 d5 62 3e 31 10 90 3e
       0.06269519 0.21419552 0.22151901 0.28137353
000030 bd fd 12 3f c7 49 f4 3d 0c ca f2 3e 3e db a2 3c
       0.57418424 0.119281344 0.47419775 0.019879933
000040 db cc 04 bc bd 1c fe 3d 62 2e 36 be 72 d3 94 3e
       -0.008105482 0.12407825 -0.17791131 0.2906757
000050 2d 40 20 3e fb 38 a4 3d 70 f7 29 bd ed 08 14 3e
       0.15649481 0.08018681 -0.04149574 0.1445653
000060 c0 b3 9f bd 9a 0e e6 bc 69 1c 81 3e f0 63 fd bd
       -0.077979565 -0.028083134 0.25216988 -0.12372577
000070 ac 7a a6 3d 6b a8 a6 3c 5b 36 89 3d 6c 32 2d be
       0.081288666 0.02034398 0.066998206 -0.16913766

conv4.op.weight f4 [32, 32, 3, 3]
000000 c7 f1 62 bd d3 73 b8 bc e9 d3 d3 bb d3 cd 2f bd
       -0.055406358 -0.022516167 -0.0064644706 -0.0429209
000010 34 68 06 3c e3 23 5c 3d e6 cf e9 bd 11 af a9 bc
       0.008203555 0.05374516 -0.114166066 -0.020713361
000020 06 84 85 3d 33 cf f4 bc 4b 00 7f bc 8f b1 9f bc
       0.06519322 -0.029883957 -0.015564035 -0.019493846
000030 dd d2 49 3d e0 c6 30 bd ca 64 40 3d dc b5 aa bd
       0.04927336 -0.043158412 0.04697112 -0.08335468
000040 2a 37 ab bd 48 3c 46 3d 23 35 bc bd 2a 08 29 bd
       -0.08360131 0.048397332 -0.091898225 -0.04126755
000050 3e 4d b3 3d 34 d0 99 bd 44 30 a0 bd 2b 51 9c bd
       0.08754967 -0.07510415 -0.07821706 -0.07632669
000060 ce 76 97 bd 42 15 8c bd 38 00 8c bc 59 45 eb bd
       -0.07395707 -0.06839992 -0.017089948 -0.114878364
000070 e4 2c ac bd 30 1b 0a 3d 46 93 84 3d a2 77 b0 3d
       -0.08407 0.033717334 0.06473403 0.08616568
000080 98 d7 cd 3d 2a bb fb 3c ff 67 92 3d 57 ab 50 bd
       0.10050887 0.030728895 0.07148742 -0.050944652
000090 58 24 04 be 2a b6 8a 3d b9 a0 ad 3d 2f 16 f1 bc
       -0.12904489 0.06773026 0.08477921 -0.029429523
0000a0 87 a4 3b 3d fe 6e c7 bc f3 3e 9e 3d 2d 8e 65 3d
       0.045811202 -0.024344917 0.0772685 0.056043793
0000b0 2f 0c 22 bd 60 e1 c0 3d c0 34 d0 3d fe fa 84 bc
       -0.0395624 0.09417987 0.10166311 -0.016232964
0000c0 e0 9a 8b 3c e2 3f b9 3d fd 04 cc bc 54 37 9f 3d
       0.017041624 0.09045388 -0.024904722 0.07774225
0000d0 db e4 bb 3c 82 13 20 bd 1a 0c 98 3d 86 3d 10 be
       0.022936275 -0.039081104 0.07424183 -0.1408597
0000e0 93 17 52 3c 93 c9 2e bc d0 20 6e bd f1 b1 38 bd
       0.012823003 -0.010668176 -0.05813676 -0.045091573
0000f0 ed 10 9a 3d 21 35 c5 bb ba a3 ce 3d 99 73 77 3d
       0.075227596 -0.0060182963 0.10089822 0.060412977
000100 47 49 50 3d e6 d6 4e bd d3 6b b9 bc b7 22 98 3c
       0.050851133 -0.050497912 -0.022634422 0.01857124
000110 22 55 90 3d 7c 8f c3 ba 3f 93 03 bc 85 ad 50 bd
       0.07047488 -0.0014920081 -0.008030712 -0.05094673
000120 df ac 94 3d 6e a0 68 3c af 44 1f 3c d1 ec 5c bc
       0.07259535 0.014198406 0.009720965 -0.013484196
000130 c9 19 3e bd e6 f1 5f bd 49 43 e3 bd 51 5a a1 3c
       -0.04641131 -0.05467405 -0.11096818 0.019696387
000140 66 0c b6 3d 6c 05 fb 3d 49 f7 ec 3d a8 4b 69 3a
       0.088890836 0.122568935 0.115706034 0.0008899518
000150 35 2d b8 3d 12 c8 72 3d cf d9 4a 3c 3f 53 a0 bc
       0.089929976 0.059272833 0.012381031 -0.019570945
000160 3c 67 42 bd e9 d6 51 bb a8 ea de 3c 7f 51 aa 3c
       -0.047461733 -0.0032018966 0.027211502 0.020790813
000170 19 99 f6 bc d1 06 aa 3d 13 58 07 bd 78 f8 ba bc
       -0.0301023 0.083020814 -0.03304298 -0.022823557
000180 22 cf 1d 3a 14 8f 83 3c 9d 6d 89 bd 98 02 2b 3d
       0.000601994 0.016059436 -0.0671036 0.04175052
000190 47 25 7b 3d a7 9b 54 bb 5f 55 a1 bd 24 cb bf bd
       0.061314847 -0.003244141 -0.07877611 -0.09364918
0001a0 30 9e 33 3d 20 62 bd 3d 13 d4 2c 3d d7 a1 3e bd
       0.04385203 0.092472315 0.042194437 -0.04654106
0001b0 bf e4 c6 3a bf 19 38 bd 9e 05 86 3c 34 f3 82 bb
       0.0015174373 -0.04494643 0.0163601 -0.003996277
0001c0 b2 9e a4 3d 70 4f 3c bd 21 15 54 bd 0f 82 f6 3c
       0.08038081 -0.045974195 -0.051777963 0.030091314
0001d0 86 d0 7f bd 88 70 ae bc 79 d4 b5 3d aa b6 27 3d
       -0.062454723 -0.021293893 0.088784166 0.040945686
0001e0 ab 50 ec bd f3 70 d2 bc bb 41 f4 3c 07 a4 c8 3d
       -0.11538824 -0.025688624 0.029816499 0.09796911
0001f0 a3 ae 65 bd 59 04 70 3d 6b a1 d7 bd 2a 27 bb bd
       -0.05607475 0.058597896 -0.10528835 -0.09138329
000200 a2 c9 0a bc 9e d3 41 bd af a7 83 3c ff 51 4a 3d
       -0.008470925 -0.047320955 0.016071169 0.049394604
000210 69 1e fc 3c 28 7e 97 bd 86 be 7c bc c3 30 3e bd
       0.03077622 -0.07397109 -0.015426284 -0.04643322
000220 54 b1 20 bd f5 95 87 3d 61 93 2d bd 4a 77 51 3b
       -0.039231613 0.06620399 -0.04237688 0.003196197
000230 82 c6 4e 3d ef 3a fe 3c 40 8b bc 3d 72 79 02 bd
       0.05048228 0.031033961 0.09206247 -0.0318541
000240 43 26 5d 3b c9 d2 f9 3c 74 0b df 3c 47 99 fa bc
       0.003374473 0.030496018 0.027227141 -0.030590666
000250 8d f1 6e bd da b9 a3 3d 61 15 1f 3d a8 5f 33 3d
       -0.05833583 0.07994433 0.038838748 0.043792397
000260 d5 a1 a3 3d e7 99 73 bd 31 05 15 3d b0 88 39 bd
       0.079898514 -0.059472945 0.036381904 -0.04529637
000270 13 42 7f 3c 49 a7 40 3c 71 64 48 bd 75 01 02 3e
       0.015579718 0.011758634 -0.048923913 0.12695868
000280 0c 48 30 3d 6d 4f 06 3c a4 27 96 bd 1d 11 70 3c
       0.04303746 0.0081976475 -0.073317796 0.014652518
000290 7d 8a f1 3d f2 5e d4 bb 87 e2 8c 3d 48 62 65 3d
       0.11793993 -0.006481045 0.06879144 0.05600193
0002a0 21 03 33 bd 6f ce 9e 3d f0 d1 4b 3c 86 62 3f 3d
       -0.043704156 0.07754218 0.01244019 0.04672482
0002b0 d2 ef 89 bd ad 98 88 bd ee d2 83 3d bc e7 ec 3c
       -0.06735195 -0.066697456 0.06436716 0.028919093
0002c0 f5 92 10 3c 45 7a c9 bc c7 2b 66 bd 4d 9e 23 bd
       0.0088241 -0.024594435 -0.056194093 -0.03994589
0002d0 5f 3f 9f bd 1d 3d ce 3d 82 2e e4 3d 3d ac c5 3c
       -0.07775759 0.1007025 0.11141683 0.024129981
0002e0 c4 c2 66 3d d8 0c 6d bd e7 a8 3a bc b0 16 12 3d
       0.056338087 -0.057873577 -0.0113928085 0.035666168
0002f0 5f 4e 5a bd 7c 38 8d 3d 96 7c 5f bc a6 a0 83 3d
       -0.053297397 0.06895539 -0.013640543 0.06427126
000300 81 c4 a4 3d 7f a1 06 3e 22 59 56 3b 11 ce 9e bd
       0.08045293 0.13147543 0.0032706936 -0.07754148
000310 94 44 52 bd c3 b1 34 bd c2 66 89 3d ac d5 77 3c
       -0.051334932 -0.04411484 0.067090526 0.015126627
000320 ed fd 2c 3d 23 c7 13 3d e5 77 31 3c 88 6e 31 bc
       0.04223435 0.036078583 0.010831808 -0.010829575
000330 c2 67 0f bc 04 ed b3 3c 16 71 89 bd 9e 3f ac bd
       -0.008752765 0.021963604 -0.067110226 -0.084105715
000340 53 1d ca 3d 58 2b 78 3d 40 40 eb bc 16 c3 8c 3d
       0.098688744 0.06058821 -0.02871716 0.06873147
000350 25 d5 09 bd 43 c0 d5 3d db 98 55 bc 93 1f 25 3d
       -0.033650536 0.10437062 -0.013036932 0.040313315
000360 ca 2f 40 3d 3b 4b bd bc 1c 16 9d 3d c5 78 de 3c
       0.046920575 -0.023107162 0.07670233 0.027157197
000370 ee 46 a1 bd f4 08 58 3d b4 79 4a 3d 0f 24 4a 3b
       -0.07874857 0.052742913 0.04943247 0.0030844247
000380 c7 31 11 3d 72 52 93 3d b3 21 9a bd 7a 82 a1 3d
       0.035447862 0.071934596 -0.07525959 0.078862146
000390 82 b1 14 be 4f 38 a6 bc 9c 02 8d 3b 03 ce 29 bd
       -0.14520839 -0.020290522 0.0043032896 -0.041456234
0003a0 c3 5e 2c 3d 11 46 b6 bd cc 08 2a 3d 52 6b 91 3d
       0.04208256 -0.08900083 0.041512296 0.07100548
0003b0 6b 45 a7 bc 7b ed 9e 3d e6 73 b6 bd e6 f3 1f bd
       -0.020418843 0.077601396 -0.089088246 -0.03905096
0003c0 ed 1e 39 3c 02 35 6a 3b 99 b2 b4 bd 94 cc ce bd
       0.011298877 0.0035737162 -0.08823127 -0.10097614
0003d0 7c 61 96 3d 0b 35 d0 bc 38 92 06 bd 52 be d5 bd
       0.073428124 -0.025415918 -0.03285429 -0.10436691
0003e0 67 91 2a bd a1 03 ac bd 35 a8 c8 3c 23 dc a8 3d
       -0.041642573 -0.0839913 0.02449427 0.08245113
0003f0 b7 08 dd 3d d4 29 b0 bd 1d f6 1f 3e e1 34 28 be
       0.10792678 -0.08601728 0.15621229 -0.16426422

conv4.op.bias f4 [32]
000000 86 87 d8 bd 42 00 38 3d e7 24 87 3d c1 01 aa 3d
       -0.10572724 0.04492212 0.065988354 0.08301116
000010 8f 6c fb 3c 0b 78 ae 3d 1e 3c 03 3e c2 6e 3a 3e
       0.030691413 0.0851899 0.12815902 0.18206313
000020 61 76 b4 bd f3 df 9c bd f3 86 e0 3d 75 f7 6b 3e
       -0.088116415 -0.076599024 0.109632395 0.23043616
000030 aa ac 6c 3e e0 b5 d3 3d 37 18 8e 39 a0 db 5c 3e
       0.23112741 0.10337424 0.00027102392 0.21568155
000040 2f 0e 11 3e 93 a2 66 be 34 6e 12 be dd 60 76 3e
       0.14165567 -0.22522955 -0.14299852 0.24060388
000050 d8 8a 79 3e ca 3f f0 bd b3 e5 77 be 34 ec 2b 3e
       0.24369371 -0.11730917 -0.24208717 0.16789323
000060 25 e6 ae bd 29 4b 9f bd c0 bf 7d 3e c7 0f e9 3d
       -0.0853999 -0.077780075 0.24780178 0.113799624
000070 d3 08 0a 3e f1 ad a5 3e bf 69 5d 3e 29 12 47 3e
       0.13479929 0.3235927 0.2162237 0.19440521

conv5.op.weight f4 [64, 32, 3, 3]
000000 6a 77 2c 3e 6f 97 16 be 28 7e 3e 3d ec e5 05 be
       0.16842428 -0.14706205 0.04650703 -0.1307599
000010 4b a8 58 3c ac 12 ea bc 3a 91 23 bd 0a b5 26 be
       0.013223718 -0.028573357 -0.03993342 -0.16279998
000020 f7 76 84 3d b5 91 92 bd c6 1c a5 bc 48 09 0b be
       0.06468003 -0.07156698 -0.020155322 -0.1357776
000030 98 bd 00 3e 74 6e 3f 3d 61 32 5a 3d f5 31 07 3e
       0.12572324 0.046736196 0.0532707 0.13202651
000040 e2 27 a1 3d 35 78 34 3e 9c df 1f 3c 1a bc 44 bd
       0.07868935 0.1762398 0.0097579025 -0.04803095
000050 b1 9c a7 bd 66 27 d1 3d d2 eb 56 be ae 21 d1 bd
       -0.081841834 0.10212593 -0.20988396 -0.10211502
000060 c3 85 24 bd 28 47 57 3d 0b 7c 09 be 29 40 39 bd
       -0.040166628 0.052558094 -0.13426225 -0.045227204
000070 9f 54 8d bd 13 cd 5f bd 67 27 e4 bc ba 51 94 3d
       -0.06900906 -0.054638933 -0.02785082 0.072421506
000080 f4 bc db bd b6 13 0a be 12 80 05 bd 2b c2 2a be
       -0.10729399 -0.13484082 -0.03259284 -0.16675632
000090 03 1a 50 bd fd 3c a8 bd e7 52 fd 3d c5 fd 8f 3d
       -0.050806057 -0.082147576 0.12369328 0.070308246
0000a0 91 8b b1 bd 43 89 ae 3d 70 a0 c2 bd a4 31 7b bd
       -0.08669198 0.08522274 -0.09503257 -0.061326638
0000b0 bc 2c e0 3d 13 5c ae 3c 77 ab b5 3d 67 78 c2 bd
       0.109460324 0.021284139 0.08870595 -0.09495621
0000c0 69 a7 b4 bd 85 5e 2f 3d 54 16 05 3e 99 49 28 be
       -0.088209935 0.04281475 0.12996799 -0.16434325
0000d0 43 2f a1 3d 97 82 25 bc 4b 41 8b 3d 09 22 ad 3d
       0.078703426 -0.010101936 0.06799563 0.08453757
0000e0 2d de e9 3c 6e d3 7c bd b2 0c 86 3d 60 43 54 bd
       0.028548324 -0.061725073 0.0654539 -0.051822066
0000f0 bf e8 3e bd 28 7d 8a 3d 58 15 ce 3d d1 64 09 3e
       -0.046608683 0.06762153 0.10062665 0.13417365
000100 de df 90 3d 8a a6 35 be eb 59 2c 3d 63 89 8a 3d
       0.07073949 -0.17739311 0.04207794 0.06764486
000110 33 ae 5f be 60 b2 3a 3e ff 0d 39 3e 0b 40 76 3d
       -0.21843795 0.18232107 0.18071745 0.06011967
000120 7d 48 29 3e da 83 80 3e 52 27 0b bc 36 1e eb bc
       0.16531558 0.25100595 -0.008493261 -0.02870093
000130 a9 35 81 bd 81 86 e3 3d cd 11 ed bc 54 38 df 3d
       -0.06309063 0.11109639 -0.028939152 0.108994156
000140 87 d1 3e 3c e0 f5 82 bd 4b 68 ea 3c f5 af 40 bd
       0.011646635 -0.06394553 0.028614184 -0.047042806
000150 55 3f ae 3d a6 cd b4 3d b5 a6 3e bc fa ee ec 3a
       0.085081734 0.08828287 -0.011636426 0.0018076592
000160 d0 17 0f bb d6 59 9d 3c 98 79 0a 3b f1 b9 3e 3e
       -0.0021834262 0.019207876 0.0021129604 0.18625619
000170 9b 61 b7 bc 11 bc 48 3e 00 22 f5 3d 7e f6 48 bd
       -0.02238541 0.19602992 0.119693756 -0.0490632
000180 c4 5f 9f 3d 9e bf 7f 3d 42 6b 30 bd 6e 2a 82 3d
       0.07781938 0.0624386 -0.04307104 0.06355749
000190 bb 06 91 bd 16 ca 06 3e fd 51 2d bd aa 8c 57 bd
       -0.07081362 0.13163027 -0.04231452 -0.052624382
0001a0 12 b8 b9 3c 1e 79 37 be ba c4 2a be 2e 19 fd 3d
       0.02267078 -0.17917296 -0.16676608 0.12358318
0001b0 29 99 25 bd 60 36 6e 3d 6d b5 c1 bb 78 0b ec bd
       -0.040429268 0.058157325 -0.00591152 -0.11525625
0001c0 3d 57 1d 3e 4d 17 3f 3e 1f 8c ab 3d f7 cb 10 3e
       0.1536531 0.18661232 0.08376335 0.14140306
0001d0 c6 8f 66 3c bd 26 06 bc 6d 78 2f 3e 38 de 4d 3b
       0.014072364 -0.008187947 0.17135783 0.003141297
0001e0 e6 a0 2d 3e f1 16 22 3d 29 ad e2 bc 8a 15 a2 3d
       0.16955909 0.03957266 -0.02767046 0.079142645
0001f0 ba 0a 2f 3e 04 53 34 3c 99 d5 92 bc 91 95 26 3e
       0.17093936 0.011006121 -0.017924117 0.16267993
000200 3b 95 de 3d 78 f3 e1 bc 22 a6 df 3d 37 bb 0c bd
       0.10868307 -0.027581915 0.10920359 -0.03435823
000210 0e e5 0f 3e 37 95 c3 3d d8 d6 da 3d 13 86 44 be
       0.14052221 0.09549945 0.106855094 -0.1919177
000220 ff 01 62 3c 84 49 82 3d fe fe 08 bd ed 12 c2 bb
       0.013794421 0.06361678 -0.033446305 -0.0059226663
000230 13 49 d4 bd c8 5b 0a bd 7d 77 23 bb 55 8f 30 bd
       -0.103655 -0.033778936 -0.0024943047 -0.043105442
000240 72 e6 ce bd ee b5 d5 3d b8 28 b5 bd 9b 80 70 3e
       -0.10102548 0.10435091 -0.08845657 0.23486559
000250 32 ff 42 3e e9 a6 47 3e d4 cc 06 3e 0c 60 1d 3e
       0.19042662 0.19497265 0.13164073 0.1536867
000260 ff 33 45 3d 5c 67 fb 3d 19 45 a8 bd 62 48 09 bd
       0.04814529 0.122755736 -0.08216304 -0.033516295
000270 14 ab a5 bd cb cd 6e bc a7 95 61 bd a3 22 ea 3c
       -0.08089271 -0.014575432 -0.05507436 0.02858097
000280 eb c2 23 be 3e b7 42 3c c4 8e 46 3c 85 ab a5 bd
       -0.15992324 0.011884509 0.012118999 -0.080893554
000290 4f 18 bd bd 62 41 90 bd 8e 52 7a 3d 0f de 5a 3d
       -0.09233152 -0.07043721 0.061113887 0.053434428
0002a0 84 1a e6 3b 29 c0 d5 bc 4a 3d 9d 3c 67 dd 84 bd
       0.007022204 -0.026092606 0.019194264 -0.06487542
0002b0 22 23 3d 3e 55 a1 54 bd 5a 34 96 3d a0 04 ed bd
       0.18470433 -0.05191167 0.07334204 -0.11573148
0002c0 4a bd c0 bd 97 bc 34 be d9 2d 34 be 69 b9 2b be
       -0.09411104 -0.17650066 -0.17595614 -0.16769947
0002d0 42 b8 a2 bd 02 ef af bc 40 45 b3 3d 8b 29 8e bd
       -0.07945301 -0.021476272 0.08753443 -0.069415174
0002e0 da f0 25 3c 52 8f 1f be 66 a5 d0 bd 03 4c 23 be
       0.010128224 -0.15582016 -0.10187797 -0.15946965
0002f0 c9 7b 1f be 39 9f 81 3d a5 99 45 3e 7b 3e bd 3d
       -0.15574564 0.063291974 0.19296892 0.09240433
000300 0e 7a 32 3d 26 d4 47 3e b4 48 15 3d 6a af d0 3c
       0.04357343 0.19514522 0.03644629 0.025474269
000310 0e 2f be bd 14 6f 71 3c 5b 40 03 bc 4c b2 2d 3e
       -0.09286319 0.014735956 -0.008010949 0.16962546
000320 11 95 dc bb 7c 9c 0a 3e 60 ac 1a 3d a6 ed 0e bd
       -0.0067316373 0.13536257 0.037762046 -0.034894608
000330 27 9c 61 bb 4f 41 87 bd f2 32 1c 3e 21 e3 d5 3d
       -0.003442535 -0.066042535 0.15253809 0.10443712
000340 4a 39 de bd 75 0b cb bd 30 d9 5a 3d 6a c0 90 3d
       -0.10850771 -0.09914295 0.053429782 0.0706795
000350 80 a8 93 3d 51 be da 3c b2 59 5b be 05 7e 12 3e
       0.07209873 0.026702078 -0.21420935 0.14305885
000360 21 69 b4 bd 85 17 17 be a6 f9 90 3d 6a b7 ce 3c
       -0.08809114 -0.14755066 0.07078867 0.025233943
000370 a8 ae b2 bd 56 90 ec bd c1 69 07 3e a4 d6 00 3e
       -0.08724719 -0.115509674 0.13223936 0.12581879
000380 75 9e a4 3d 32 2a b5 3d a9 6c 7c 3d 90 b8 68 bd
       0.08038036 0.08845939 0.061627064 -0.056816638
000390 dc 88 00 be 23 37 04 be 85 9c ce 3d 92 51 f0 bc
       -0.12552208 -0.12911658 0.100884475 -0.02933577
0003a0 ff 48 93 3c 7b cf c5 3d e2 2a b0 bd 13 72 ad bd
       0.017979143 0.096587144 -0.08601929 -0.084690236
0003b0 b0 ab bd 3d a2 31 42 bd 83 40 a0 3d 0f ef b6 3c
       0.092612624 -0.047410615 0.07824805 0.022330789
0003c0 d7 c6 0f be d4 77 53 be 50 56 4b bd 9c fc d8 bd
       -0.14040695 -0.2065118 -0.04964286 -0.105950564
0003d0 a3 58 e4 3d 80 04 28 3e 8f 43 b3 3d 90 3b 31 3e
       0.111497186 0.16407967 0.0875312 0.17307878
0003e0 ff 4d d3 bb dd e9 03 3e bc 27 d0 bd bd 27 01 be
       -0.006448507 0.1288218 -0.10163829 -0.12612815
0003f0 0c 66 a5 39 e5 c7 74 3d b1 e2 3c be a8 1e 88 be
       0.00031547283 0.059760947 -0.18445851 -0.2658589

conv5.op.bias f4 [64]
000000 7e 9c 99 be 12 91 bd 3e 63 e3 e6 3e 31 d3 7a 3e
       -0.30002207 0.37024742 0.45095357 0.24494626
000010 40 c3 da 3e e4 cc 80 3e ed 0a 2a 3e f0 dc 84 3e
       0.4272709 0.2515632 0.1660573 0.25949812
000020 a9 8b 2d bc 8c 32 36 3e 4b 0d d7 3d 58 14 66 be
       -0.01059238 0.1779272 0.10500582 -0.22468698
000030 05 4f da 3d 4c 76 38 3e db 79 95 3e 6b bb aa 3e
       0.10659603 0.18013877 0.2919453 0.33346114
000040 68 2f 25 3e 35 72 9a 3e 4c d5 56 3e 69 20 8c 3e
       0.16131365 0.30165258 0.20979804 0.27368477
000050 ad 00 6f 3e 50 5d 82 3e 2c 3d 6b be b8 49 9c 3e
       0.23340102 0.25461817 -0.22972554 0.30524993
000060 26 a1 c7 bd 9c 4d 2f 3d 80 ad ac 3e b8 ef 60 3e
       -0.097475335 0.042798623 0.3372612 0.21966445
000070 2d 2a 45 3e fe 5e 66 3e fe 99 32 3e 0f 80 98 3e
       0.1925437 0.22497174 0.17441556 0.297852
000080 dd eb a9 3e 43 17 08 3e d4 55 d0 3d b2 78 37 3e
       0.33187762 0.13290124 0.101726204 0.17917135
000090 b6 b6 ba 3d e0 f5 1c 3b 42 78 e5 3d fd 3b 1b 3e
       0.091168806 0.0023950264 0.11204578 0.15159602
0000a0 3e 09 c1 3e 51 a2 7a 3e 01 b2 ba 3d 17 56 74 3d
       0.37702364 0.24475981 0.09115983 0.059652414
0000b0 ff ae 37 3e 2a c6 4d 3e 1e 46 84 3e 1f 39 c5 3d
       0.1793785 0.20095125 0.25834745 0.096300356
0000c0 ac 94 08 3e b5 00 b3 be 46 ac 60 3e cb d8 47 3e
       0.13337964 -0.34961477 0.21940717 0.19516294
0000d0 a7 cc 14 3e 73 67 56 3e 8d 61 e0 3d 4a 12 4e 3e
       0.14531194 0.209379 0.10956106 0.20124164
0000e0 54 54 16 be 11 ef 00 3e e6 38 40 3e fb 1c 88 3e
       -0.14680606 0.12591197 0.18771705 0.2658461
0000f0 ac 67 c6 be 95 d7 53 bd bb fc e6 3e 7d c8 7c 3e
       -0.3875097 -0.051719267 0.45114693 0.24685855

conv6.op.weight f4 [64, 64, 3, 3]
000000 1f f7 29 bc fa 56 84 bd f3 71 6e 3d 2e f4 a4 be
       -0.01037386 -0.06461902 0.05821414 -0.32217544
000010 d7 7c 05 be 49 cd 33 be ed d1 a3 be 08 3f de 3e
       -0.13035904 -0.17558779 -0.31996098 0.43407464
000020 f0 99 74 3c 33 fc ad be 3a f2 03 be 03 ec 97 be
       0.01492928 -0.33981475 -0.12885371 -0.2967225
000030 b6 74 64 be 93 a9 bb be 61 5c a5 3d 2f 8c 7f ba
       -0.22310147 -0.36652812 0.080742605 -0.0009748367
000040 9e 64 b0 bd f6 22 dc 3d ef 17 42 be 00 cc 20 be
       -0.08612941 0.10748856 -0.18954442 -0.1570282
000050 d7 8e 07 3e 1c c8 1b be 79 c2 40 be 06 95 83 be
       0.13238083 -0.15213054 -0.18824185 -0.25699633
000060 ba 73 59 be 65 f6 0e 3c 08 02 41 3e a2 11 92 be
       -0.21235552 0.008725737 0.18848431 -0.28529078
000070 5d 1f 7a be 7c 08 d5 bd 3c a6 70 3d a2 22 6b 3e
       -0.24426027 -0.10402009 0.058752283 0.2296243
000080 36 6d f7 3d 40 94 14 bd 10 f6 df be 3b 18 60 3d
       0.12081377 -0.036274195 -0.43742418 0.054710608
000090 20 b5 38 bd fd 86 94 bd 34 bc 01 3d a9 4d a6 be
       -0.04509461 -0.072523095 0.031673625 -0.32481125
0000a0 32 1b 9a be 0b f7 75 3e 20 c4 a9 bd d5 05 90 be
       -0.30098873 0.2402002 -0.08289361 -0.2812945
0000b0 01 d2 5f 3c b1 9a 96 be 5f 82 f1 3c 0c 63 3b 3e
       0.013660909 -0.29414895 0.029481111 0.18299502
0000c0 a4 43 e9 3d ce fa bd bd 8b c3 de 3d ba c3 60 3e
       0.113898546 -0.09276353 0.108771406 0.21949664
0000d0 dd 62 8b bc 54 ee 08 be 35 e4 e7 bd 55 44 47 be
       -0.017014915 -0.13372165 -0.11322824 -0.1945966
0000e0 d2 98 10 3e 05 30 78 3e b5 1d cb bc c6 45 14 3e
       0.14120796 0.24237068 -0.024794439 0.14479741
0000f0 b9 12 cc 3d ef 8a 2b 3d fd bb 8b 3e cd 8f 41 bd
       0.099645086 0.041880544 0.2729186 -0.04725628
000100 ac de 5f 3c db 4e 73 be 0e 61 91 3e 93 af c3 3e
       0.013663929 -0.2376055 0.2839436 0.3821989
000110 a2 c2 96 3e ce 34 3d be fa d2 5d be 63 66 97 3d
       0.29445368 -0.18477175 -0.21662512 0.073925756
000120 b6 83 ab be f2 b1 94 be ef 37 1a be 5e e9 5c be
       -0.33498925 -0.29042011 -0.150604 -0.21573398
000130 fa 3f fa 3e f9 bf 8e 3e 08 a3 28 be 88 58 db bd
       0.48876935 0.2788084 -0.16468441 -0.10710245
000140 de a2 a5 be 81 61 be bc d6 48 96 be 16 b0 46 be
       -0.3235082 -0.023239853 -0.29352444 -0.19403109
000150 53 ae f7 3d ab 50 90 bc e8 39 2a be 2a 3f 65 bd
       0.120937966 -0.01761659 -0.16623652 -0.05596844
000160 ad 37 83 3e 74 49 3e 3e 92 5d 5c 3d ad a0 8b 3e
       0.25628415 0.18582708 0.053800173 0.27271023
000170 46 14 8f bd a0 89 b3 bd 14 35 e2 bd 8b 6d 2f bc
       -0.06986289 -0.08766484 -0.1104528 -0.010707269
000180 09 39 f8 bd cd 20 0c 3e 8e b1 32 3e dd dc af 3e
       -0.121202536 0.13684388 0.17450544 0.34348193
000190 5b de 8d be a6 31 9a be 76 5d 32 be 23 c5 9c be
       -0.27708706 -0.30116004 -0.17418465 -0.30619153
0001a0 07 2f 85 3d ed ad 4c 3e 12 3f b0 be 1f fb 5c be
       0.065031104 0.19988222 -0.3442312 -0.2158017
0001b0 ed d0 57 3e 24 2d 23 bd 22 c3 8b be 5e d9 98 be
       0.21075793 -0.03983797 -0.27297312 -0.29853338
0001c0 48 ec d3 3c 6b 7d 6a bc 01 d7 5e 3e 98 fb 87 be
       0.025869504 -0.014312129 0.21761705 -0.26559138
0001d0 82 ec 9e bc fd c3 be 3d dc 0f af be 74 0d a1 3d
       -0.019399885 0.093147255 -0.34191787 0.07863894
0001e0 ca 6c 8e be ba dc 82 be 06 0b 0c 3c d7 c7 5d 3e
       -0.27817374 -0.25559026 0.00854755 0.21658264
0001f0 85 87 d1 bb 6f f1 b4 bd aa 05 40 3e e5 f2 6a 3e
       -0.006394329 -0.08835112 0.1875216 0.2294422
000200 34 89 8c bc fd 0e 2d 3e 8a 3b b8 be d1 9a 94 be
       -0.017155267 0.16900249 -0.35982925 -0.29024366
000210 e0 50 fc 3c 27 bd 5f be 05 28 3f 3e 3e 0a 8c bd
       0.030800283 -0.218495 0.1866761 -0.06837891
000220 19 26 05 be 40 cd 66 be a1 cb 4f bd 98 56 87 3c
       -0.13002814 -0.22539234 -0.050731305 0.016520783
000230 65 fa 4b 3e 01 1e 3f be d5 78 ed bd d0 d9 57 be
       0.19919737 -0.1866379 -0.115953125 -0.21079183
000240 d8 29 0d bd 26 90 62 bc 62 54 13 3e 5d fa 8e 3c
       -0.034463733 -0.013828313 0.14387658 0.017453367
000250 f6 ca a1 3e 17 05 46 3e 65 04 ae be 34 ef f3 bc
       0.3160016 0.19337879 -0.33987728 -0.029777147
000260 be 51 9b bd 92 13 46 bc 90 40 fc 3c 52 df 89 3e
       -0.075839505 -0.012089627 0.030792505 0.26928192
000270 d2 9a 86 bd 61 af ac be 99 25 80 3d 19 95 b2 bd
       -0.065724984 -0.33727553 0.06257171 -0.08719844
000280 fc da f1 bd 7f 7f 84 be c1 27 2a be a7 f0 ed 3d
       -0.11809346 -0.25878522 -0.16616727 0.116181664
000290 2d 19 b1 3e 62 6c ad be bb 9b b6 3e 09 36 ee 3d
       0.3458952 -0.33871752 0.35665688 0.116314
0002a0 0d 4b 73 be 59 ee 27 3e e7 a0 2e be 61 76 8a bd
       -0.23759098 0.16399516 -0.17053567 -0.0676086
0002b0 e5 c7 d2 3d c5 74 43 3e f5 f4 85 bd e9 2a e7 3e
       0.10292033 0.19087513 -0.065408625 0.45149925
0002c0 28 3f d2 bd 00 75 77 be 2f ab db be 5b a9 3f 3d
       -0.10265952 -0.24165726 -0.4290404 0.04679237
0002d0 82 5a 81 be d6 25 98 3e bd 5a 89 be ab b0 75 3d
       -0.25264364 0.29716367 -0.2682704 0.059982937
0002e0 f9 e6 9c 3d 21 42 91 3e 39 47 4c 3e e3 1e 0f be
       0.07661242 0.28370765 0.19949044 -0.13976626
0002f0 94 85 30 3c 11 3e d5 bd 16 07 e7 bd 14 49 84 3e
       0.010774035 -0.10412229 -0.112806484 0.25837004
000300 b2 31 1e be ce e9 8d 3e 84 ce 9f be c7 e6 be 3d
       -0.15448645 0.2771744 -0.31212246 0.09321361
000310 7a 59 3c be 38 14 91 3e 47 0f 6c bc 20 83 bc 3d
       -0.18393508 0.28335738 -0.014407939 0.092046976
000320 9a e0 69 3e 54 b5 84 bd ef e9 b9 be ed ec 80 3e
       0.22839585 -0.06479898 -0.3631129 0.2518076
000330 a9 8f a4 3d 78 93 5a 3d 70 18 25 be 9c 0a cc 3d
       0.080352135 0.053363293 -0.16122603 0.09962961
000340 5e 5a 79 3e 2d 38 5a be e4 40 d3 bd ee f5 bd bc
       0.24350879 -0.21310492 -0.10315111 -0.023188557
000350 35 9c 5b be 4a 3a 94 3e a6 26 55 3e b1 b8 ae bd
       -0.21446307 0.2895072 0.20815524 -0.08531321
000360 b2 aa 8f 3e f9 ff 45 be 48 2d 0a 3d ac 20 5e be
       0.28059918 -0.19335927 0.03373459 -0.21692151
000370 64 7a 1d be 53 e1 6e 3e d7 f2 65 be 8c bf 6b be
       -0.1537872 0.23328142 -0.22455917 -0.23022288
000380 b2 ee 3c 3e e5 0b 51 3e 09 65 7b be 4c 46 40 bc
       0.1845043 0.20414694 -0.2455026 -0.01173551
000390 a8 20 70 be 13 7b 93 be d7 4d 63 be 38 de 41 3e
       -0.23449957 -0.28804836 -0.22197662 0.18932426
0003a0 b8 a9 08 bd c7 7b 9f 3e 05 24 0c be ee 51 77 be
       -0.03336498 0.31149122 -0.13685615 -0.24152347
0003b0 fe 30 8b bd a8 ae 94 3e d3 98 8c 3e 9f 06 ef bc
       -0.06796454 0.29039502 0.27460346 -0.029177962
0003c0 ac 46 5e be e6 76 92 be 2a e7 a7 3e c5 c5 9d 3d
       -0.21706647 -0.28606337 0.32793552 0.07703737
0003d0 87 89 8a 3e 92 69 5f 3e f1 b7 dc 3c ac e3 7a be
       0.2705805 0.21817616 0.026943179 -0.24500912
0003e0 12 46 9e 3e 31 4b 11 3d c3 33 42 3e ee c0 5d be
       0.30912834 0.0354721 0.18965058 -0.21655628
0003f0 99 06 b6 3d df 27 69 bd d2 5a 89 be 1a 1e 9f 3e
       0.08887977 -0.05692279 -0.26827103 0.31077653

conv6.op.bias f4 [64]
000000 3d 41 27 3e dc 8a 00 3e f4 b5 fb 3d e6 f3 32 3e
       0.1633348 0.1255297 0.12290564 0.17475852
000010 dd ce 3d 3c 64 d6 e6 3d 55 40 54 3e 80 65 15 3e
       0.011584965 0.112713605 0.20727666 0.145895
000020 3b 93 9c 3d f3 f9 25 bd 43 38 4f 3c 74 2d 41 3e
       0.076452695 -0.040521573 0.012647691 0.18864995
000030 7e 15 0c bd 05 2c 36 3e 32 15 64 3d b9 43 b3 3d
       -0.034200184 0.1779023 0.055684276 0.087531514
000040 42 56 d9 3d c6 5b b8 3d c9 e0 a5 3e e8 70 61 3e
       0.106121555 0.090018794 0.3239806 0.22015727
000050 db f1 6a 3e 79 9f 52 3e f1 8d c7 3e 01 32 e4 3e
       0.22943823 0.20568646 0.3897548 0.445694
000060 d6 96 d9 3d 04 6d 27 3d d6 0c 9c 3d 85 d5 8b 3d
       0.10624473 0.04087545 0.07619636 0.06827835
000070 7d ab 04 be 2d be 32 3e 6c 95 6a 3d 69 db df 3d
       -0.12956043 0.17455359 0.057271406 0.10930521
000080 3a 87 8d bc e4 ec 08 be 8f e1 5f 3e 6d 51 0e 3e
       -0.017276395 -0.13371617 0.21863388 0.13898249
000090 38 3e 18 3e 58 76 e9 3c 8d a6 d3 bd a4 42 8a bd
       0.14867485 0.028498814 -0.103345014 -0.06750992
0000a0 c3 c0 86 3e 42 27 d0 bd 03 3a 88 3d 1f ef e8 3d
       0.2631894 -0.10163738 0.0665169 0.11373734
0000b0 74 b5 58 3e 7d 68 95 3d fc c7 86 3e 00 79 2d 3e
       0.21162969 0.0729532 0.2632445 0.16940689
0000c0 d2 e3 a6 bd 2e 3a 7b 3e 88 53 b2 bd e3 67 0e 3e
       -0.08148922 0.24533913 -0.087073386 0.13906817
0000d0 2a 0b 39 3e a5 ea 76 3d be d3 e7 3d d7 65 c0 3e
       0.18070665 0.06028237 0.113196835 0.37577698
0000e0 11 4e 62 bc b5 87 64 3c bb 46 0c 3d 67 8d 70 3e
       -0.013812558 0.013948371 0.03424714 0.2349144
0000f0 a6 93 52 3e fd 2b 1d 3e c1 bf 4c 3e e1 7b f5 bd
       0.20564136 0.15348811 0.19995023 -0.11986519

fc.op.weight f4 [3, 128]
000000 49 c0 4b 3e 94 73 96 3c 3b 80 9f 3e 71 02 45 bd
       0.1989757 0.018365659 0.3115252 -0.04809803
000010 55 04 55 3c 18 51 ce 3d 46 15 2b be 49 21 f3 3c
       0.013001521 0.10074061 -0.16707334 0.029678958
000020 1d c9 9f bd f2 44 49 be df e7 cf 3d d8 c9 bd 3d
       -0.07802031 -0.19655207 0.10151648 0.09267014
000030 ef 20 3e be 8d a0 cd 3d 20 1f 7e bc e9 0a 49 bd
       -0.1856725 0.10040388 -0.0155103505 -0.04908267
000040 b4 d8 0c 3e fb 0b 47 3e 17 8e c0 3c 8b 98 2c be
       0.1375454 0.19438164 0.023505254 -0.16855066
000050 c8 0c 0c 3d 00 83 02 be 53 08 31 3e c9 a4 dc bd
       0.034191877 -0.12745285 0.17288332 -0.10773618
000060 a0 b6 5d 3e 54 03 c9 3d 8d 72 36 bd dd 0e 48 3e
       0.21651697 0.09815088 -0.044542838 0.1953692
000070 8c 32 cd bd a9 59 2d 3e 9f 13 0e 3d 23 24 80 bd
       -0.10019407 0.16928734 0.03468668 -0.062568925
000080 2c 6f ca bd 30 6d 38 3e 1b ff b3 bd ca 27 f4 3d
       -0.098844856 0.18010402 -0.08788892 0.11921652
000090 76 2b 3f 3e 25 69 17 3d ca a5 51 3d dd 67 14 be
       0.18668923 0.036965508 0.0511835 -0.14492746
0000a0 6e 7d 1b bd ef 51 e4 3d c6 86 d3 bd d6 d1 5b 3e
       -0.037961416 0.1114844 -0.1032844 0.21466765
0000b0 61 e1 67 3c fd 1e a8 3d 58 92 39 3e 79 0f f3 3d
       0.014152856 0.082090355 0.18122232 0.118681855
0000c0 6c 0b 5f bc 3d 81 0e be 8f 78 5f 3e ab ca 14 3d
       -0.013613563 -0.13916488 0.21823333 0.03632609
0000d0 6d 93 9a bc bb 06 21 be 0e 3d b1 bd ff d5 e1 bd
       -0.018869126 -0.15725224 -0.086542234 -0.11027145
0000e0 07 9e 6b 3e 51 a2 3e bc 81 08 5e bd e7 63 d2 3d
       0.23009501 -0.011635379 -0.05420733 0.10272961
0000f0 99 ea 91 bd 60 c2 2b 3e 47 e3 17 3e 58 b7 e4 bc
       -0.07124824 0.16773367 0.14832793 -0.027919456
000100 79 44 5d 3e c9 d3 f3 bd 0a b5 6a 3c 4a 66 1d 3c
       0.21608151 -0.11905629 0.01432539 0.009606907
000110 39 78 b7 3d 8e c3 6a 3d c1 28 22 3d 18 5a 4d be
       0.089584775 0.0573154 0.039589647 -0.200539
000120 25 62 95 3d 7e cf 25 3e 2e f2 ab bd 5a 2c 2c 3e
       0.0729411 0.16192433 -0.083958015 0.16813794
000130 12 a2 4d be da bb 99 3b e1 32 f5 3d fe f5 bd 3d
       -0.20081356 0.004691583 0.11972595 0.09275435
000140 12 b7 bb bd c4 44 7e 3e 59 43 69 be f4 33 f3 3c
       -0.09165777 0.2483092 -0.22779597 0.02968786
000150 23 34 11 be 73 b2 2e 3e a3 d1 29 3e ac cf 2d 3b
       -0.14180045 0.1706026 0.16583876 0.0026521487
000160 9c 5a 5e 3c 1a e0 23 3e 6d 7b 84 bd 67 ec fb 3d
       0.013571408 0.16003457 -0.06468854 0.123009495
000170 d4 11 4a 3d 2c c1 bd 3d 0f 87 38 bd a5 de 60 3e
       0.04933341 0.0926536 -0.045050677 0.21959932
000180 d2 c5 af 3d 37 c2 4a be 17 fe 22 3e 2d 81 e0 bc
       0.08582653 -0.1980065 0.1591724 -0.027405346
000190 c5 7e 80 bd 7d 5d a5 bb 7a 2b 16 be 57 bf 59 3e
       -0.06274179 -0.005046545 -0.14665022 0.21264397
0001a0 2b a1 3e 3e 80 87 98 3d ce cc c9 3d c0 80 5f be
       0.18616168 0.074477196 0.098535165 -0.21826458
0001b0 a5 8a 93 bd 8f bb 9a 3e 91 93 50 3e ae 79 dc bc
       -0.07204179 0.3022122 0.20368792 -0.02691349
0001c0 45 40 32 bd 59 cf af bd 57 94 6e 3e ab 72 fe bd
       -0.043518323 -0.0858447 0.23298775 -0.12424215
0001d0 4c f9 5f be 16 27 c3 3d 02 6b 6c 3d 5e 8d 82 3e
       -0.21872443 0.095289394 0.057719238 0.2549848
0001e0 95 c3 cb bd 21 17 91 bc 98 5d 7e 3d 2e 9b e7 3d
       -0.09949414 -0.017711224 0.062100977 0.11308895
0001f0 ad 9c 10 3e 42 0b 8e bd ce bd 1f 3c 18 71 5d 3e
       0.14122267 -0.06935741 0.009749843 0.21625173
000200 bd f4 fc bd a2 d5 e5 3d 30 76 4d be eb 8b 27 3e
       -0.123513676 0.11222388 -0.20064616 0.16361968
000210 fb f2 a4 bd bb 0c 18 be 46 ff d1 3d 15 7d f2 bd
       -0.08054157 -0.14848606 0.10253768 -0.11840264
000220 5b bb 23 bd df 44 15 3e cc 74 c6 bd cc 2a e5 bd
       -0.039973598 0.14577053 -0.09690246 -0.111898035
000230 17 84 21 3e c8 92 b3 bd 30 da 52 3c 05 63 3b 3e
       0.15773045 -0.08768231 0.012869403 0.18299492
000240 89 94 d4 bc 4a 32 b6 bd 17 d2 a3 3c 39 ad 09 3e
       -0.025949733 -0.088963106 0.01999764 0.13444985
000250 bf 96 d1 bc d2 97 26 3e ae e1 01 bd ea cb 5c 3d
       -0.025584577 0.16268852 -0.031709366 0.053905405
000260 eb 69 34 be 4f 61 ed bc 38 dd 8a 3d 4c c1 ad bc
       -0.1761853 -0.028977064 0.067804754 -0.021210335
000270 e5 58 dd 3c 2f fe 53 bc 8c 16 ee bc f4 6e 42 3e
       0.027019927 -0.01293902 -0.029063486 0.18987638
000280 a6 eb 38 3e a7 8a 79 bd cd ac a0 bd d6 cf d6 3d
       0.18058643 -0.060923245 -0.07845459 0.1048886
000290 cf 76 94 bd 05 93 98 bd 6d e3 03 bd 55 42 0c 3e
       -0.072492234 -0.07449917 -0.032199312 0.13697179
0002a0 68 c3 dd 3b e7 a0 c2 3d e0 60 3e 3e e2 16 52 be
       0.006767679 0.09503346 0.18591642 -0.20516542
0002b0 2d 84 ae bc 52 5a 24 3e f4 35 39 bd de cb 74 3d
       -0.02130326 0.1605008 -0.04521747 0.059764735
0002c0 42 35 3f bd fe d5 1c 3e 39 1e 2e be 21 ed 39 3c
       -0.04668165 0.15316007 -0.17003717 0.01134804
0002d0 07 d2 5a bd 78 27 40 3e 6d ab 40 3e 25 10 a8 3d
       -0.053422954 0.18765056 0.18815394 0.08206204
0002e0 3b df 82 be 2f 9a cb 3b 4e 4b 55 bd bc 0e fe 3c
       -0.25560936 0.0062134485 -0.05207377 0.031012885
0002f0 ad 2c 2f 3e 4e 9f 1a be e9 e8 10 3c e0 32 5e bd
       0.17106886 -0.15099832 0.008844593 -0.054247737
000300 22 d9 4b be 8f 2e 36 3c db 16 40 3e a8 f4 18 3d
       -0.19907048 0.011119499 0.18758719 0.037342697
000310 fb 89 87 bd cd 2d f0 3d 2b 99 b2 3c a8 44 2b 3e
       -0.066181146 0.11727486 0.021801552 0.16725409
000320 c3 a2 c5 bd e8 f8 55 be 05 18 23 3e 3e 0f 21 be
       -0.09650185 -0.20895731 0.15927131 -0.1572847
000330 ef 33 27 3e af d1 18 3d f0 05 b1 3d 28 0c ff bc
       0.16328405 0.037309345 0.086437106 -0.031133726
000340 41 3e ac 3c 41 db 31 be 38 bc 08 3e ca 05 57 bd
       0.021025779 -0.17368795 0.1335305 -0.052495755
000350 c3 fe 99 3d d2 fe 0b be 04 bd 6f be ba 2e ec 3c
       0.07519295 -0.13671425 -0.23411947 0.028830875
000360 00 68 84 3d 36 15 c5 3d e8 6d 15 3e e8 54 ef bd
       0.06465149 0.09623186 0.14592707 -0.116861165
000370 59 73 13 3d 49 1f 0e 3e 91 57 38 bc e8 c1 a8 bd
       0.035998676 0.13879122 -0.011251346 -0.0824011
000380 da 25 de 3c 40 8d 30 3e 8b 05 d9 bd b4 4f 7f bc
       0.027117658 0.17241383 -0.1059676 -0.015582968
000390 33 14 54 bd 6f 9a 03 3d fe 05 53 3e 46 98 22 be
       -0.051777076 0.0321297 0.20607755 -0.158784
0003a0 ee 55 01 be 3c 54 90 bd a4 9c a2 3d 37 e1 5f 3e
       -0.12630436 -0.070473164 0.07940033 0.21863256
0003b0 96 7d 90 3d 5f 2e 95 be a3 9e 13 be ca 1a 0c 3e
       0.070552036 -0.2913694 -0.14415984 0.13682094
0003c0 69 fb 8c 3d 9b 03 1c 3e e0 87 07 be c9 38 12 3e
       0.0688389 0.1523575 -0.13235426 0.14279474
0003d0 33 06 19 3e 47 1b 1c bb 68 ab 85 3c 32 cc 78 be
       0.14943771 -0.002381997 0.016317084 -0.24296644
0003e0 f6 65 7e 3d 2a 49 38 3e 57 28 33 3e c2 bb ad bd
       0.062108956 0.1799666 0.17495857 -0.084830776
0003f0 34 8d e8 bd f0 31 2b 3e 8b 47 1b 3e 45 44 8a be
       -0.11355057 0.16718268 0.1516401 -0.2700521

fc.op.bias f4 [3]
000000 56 4a d3 3c 8b de 03 3e 7e 79 b7 bd
       0.025792282 0.12877862 -0.0895872
