Results/leftandright/1D/200Epochs/width landr/checkpoint.pth.tar (torch, 581158 bytes, 21 tensors)

conv1.op.weight f4 [50, 128, 1]
0	0xbb1c060a	-0.002380731
1	0x3d3ca43a	0.046055056
2	0xbd97f547	-0.0741983
3	0xbd88bd56	-0.06676738
4	0xbd12eadc	-0.03586851
5	0x3cb2eefa	0.021842469
6	0xbb636cbe	-0.0034702267
7	0x3d8bd34e	0.068274125
8	0xbc1d8fe0	-0.009616822
9	0x3cac1874	0.021007754
10	0xbceb5d61	-0.02873105
11	0xbc9c6a58	-0.019093677
12	0xbdb2da73	-0.08733072
13	0xbd77c4b6	-0.060490333
14	0xbd1c4a21	-0.038156632
15	0x3b6a9e70	0.0035800003
16	0x3d08f816	0.03343972
17	0x3d53d106	0.051713012
18	0xbd7a4351	-0.061099354
19	0xbd24c4ec	-0.04022686
20	0x3d054cab	0.03254382
21	0x3d95e2aa	0.07318623
22	0xbca38d5d	-0.019964868
23	0x3d860808	0.065445006
24	0xbc823b3d	-0.015897388
25	0x3c014686	0.007890349
26	0x3da1fad4	0.0790917
27	0xbdabfd1d	-0.08397887
28	0xbd6a7ec1	-0.05724979
29	0xbcc30d80	-0.023810148
30	0xbd15c9df	-0.036569472
31	0x3d98f54d	0.074686624
32	0xbd723918	-0.05913648
33	0xbd2f1df8	-0.04275319
34	0xbd81fa25	-0.063465394
35	0xbdadef6c	-0.08492932
36	0xbd5b463c	-0.053533778
37	0x3d98172f	0.07426297
38	0x3d1a5a7d	0.037683953
39	0x3d287187	0.041123893
40	0x3b439ef8	0.0029849391
41	0xbd408ded	-0.04701035
42	0x3c58d75d	0.01323494
43	0xbdad6183	-0.084658645
44	0xbd86a7e4	-0.06574991
45	0xbd429854	-0.047508553
46	0x3d5e78f2	0.05431456
47	0x3d4d3e5e	0.050108306
48	0xbd29878f	-0.041389044
49	0xbba0d518	-0.0049082153
50	0x3d629026	0.055313252
51	0x3db0778d	0.086165525
52	0x3d095c89	0.033535514
53	0x3c28237a	0.0102623645
54	0x3d6ccf7a	0.057815053
55	0xbd5c29a5	-0.053750653
56	0x3c74a3c0	0.014931619
57	0xbd8f9fb1	-0.070128806
58	0xbd80c058	-0.06286687
59	0xbd4171b2	-0.04722757
60	0x3d1d7403	0.038440716
61	0x3d0b2413	0.03396995
62	0xbd5d5018	-0.05403146
63	0x3cce55ea	0.025187451
64	0x3d416160	0.047212005
65	0xbc5107b5	-0.012758185
66	0x3add685b	0.0016892062
67	0x3c99e899	0.018787669
68	0x3d59d533	0.05318184
69	0x3daa5b9c	0.08318254
70	0xbd8f0b7a	-0.06984611
71	0xbd0bb57a	-0.034108616
72	0x3d078b30	0.033091724
73	0x3d9293d7	0.071571045
74	0x3d9a2ecb	0.07528456
75	0x3d9c53b5	0.07633153
76	0x3c82c76a	0.015964229
77	0xbda0d2fc	-0.07852742
78	0x3bd47048	0.0064831115
79	0xbd6962f2	-0.056979127
80	0xbdac3bec	-0.08409867
81	0x3d9d5b58	0.07683438
82	0x3d862e00	0.065517426
83	0xbdb80d5c	-0.08986923
84	0x3c7338a6	0.014845049
85	0xbc87feb3	-0.016600942
86	0xbc85272c	-0.01625403
87	0xbd2cc144	-0.0421765
88	0x3d043800	0.03227997
89	0xbd5d763f	-0.054067846
90	0x3cfb5cc7	0.030683888
91	0x3d300f03	0.042983066
92	0x3d7c2518	0.061558813
93	0x3d005137	0.031327453
94	0xbdb6af97	-0.0892021
95	0xbd71e86f	-0.059059557
96	0x3d2db6a3	0.042410504
97	0x3c897292	0.016778264
98	0xbd90bd87	-0.070673995
99	0xbd5783a4	-0.052615777
100	0x3da6c55d	0.08143113
101	0x3d6ce862	0.057838805
102	0xbd24e687	-0.04025891
103	0xbcc45142	-0.023964528
104	0xbdaff53c	-0.085916966
105	0xbb58a758	-0.003305873
106	0xbd8bd7c9	-0.06828267
107	0xbd8f27ed	-0.06990037
108	0xbbd805f0	-0.0065925047
109	0x3c3d4388	0.011551745
110	0xbd1b4cbc	-0.037914976
111	0x3d4fc890	0.05072838
112	0xbd635bf5	-0.05550762
113	0x3da0bb2d	0.07848201
114	0x3d711197	0.058854666
115	0xbd9c2c6b	-0.076256596
116	0xbcc24ae0	-0.023717344
117	0x3b14c282	0.0022698944
118	0x3c371bfa	0.011176104
119	0x3c9da655	0.019244352
120	0x3d07086a	0.03296701
121	0x3b6a518b	0.003575417
122	0xbd37b0b0	-0.044846237
123	0x3d24458b	0.040105384
124	0xbdb129bb	-0.086505376
125	0xbd5d9fb1	-0.05410737
126	0xbcc3570f	-0.023845224
127	0xbd35ecf9	-0.044415448
128	0xbd1221e1	-0.03567684
129	0xbd9e213e	-0.07721184
130	0xbcc15473	-0.023599839
131	0x3c67a2df	0.014137953
132	0xbd7f6e8c	-0.062361285
133	0xbc1811ff	-0.009281634
134	0x3d6fafd5	0.058517296
135	0xbc61faab	-0.013792674
136	0xbb167e70	-0.0022963546
137	0xbc488361	-0.012238354
138	0x3c5cb2fc	0.013470408
139	0x3d52b8aa	0.05144564
140	0x3da23e6c	0.07922062
141	0x3d531210	0.051530898
142	0x3da22102	0.07916452
143	0xbc2f70b9	-0.0107080275
144	0xbdac4bd0	-0.084128976
145	0xbd3e6c80	-0.046490192
146	0x3d6542f0	0.05597204
147	0xbbae1ea8	-0.005313713
148	0xbd44ff09	-0.048094783
149	0xbd93f86e	-0.072251186
150	0xbdb30cbb	-0.087426625
151	0xbda213d1	-0.07913936
152	0xbcb93063	-0.02260608
153	0x3d337460	0.043812156
154	0x3d2ffcc1	0.042965654
155	0xbdb803a6	-0.08985071
156	0x3d4eea02	0.050516136
157	0xbd976ed9	-0.073941894
158	0xbcbe5982	-0.02323604
159	0xbd2616d7	-0.040549126
160	0xbcb1b0ec	-0.021690808
161	0xbcb36bfb	-0.021902075
162	0xbdac2c68	-0.08406907
163	0xbda5cb6b	-0.080954395
164	0xbc974c94	-0.018469132
165	0xbb6cc50e	-0.0036128196
166	0xbd375880	-0.044762135
167	0x3cea0791	0.028568061
168	0xbdac985b	-0.08427497
169	0xbc2f10db	-0.010685171
170	0x3d9573d5	0.07297484
171	0xbd270330	-0.040774524
172	0x3d99c27f	0.075078
173	0x3cdf7b68	0.027280524
174	0xbdad267a	-0.084546044
175	0x3d518d6e	0.05116027
176	0xbc758f8c	-0.0149878375
177	0xbd35187b	-0.0442128
178	0x3d86d8b6	0.06584303
179	0xbd9c0649	-0.07618386
180	0x3b97b420	0.004629627
181	0xbcbea897	-0.02327375
182	0x3d6e6d90	0.058209956
183	0x3ca2dda6	0.01988108
184	0x3d1a1058	0.037613243
185	0x3cd84283	0.026398903
186	0xbcd5c662	-0.026095573
187	0xbcbfbfba	-0.023406852
188	0xbd9ef281	-0.07761098
189	0x3d3084af	0.043095287
190	0x3d85f5ad	0.065409996
191	0x3d64347a	0.055714108
192	0xbd897ba2	-0.06713034
193	0xba59c855	-0.0008307745
194	0xbd896072	-0.067078486
195	0xbd5ad15a	-0.05342231
196	0xbd6677ec	-0.05626671
197	0x3cd07e96	0.025450986
198	0xbd6b38b5	-0.057427127
199	0xbbdaba15	-0.0066750147
200	0xba85ff06	-0.0010223098
201	0x3d55f57b	0.05223606
202	0xbd928eff	-0.071561806
203	0xbd85fe4e	-0.065426454
204	0xbd65a79b	-0.056068044
205	0x3d69f646	0.05711963
206	0xbd1597bb	-0.036521655
207	0x3d8ef4a6	0.06980257
208	0x3cdeeb23	0.027211731
209	0x3bd319a4	0.0064422656
210	0xbbb14237	-0.0054095048
211	0xbcb60f0d	-0.022223974
212	0x3bcfb990	0.0063392594
213	0xbccc44fa	-0.024935234
214	0xbbb01f86	-0.0053748516
215	0x3bd5c54a	0.006523763
216	0xbd97551c	-0.0738928
217	0xbd513ba6	-0.051082276
218	0x3d886f47	0.066618495
219	0xbd9ca487	-0.076485686
220	0xbc35e0c7	-0.011100954
221	0x3da9563e	0.082684025
222	0x3cdea07b	0.027176132
223	0xbb137853	-0.0022502139
224	0xbda69bff	-0.08135223
225	0x3d1fdfd2	0.03903181
226	0xbd8aac55	-0.06771151
227	0xbcf47c9b	-0.029844573
228	0xbd0cf19e	-0.03441011
229	0xbc922d21	-0.017843785
230	0xbb783991	-0.003787611
231	0x3d8b9193	0.068148755
232	0x3bcdc6f9	0.006279823
233	0x3d98665b	0.07441398
234	0x3d49fd11	0.04931361
235	0xbd785c37	-0.060634818
236	0x3d0ee692	0.034887858
237	0xbd89b2d4	-0.06723562
238	0xbd2ceacc	-0.042216107
239	0x3cae03b8	0.021242008
240	0x3cc81ffc	0.024429314
241	0x3d7c224f	0.061556157
242	0xbd08069b	-0.033209424
243	0xbb9730ad	-0.004613957
244	0x3d26e855	0.040748913
245	0xbdb8cd59	-0.09023542
246	0x3d7244ba	0.059147574
247	0xbd9f6dac	-0.0778459
248	0xbb67d353	-0.0035373762
249	0xbca21025	-0.019783089
250	0xbd5227b0	-0.05130738
251	0x3be2f9e6	0.006926763
252	0x3d8bf2e8	0.0683344
253	0xbcfa9eb6	-0.030593257
254	0xbd6a6b56	-0.05723127
255	0xbd196bbe	-0.037456267

conv2.op.weight f4 [24, 50, 3]
0	0x3d08823c	0.033327326
1	0xbcc2824e	-0.023743775
2	0xbc724761	-0.014787526
3	0x3cc3c2dd	0.023896629
4	0x3ce0837f	0.027406452
5	0x3da2c81f	0.07948326
6	0x3db2c46e	0.08728872
7	0x3c636e0d	0.013881219
8	0x3db252e3	0.08707216
9	0xbd1ebaf7	-0.038752522
10	0x3c253969	0.010084488
11	0xbd6d79cb	-0.05797748
12	0x3d3997a5	0.045310635
13	0x3cb50b72	0.022100184
14	0xbd347256	-0.04405435
15	0xbd5af16b	-0.05345289
16	0xbbc5a5e8	-0.0060317405
17	0xbc8cd9c5	-0.017193684
18	0xbcf303d3	-0.02966491
19	0xbd8bc7d8	-0.068252265
20	0xbd4f9ab1	-0.050684635
21	0x3d9f6070	0.07782066
22	0xbcf7a91e	-0.030232009
23	0x3d2fa1c1	0.04287887
24	0x3c782ddc	0.0151476525
25	0xbaca5b52	-0.0015438593
26	0x3d149348	0.03627327
27	0x3d91dbf7	0.07122033
28	0x3d0e78d7	0.03478321
29	0x3c9a68fa	0.018848885
30	0x3d896fea	0.06710799
31	0x3ba1fdca	0.004943584
32	0x3cacaa64	0.021077342
33	0x3db33ba3	0.08751609
34	0xbd526c0c	-0.051372573
35	0x3d893622	0.06699778
36	0xbce23372	-0.027612422
37	0x3bf523c7	0.0074810716
38	0xbd13e2eb	-0.036105078
39	0x3d805826	0.06266813
40	0xbd685734	-0.05672379
41	0xbcdfed40	-0.02733481
42	0x3c94969b	0.01813822
43	0xbce6064c	-0.028079174
44	0x3c48df17	0.01226022
45	0x3d9e3caa	0.077264145
46	0xbd8d2f70	-0.068938136
47	0xbd4de652	-0.05026848
48	0xbd5bb70e	-0.05364137
49	0x3db45233	0.08804741
50	0x3cf4ae4c	0.029868267
51	0xbd5b2ab0	-0.053507507
52	0xbd873891	-0.06602586
53	0x3d86efb4	0.065886885
54	0x3dacea45	0.08443121
55	0xbd23c19d	-0.039979566
56	0x3cf820e0	0.030289114
57	0xbc72643b	-0.014794405
58	0x3d5d53b8	0.05403492
59	0xbd257d30	-0.04040259
60	0x3d86c7b5	0.0658106
61	0x3dbcd6ab	0.09220632
62	0x3d760a8e	0.06006866
63	0xbb93d61f	-0.004511609
64	0x3ca56bc2	0.020192984
65	0x3d37a055	0.04483064
66	0xbd2320be	-0.039826147
67	0xbcf3cec4	-0.02976168
68	0xbd93702f	-0.07199132
69	0x3d6c396a	0.05767194
70	0xbd1b6476	-0.037937604
71	0x3d8fac91	0.07015336
72	0xbc25f527	-0.01012925
73	0xbcc27254	-0.023736157
74	0x3d43e969	0.04783002
75	0x3b636bf4	0.0034701796
76	0xbd380596	-0.044927202
77	0x3c95dfaf	0.018295137
78	0xbd057303	-0.032580387
79	0xbd5b8ff6	-0.05360409
80	0xbd3b3d5c	-0.045712814
81	0x3d1b24ca	0.03787688
82	0x3c866f1f	0.016410409
83	0xbcc0f40f	-0.023553876
84	0x3d1efed4	0.03881724
85	0xbc82b565	-0.015955636
86	0xbd5ae74b	-0.053443234
87	0x3d1df256	0.038561188
88	0xbc914eb2	-0.01773772
89	0xbc7198e2	-0.014745923
90	0x3d95a287	0.0730639
91	0x3d9b7a97	0.075917415
92	0xbd852fe5	-0.06503276
93	0x3da3fde0	0.08007407
94	0x3daa828f	0.08325683
95	0xbd46ec0d	-0.04856496
96	0xbd9152f8	-0.07095903
97	0xbd5afb55	-0.053462345
98	0xbc46a780	-0.012124896
99	0x3bf16b71	0.0073675443
100	0x3d09f6fa	0.0336828
101	0x3cf84f69	0.030311303
102	0x3ccfeb72	0.025380824
103	0xbd5d58f5	-0.054039914
104	0x3db5b234	0.0887188
105	0x3da442cf	0.08020555
106	0x3d4b912d	0.049698997
107	0x3ce39d2e	0.02778491
108	0xbd12ff40	-0.035887957
109	0x3c80f78a	0.015743036
110	0xbd461b91	-0.048366133
111	0x3daa146e	0.08304678
112	0xbd83a412	-0.06427778
113	0x3d9ece46	0.07754187
114	0x3db0d7e0	0.08634925
115	0xbcf6562f	-0.030070392
116	0xbd81afe0	-0.063323736
117	0x3d0be381	0.03415251
118	0xbd6afddd	-0.05737101
119	0xbd909105	-0.0705891
120	0xbd447c3b	-0.047970038
121	0x3d778392	0.06042821
122	0xbd4d3e63	-0.050108325
123	0xbd0350d1	-0.032059494
124	0xbd037646	-0.032095216
125	0x3d717e6c	0.058958456
126	0x3d2a6c8a	0.041607417
127	0x3d696494	0.056980684
128	0xbba79306	-0.005113962
129	0xbd439445	-0.047748823
130	0x3ceae237	0.02867232
131	0x3d0ec27f	0.034853455
132	0x3da0bac6	0.07848124
133	0xbd86cc6f	-0.06581961
134	0xbd4b6d58	-0.049664825
135	0x3d5a730d	0.053332377
136	0x3cae2583	0.021258121
137	0x3d5dacf4	0.05412002
138	0xbc3c371c	-0.0114877485
139	0x3db9f9b2	0.09080829
140	0x3d28dae3	0.04122437
141	0xbd017291	-0.0316034
142	0xbd21914a	-0.0394452
143	0x3cafbb98	0.021451756
144	0x3bf625c4	0.007511826
145	0xbcf62d43	-0.03005088
146	0xbd0c31f5	-0.03422733
147	0x3d2a90b2	0.0416419
148	0x3d5b0c7d	0.053478707
149	0x3dba17f0	0.09086597
150	0xbcdc8eb2	-0.026923511
151	0xbd26989c	-0.040672883
152	0xbd34019c	-0.043946847
153	0xbd429f2c	-0.04751508
154	0x3db525a9	0.08845074
155	0xbd039de5	-0.032133
156	0xbd0822a5	-0.033236165
157	0x3d8589e1	0.06520439
158	0x3d8de3ef	0.069282405
159	0xbd8c70b4	-0.06857434
160	0xbb13d27d	-0.002255588
161	0x3d016332	0.03158874
162	0x3c99f68c	0.01879432
163	0xbd244c20	-0.04011166
164	0xbd73d11a	-0.059525587
165	0xbd62b236	-0.055345736
166	0x3cfd3d76	0.030913096
167	0xbd0e81b2	-0.034791656
168	0xbd92b7a6	-0.071639344
169	0x3dab368e	0.08360015
170	0x3d253b02	0.040339477
171	0xbc8604cf	-0.016359715
172	0x3cac4efd	0.021033758
173	0xbcac2f2d	-0.021018589
174	0xbd3dcc5d	-0.046337474
175	0xbd8b2880	-0.06794834
176	0x3d78ae6f	0.060713228
177	0xbd8abb4e	-0.06774007
178	0xbd5cbbad	-0.05388992
179	0x3d9b4d1a	0.07583065
180	0xbd547b8b	-0.051875632
181	0xbcd48073	-0.025940156
182	0xb8557af0	-5.089765e-05
183	0xbd9e5acb	-0.07732161
184	0xbd9118df	-0.07084822
185	0xbd80bea5	-0.062863626
186	0xbbca78e7	-0.0061789635
187	0xbcc267c8	-0.023731127
188	0x3d88e4f5	0.06684295
189	0x3d75dbd0	0.060024083
190	0x3db313e5	0.08744029
191	0xbd8018ad	-0.062547065
192	0xbd1a6691	-0.03769547
193	0x3d6bfdda	0.05761514
194	0x3cf37db8	0.029723033
195	0xbd4d513f	-0.05012631
196	0x3d8402e2	0.06445862
197	0xbd1ce776	-0.038306676
198	0x3daf0e26	0.085476205
199	0xbd6a5acb	-0.057215493
200	0x3d4de405	0.050266284
201	0xba4cc85e	-0.00078118395
202	0xbd88a5bd	-0.06672237
203	0x3d3d5922	0.04622758
204	0xbcb60f32	-0.022224043
205	0x3c161f49	0.009162732
206	0xbc8cd35a	-0.017190624
207	0xbc55f6a7	-0.013059295
208	0xbc811a87	-0.01575972
209	0x3d2b50f7	0.04182526
210	0x3ad9bbb5	0.0016611727
211	0x3d8325bf	0.06403684
212	0x3d28b8bb	0.041191798
213	0x3bef1e68	0.007297326
214	0x3d25ee3c	0.0405104
215	0xbca14726	-0.019687247
216	0xbd6dbebb	-0.058043223
217	0xbd481268	-0.04884568
218	0xbd500f03	-0.050795566
219	0xbd86fcda	-0.06591196
220	0x3c560b02	0.013064148
221	0xbbee0ed1	-0.00726495
222	0xbd916e3e	-0.07101105
223	0x3d373fe5	0.04473867
224	0x3d58fcd3	0.052975487
225	0x3d9dc70c	0.07703981
226	0x3c33c534	0.01097231
227	0x3ad874cc	0.00165143
228	0x3d5cd803	0.053916942
229	0xbd84fef6	-0.064939424
230	0x3c32c0a7	0.01091019
231	0x3d797f67	0.060912516
232	0x3d830ccd	0.06398926
233	0x3c8c1e7c	0.01710438
234	0x3a82ac6d	0.00099696
235	0x3d1752aa	0.03694407
236	0x3ccdcb8b	0.02512147
237	0x3bacc15b	0.005272073
238	0x3d94dced	0.07268701
239	0x3d9f2856	0.07771365
240	0xbd238a26	-0.03992667
241	0x3da4037f	0.08008479
242	0xbc73cdd2	-0.014880614
243	0x3cd1003e	0.02551281
244	0x3da534c4	0.08066705
245	0xbcfaeda9	-0.030630903
246	0x3d3caf8d	0.046065856
247	0xbb4fcfe3	-0.0031709603
248	0xbd1ca1ea	-0.03824035
249	0x3af3c810	0.0018599052
250	0x3d9cad2a	0.07650216
251	0x3d55b5f2	0.05217547
252	0xbd0c0401	-0.034183506
253	0x3da7ce70	0.08193672
254	0x3cc9e47a	0.024645079
255	0x3d9eea8e	0.077595815

conv3.op.weight f4 [48, 24, 3]
0	0x3dd64d28	0.10463935
1	0xbca668ef	-0.020313708
2	0xbd7a4533	-0.06110115
3	0xbd486056	-0.048919998
4	0x3cc86074	0.024460055
5	0x3d163024	0.036667004
6	0xbd4bffc0	-0.04980445
7	0x3d309ef7	0.04312035
8	0xbb715de0	-0.0036829636
9	0x3db357ca	0.08756979
10	0xbd3716de	-0.044699542
11	0xbd86bfaf	-0.065795295
12	0x3c9a848a	0.018862028
13	0x3bbd3566	0.005774188
14	0x3d887863	0.06663587
15	0x3dff1632	0.12455405
16	0xbd1ba647	-0.03800037
17	0x3df3de14	0.119075924
18	0x3d8d8b5f	0.069113486
19	0x3de97685	0.11399559
20	0x3d4ee788	0.050513774
21	0xbc906da5	-0.017630408
22	0x3c83e1bb	0.016098848
23	0x3b4bdd7e	0.0031107361
24	0xbdb241d8	-0.08703965
25	0xbd20afce	-0.03923016
26	0x3db6ce60	0.08926082
27	0x3d06a028	0.03286758
28	0x3d280b20	0.041026235
29	0x3cad1a25	0.02113063
30	0x3d128b7e	0.03577756
31	0xbd93099a	-0.07179566
32	0xbc4465d3	-0.011987167
33	0xbc838bda	-0.016057897
34	0xbcfa670c	-0.030566715
35	0xbd851498	-0.064980686
36	0xbc2e679a	-0.010644818
37	0xbafd07dd	-0.0019304712
38	0xbd20d3ae	-0.039264373
39	0xbc8adf7c	-0.016952269
40	0xbccbcedf	-0.024878917
41	0xbc0e63b0	-0.00869076
42	0xbdbb3114	-0.0914022
43	0x3dcc7a47	0.0998426
44	0xbd6e89ac	-0.058236763
45	0x3d8bd79b	0.06828233
46	0xbdc67db4	-0.09691945
47	0x3ac3a091	0.0014925172
48	0xbabf557e	-0.0014597622
49	0xbdbaa9d2	-0.09114422
50	0x3c77c2ee	0.015122158
51	0xbd9fab54	-0.0779635
52	0x3d542bb4	0.05179949
53	0x3dabff16	0.08398263
54	0xbc9af775	-0.018916825
55	0x3c9bc6dc	0.019015722
56	0xbd73532e	-0.0594055
57	0x3d55d560	0.052205443
58	0xbdd0688e	-0.10176192
59	0x3e01f015	0.1268924
60	0x3b8700c1	0.004119963
61	0x3d0f99c5	0.035058755
62	0x3de22733	0.11042633
63	0xbdb3d33b	-0.087805234
64	0xbd535c74	-0.051601842
65	0x3cfdd281	0.030984165
66	0xbdd7fb9e	-0.10546039
67	0x3d1e326a	0.038622297
68	0x3aa3faaf	0.0012510623
69	0xbdccc62c	-0.09998736
70	0xbc9a363c	-0.01882469
71	0xbd9aefe1	-0.075652845
72	0x3c3a8792	0.011384862
73	0x3db1db70	0.086844325
74	0x3de5be32	0.112179175
75	0xbde1ae54	-0.110195786
76	0x3d2c2124	0.042023793
77	0xbdb9c5de	-0.09070943
78	0x3d2b9334	0.04188843
79	0x3d84dad4	0.06487051
80	0xbde5eea6	-0.11227159
81	0xbdae3614	-0.08506408
82	0xbdd86bd2	-0.1056744
83	0xbc35099b	-0.011049653
84	0x3d30e702	0.043189056
85	0xbdb10bab	-0.086448036
86	0xbbfb4344	-0.007667931
87	0xbd280ac2	-0.041025884
88	0x3ddaf7d5	0.106918015
89	0xbddd4a4d	-0.108051874
90	0xbd85f6bf	-0.06541204
91	0xba90b462	-0.0011040086
92	0xbdbc1719	-0.09184093
93	0x3db9c901	0.090715416
94	0xbdddbe97	-0.10827368
95	0xbd1bbc51	-0.03802139
96	0xbd49dc2d	-0.04928224
97	0xba8d8d56	-0.0010799568
98	0xbd655894	-0.055992678
99	0x3dad463b	0.08460661
100	0xbdcfc814	-0.10145584
101	0xbd7e9e0c	-0.062162444
102	0xbd5cf025	-0.053939957
103	0xbde6af5f	-0.11263918
104	0xbdef64d8	-0.11689156
105	0x3d2a53d4	0.04158385
106	0x3de351ac	0.11099562
107	0xbc939b05	-0.018018255
108	0xbd3b491c	-0.04572402
109	0x3d530617	0.05151948
110	0x3d8e3871	0.06944359
111	0xbdd89c35	-0.10576669
112	0xbd667932	-0.056267925
113	0x3dcc01a0	0.099612474
114	0x3d56db5d	0.052455295
115	0xbde01156	-0.109408066
116	0x3b1064f3	0.0022032827
117	0xbdb6c5bc	-0.089244336
118	0xbdbab2f4	-0.09116164
119	0xbd6fc193	-0.058534216
120	0x3def8e68	0.11697084
121	0xbd8b2a80	-0.067952156
122	0x3da5e5cc	0.08100471
123	0xbddb0935	-0.106951155
124	0xbc04d4f1	-0.00810741
125	0x3dda4635	0.10657922
126	0xbcd8c6dc	-0.026462011
127	0xbd265df4	-0.040616944
128	0xbd556878	-0.052101582
129	0xbdae7163	-0.085177206
130	0x3d1ae1ac	0.037812874
131	0xbdaff173	-0.08590975
132	0xbd9982dc	-0.074956626
133	0x3dd1a9b9	0.1023745
134	0x3db39983	0.087695144
135	0xbd7c6767	-0.06162205
136	0x3b230c0b	0.0024879004
137	0xbd01b337	-0.031665053
138	0x3db7be94	0.08971897
139	0xbdd8b0eb	-0.105806194
140	0xbdd8d99d	-0.105883814
141	0x3d6c47e7	0.05768576
142	0x3bb80a68	0.005616475
143	0xbd0d34ef	-0.03447431
144	0x3d6cb96b	0.057794016
145	0x3d33f690	0.043936312
146	0xbdaf44d3	-0.08558049
147	0x3d800060	0.062500715
148	0x3d7e40ee	0.06207364
149	0xbcbc1fd8	-0.022964403
150	0xbddb564e	-0.10709821
151	0x3d2fa5e2	0.042882808
152	0x3d826516	0.06366937
153	0xbdef8e45	-0.11697058
154	0xbdded579	-0.108805604
155	0xbc669596	-0.01407375
156	0xbdd0b52e	-0.10190807
157	0xbd6ab1c4	-0.057298437
158	0x3dbd1240	0.092319965
159	0x3c8f1762	0.017467204
160	0x3d84c42f	0.064827316
161	0x3cb5dda8	0.02220042
162	0x3df68d36	0.120386526
163	0x3d5898be	0.05288004
164	0x3d221243	0.039568197
165	0x3db6ac54	0.08919588
166	0xbd3fc321	-0.04681695
167	0x3dcedffa	0.10101314
168	0x3c37f322	0.011227401
169	0x3ddcf0dc	0.10788128
170	0xbd8fe4f1	-0.07026089
171	0xbdac74fc	-0.084207505
172	0x3da40497	0.08008688
173	0xbd96a969	-0.07356531
174	0x3c9d361c	0.01919084
175	0x3dda0b22	0.10646655
176	0x3c89eb6b	0.016835889
177	0xbdb84325	-0.08997182
178	0xbda3773a	-0.07981725
179	0xbd95e050	-0.07318175
180	0xbda50ecc	-0.08059463
181	0x3d8030b9	0.06259293
182	0x3c874b0f	0.016515283
183	0xbc506020	-0.0127182305
184	0x3cee7b57	0.029111547
185	0x3d84d858	0.06486577
186	0x3c256125	0.010093962
187	0x3d9bbf1c	0.076048106
188	0xbc840eca	-0.016120333
189	0x3d2d0cdb	0.042248588
190	0x3ca9345f	0.020654855
191	0xbb66ae06	-0.003519894
192	0x3dacbcf8	0.084344804
193	0x3de2845d	0.110604025
194	0x3dbb42d3	0.09143605
195	0xbd093cc4	-0.033505216
196	0xbd31fbb1	-0.043452922
197	0x3dbc3f88	0.09191805
198	0xbd5d9c35	-0.05410405
199	0x3c3a0c33	0.011355448
200	0xbd8b1c8e	-0.06792556
201	0xbd0e8cad	-0.034802128
202	0xbd4b4105	-0.049622554
203	0x3d8b23c3	0.067939304
204	0xbd661180	-0.056169033
205	0xbd6b62fe	-0.057467453
206	0x3d324eb1	0.043532077
207	0xbc2fe56a	-0.010735849
208	0x3bb9664e	0.0056579476
209	0xbdc02c89	-0.093834944
210	0xbd5cbbed	-0.053890157
211	0x3d62d1b9	0.05537579
212	0x3d4ac21d	0.049501527
213	0xbde385bd	-0.11109493
214	0xbdb10273	-0.08643045
215	0x3cf346ae	0.029696789
216	0xbdbd8876	-0.092545435
217	0xbd7e1c8f	-0.062038954
218	0xbd878a27	-0.06618147
219	0xbdb83563	-0.08994558
220	0xbd6625ad	-0.056188274
221	0x3dac286c	0.08406147
222	0xbdde08a4	-0.10841492
223	0x3da2bf17	0.07946604
224	0xbdce5b7e	-0.100760445
225	0xbd023228	-0.031786114
226	0xbd215375	-0.03938623
227	0x3d991cfe	0.07476233
228	0xbdc387c4	-0.095473796
229	0xbd6ff1da	-0.058580257
230	0xbdedaf7f	-0.11605739
231	0xbd0deea3	-0.03465141
232	0x3d45c310	0.04828173
233	0x3de7364a	0.11289652
234	0x3dd118a9	0.10209782
235	0xbd0064eb	-0.031346243
236	0xbd8089c8	-0.0627628
237	0x3cd6369b	0.026149085
238	0x3da01bca	0.078178
239	0x3dd837a6	0.10557489
240	0x3da52bf8	0.08065027
241	0xbb0abc17	-0.002116924
242	0xbdc7657e	-0.09736155
243	0xbd920e17	-0.07131594
244	0x3d95d3e3	0.07315805
245	0xbdcab59e	-0.09897922
246	0xbdb0c6e1	-0.08631683
247	0xbd96f3ea	-0.07370742
248	0xbcf8812f	-0.030335037
249	0x3d610faa	0.05494658
250	0x3da81c86	0.082085654
251	0x3dbc6294	0.0919849
252	0x3d601468	0.05470696
253	0x3cdd32ce	0.027001765
254	0xbcfdf39d	-0.030999953
255	0xbd93e249	-0.07220895

conv5.op.weight f4 [64, 48, 3]
0	0xbd9be1db	-0.07611438
1	0x3c5512fe	0.013005016
2	0xbc1be56a	-0.009515146
3	0x3d9e5564	0.07731131
4	0x3d3436c0	0.043997526
5	0x3cb4e87b	0.022083512
6	0xbc9b0633	-0.018923854
7	0xbd6318b8	-0.055443496
8	0x3cfd347f	0.030908821
9	0x3d09c354	0.033633545
10	0x3adffc6a	0.0017088775
11	0x3d9606f4	0.07325545
12	0x3d444aa9	0.047922764
13	0xbd8e872a	-0.06959374
14	0xbba61148	-0.005067978
15	0xbd06f8bb	-0.03295205
16	0x3a61e537	0.00086172245
17	0x3c31b5aa	0.010846535
18	0x3c96ba89	0.018399494
19	0x3d74ed47	0.059796598
20	0x3d878204	0.066165954
21	0x3c74b0c3	0.014934721
22	0xbca8bcdf	-0.020597873
23	0xbcffe5a9	-0.03123744
24	0x3d5adbc2	0.053432234
25	0x3d2f397a	0.042779423
26	0x3d8fffee	0.070312366
27	0xbd7c62a4	-0.06161751
28	0xbd5e597b	-0.054284554
29	0xbd26507c	-0.0406041
30	0x3d41d85b	0.047325473
31	0x3d9c90fa	0.076448396
32	0xba6baabd	-0.00089899806
33	0xbd8ee615	-0.069774784
34	0x3c58cd14	0.013232488
35	0xbd92c977	-0.071673326
36	0x3d7af975	0.061273057
37	0xbd5d381b	-0.054008584
38	0x3ca952b8	0.020669326
39	0x3c14b96c	0.009077411
40	0x3d4f3669	0.050589
41	0xbd4932a6	-0.049120568
42	0x3d391920	0.045189977
43	0x3c2d653f	0.010583221
44	0x3c97413c	0.018463723
45	0xbd400588	-0.046880275
46	0x3db665b3	0.08906116
47	0xbc4406c7	-0.0119645065
48	0xbd382451	-0.04495651
49	0xbc9e25e4	-0.019305177
50	0xbca9af27	-0.020713402
51	0x3dbabef3	0.09118452
52	0x3d8f0cdd	0.06984875
53	0x3c16d221	0.009205372
54	0x3db4d4df	0.088296644
55	0x3c042974	0.008066524
56	0x3c964d2b	0.018347343
57	0x3c6f1745	0.01459295
58	0xbbcd25ba	-0.006260601
59	0xbd7aebb0	-0.061259925
60	0x3d0796d3	0.03310282
61	0x3b8e47e9	0.0043420685
62	0x3d345ebb	0.044035655
63	0x3d3d444f	0.046207722
64	0x3d7849d2	0.060617276
65	0x3cb5246a	0.02211209
66	0x3c12d86c	0.008962732
67	0xbcfe0f94	-0.031013288
68	0x3d9fcf8c	0.07803258
69	0xbd856ab7	-0.06514495
70	0xbd0ce929	-0.034402046
71	0x3c9dc195	0.019257346
72	0x3d4663c1	0.048434976
73	0x3d6a7711	0.057242457
74	0xbd84723f	-0.06467103
75	0x3ced28f0	0.028950185
76	0xbd8e004c	-0.069336504
77	0x3d71d9b6	0.059045516
78	0xbd851523	-0.06498172
79	0x3caf1fec	0.021377526
80	0x3cb22741	0.021747233
81	0xbbf8cde6	-0.0075929044
82	0x3d446657	0.04794916
83	0x3d898d8a	0.067164496
84	0x3d15a041	0.036529783
85	0x3cd43e20	0.02590853
86	0x3db8eceb	0.090295635
87	0x3db1b0f9	0.08676333
88	0xbd47d9da	-0.048791744
89	0x3dab39c5	0.08360628
90	0x3da60ac7	0.08107524
91	0x3c1159a0	0.008871466
92	0x3d1572f0	0.036486566
93	0xbcd14368	-0.025544837
94	0xbcbfd3c8	-0.023416415
95	0x3cba0579	0.022707688
96	0xbcef1c30	-0.029188246
97	0x3cf6ac11	0.030111345
98	0x3d32dcf4	0.04366775
99	0x3d6c444b	0.057682317
100	0xbd4d6030	-0.05014056
101	0xbd06c41a	-0.03290186
102	0xbbcf9afb	-0.006335614
103	0x3d2d0468	0.04224053
104	0xbcca8273	-0.024720406
105	0xbcec65ae	-0.028857078
106	0xbc1291d1	-0.008945898
107	0x3d1d7a80	0.038446903
108	0x3b57a990	0.0032907464
109	0xbca7a6e3	-0.02046532
110	0x3cb5cc8a	0.022192258
111	0xbd803f48	-0.0626207
112	0xbda461e8	-0.08026487
113	0x3d3eea86	0.046610378
114	0x3daaadb8	0.083339155
115	0x3bd8090e	0.0065928763
116	0x3d58ab8b	0.05289797
117	0x3d88d9a4	0.06682137
118	0x3da4138d	0.080115415
119	0x3c7832c9	0.015148827
120	0x39a89eb9	0.00032161715
121	0xbd919949	-0.07109315
122	0x3b4f77a7	0.0031657012
123	0xbc77dda2	-0.015128525
124	0x3bd5967e	0.006518184
125	0x3db58a19	0.08864231
126	0xbc9a7d43	-0.018858558
127	0xbd700385	-0.058597106
128	0x3daf2941	0.085527904
129	0x3c13d3ed	0.009022695
130	0xbd473e44	-0.048643366
131	0x3c13eda5	0.009028827
132	0x3bda450d	0.0066610635
133	0x3d13f4ee	0.036122255
134	0x3daf374d	0.0855547
135	0xbd1a50c7	-0.03767469
136	0xbd24482e	-0.0401079
137	0x3b44d6d6	0.0030035279
138	0x3d3d4983	0.046212684
139	0x3daa0f06	0.08303647
140	0xbd5c217c	-0.05374287
141	0xbd26bdef	-0.04070848
142	0xbbd44b31	-0.00647869
143	0xbd8b8f23	-0.068144105
144	0xba8b7cf9	-0.0010642103
145	0x3d9c82c7	0.07642131
146	0x3db6e851	0.089310296
147	0x3d7776be	0.060415976
148	0xbc5df86b	-0.013547997
149	0xbd285dee	-0.041105203
150	0x3da18801	0.07887269
151	0xbc322ca9	-0.010874906
152	0x3c0cbc3a	0.008589799
153	0x3d9d98c3	0.076951526
154	0xbbd5adf8	-0.006520983
155	0x3d7e614b	0.062104505
156	0xbd4430d0	-0.047898114
157	0x3a9af816	0.0011823203
158	0x3da972de	0.08273862
159	0x3bb440fc	0.005500911
160	0xbd48704c	-0.04893522
161	0x3c9e478f	0.019321231
162	0xbd09107a	-0.03346298
163	0x3d6d2104	0.057892814
164	0x3d94c59a	0.07264252
165	0xbbfb98c6	-0.007678124
166	0x3d807ad0	0.062734246
167	0x3da37a5c	0.079823226
168	0x3da5aa5b	0.08089133
169	0x3d93f12c	0.07223734
170	0xbd9f30d7	-0.07772987
171	0xbd7591bb	-0.059953433
172	0x3da4c73b	0.08045813
173	0x3d34c291	0.044130865
174	0xbd49155a	-0.049092628
175	0x3db6fccd	0.08934937
176	0x3c84b668	0.01620026
177	0xbd99fa08	-0.07518393
178	0xbd09129b	-0.03346501
179	0xbd8fe07f	-0.07025241
180	0xbcbe0faa	-0.023200829
181	0x3b4c363d	0.0031160258
182	0x3b7e678c	0.0038819043
183	0xbbb543ab	-0.0055317483
184	0x3b445e8d	0.0029963583
185	0x3da22416	0.07917039
186	0x3d826861	0.06367565
187	0xbd86fc59	-0.065911
188	0x3cf59fa0	0.029983342
189	0xbcd4586c	-0.02592107
190	0x3ad25c6b	0.0016049271
191	0xbcc3d0d3	-0.023903286
192	0xbd2cb332	-0.04216308
193	0xbd31e89f	-0.043434735
194	0xbda4ed79	-0.08053107
195	0xbcd1ea78	-0.025624499
196	0xbba12cd0	-0.004918672
197	0xbd85d83a	-0.065353826
198	0x3d04b88c	0.03240256
199	0xbd05f027	-0.03269973
200	0xbc4da63f	-0.012551843
201	0x3d1c3b57	0.03814253
202	0x3db9c103	0.09070017
203	0x3d51e32d	0.051242042
204	0xbd613e02	-0.054990776
205	0x3d9427bc	0.07234141
206	0x3b68f3ec	0.003554578
207	0x3cf94de0	0.030432642
208	0xbd51fcc3	-0.051266443
209	0x3d9facfe	0.077966675
210	0xbd4df5e4	-0.050283328
211	0x3d635978	0.055505246
212	0x3d8f0c60	0.06984782
213	0x3c8196da	0.015819002
214	0x3d9d8590	0.07691491
215	0x3d7b168c	0.0613008
216	0xbbd4d27b	-0.006494818
217	0x3caf3fe2	0.021392766
218	0x3c514c26	0.012774503
219	0xbc5ce360	-0.013481945
220	0xbd973367	-0.07382851
221	0x3d40f1ee	0.047105722
222	0xbd94c9ce	-0.07265054
223	0x3d2b6b0e	0.041850142
224	0xbc87e968	-0.016590789
225	0x3c9c96e3	0.019114917
226	0xba45ec53	-0.00075501687
227	0xbd1246cb	-0.035712045
228	0xbcc78794	-0.02435664
229	0xbd80fa2f	-0.06297719
230	0xbd172c31	-0.03690738
231	0x3d4b5813	0.04964454
232	0x3da4ff0e	0.0805646
233	0xbd8a5058	-0.067536056
234	0xbc451285	-0.012028341
235	0x3c9d280a	0.019184131
236	0xbd0f25fd	-0.034948338
237	0x3cb4f64a	0.022090096
238	0x3b2f118c	0.002671334
239	0x3cd4f568	0.025995925
240	0xbd26ebd4	-0.040752247
241	0xbd7abe84	-0.061216846
242	0x3afc4a0d	0.0019248143
243	0x3d815d66	0.063166425
244	0x3dabcacb	0.08388289
245	0x3d9efdc3	0.07763245
246	0x3c31806e	0.010833843
247	0x3d98ebb2	0.0746683
248	0xbcb20843	-0.021732455
249	0x3d8dfc6e	0.06932913
250	0x3cd1fc68	0.025633052
251	0xbd54a3d3	-0.051914047
252	0xbcdfe660	-0.027331531
253	0x3d9765a6	0.07392435
254	0xbcfd5ea1	-0.030928912
255	0xbda8d2b6	-0.08243315

conv7.op.weight f4 [80, 64, 3]
0	0x3c841637	0.016123874
1	0x3d31a9a5	0.043374676
2	0x3d68e125	0.05685534
3	0xbd785abb	-0.060633402
4	0xbc46633b	-0.012108619
5	0xbcfb3fd3	-0.030670082
6	0x3b69456d	0.003559436
7	0xbc2915fa	-0.010320181
8	0xbd76954e	-0.06020098
9	0x3cc71244	0.024300702
10	0x3a7e9277	0.0009711156
11	0xbcf40e93	-0.029792106
12	0x3d915b0f	0.07097446
13	0x3d150751	0.03638393
14	0xbb3e2a15	-0.0029016782
15	0xbd068085	-0.03283741
16	0xbd066c33	-0.03281803
17	0xbb5535ab	-0.003253321
18	0x3d1e2bf0	0.03861612
19	0x3d30c178	0.043153256
20	0x3ca4ba42	0.020108346
21	0xbd8a3e0d	-0.067501165
22	0xbce5742d	-0.028009498
23	0x3b820c09	0.00396872
24	0x3d2f8e10	0.04286009
25	0xbc82bfa0	-0.015960515
26	0xbd659c85	-0.05605747
27	0xbcdc87fb	-0.02692031
28	0xbc7b648c	-0.015343796
29	0xbd7fe173	-0.062470865
30	0x3a192e7b	0.0005843413
31	0x3d074bab	0.033031147
32	0xbc95a7f5	-0.018268565
33	0x3d66dc1a	0.05636225
34	0x3d85cc74	0.06533137
35	0xbb202613	-0.0024436757
36	0xbbc9fe46	-0.006164345
37	0xbc8a203d	-0.016861076
38	0x3d2c7a06	0.042108558
39	0x3d78ca4d	0.060739804
40	0x3d69fcae	0.05712574
41	0x3d7418c9	0.05959395
42	0x3d90802b	0.07055696
43	0x3d367367	0.04454365
44	0xbd8dae16	-0.0691797
45	0x3c2d37c6	0.010572379
46	0x3cc9d6d8	0.024638578
47	0x3d3a92e5	0.045550246
48	0xbcb528e3	-0.022114223
49	0xbd67c11f	-0.05658066
50	0x3d882ec0	0.06649542
51	0x3d8d15df	0.06888937
52	0x3d79ba23	0.06096853
53	0xbd8a7da9	-0.06762249
54	0xbd38a006	-0.045074485
55	0x3d2a6516	0.04160031
56	0xbd646672	-0.055761762
57	0x3c391d61	0.011298508
58	0x3ce677c8	0.028133288
59	0xbc5dc82c	-0.013536494
60	0x3d43da09	0.047815356
61	0x3d0c3237	0.034227576
62	0xbd7aafd4	-0.06120284
63	0xbced5b99	-0.028974341
64	0x3d8556e3	0.06510713
65	0xbd86ce97	-0.06582373
66	0xbcf2491f	-0.029575882
67	0xbca780ca	-0.020447154
68	0xbb879068	-0.0041370876
69	0xbcf8fdb3	-0.03039441
70	0xbd1bdfa7	-0.03805509
71	0x3d6981d6	0.057008587
72	0x3cb24af3	0.021764254
73	0x3d746d1f	0.05967438
74	0x3d02dca9	0.03194872
75	0xbcc3ca77	-0.023900254
76	0x3d0187eb	0.031623762
77	0xbd8b8a00	-0.06813431
78	0xbbc6a3df	-0.0060620154
79	0x3d7019fc	0.05861853
80	0xbc86c046	-0.016449105
81	0xbc541752	-0.012945013
82	0x3d8dd96c	0.069262356
83	0x3d945890	0.072434545
84	0xbd66089e	-0.05616056
85	0xbd8a317c	-0.0674772
86	0xbd8e1882	-0.06938268
87	0x3baaac2e	0.0052085137
88	0xbc9c5a83	-0.019086128
89	0x3d20a8c3	0.039223444
90	0xbd077cbe	-0.033077948
91	0x3d72e9d8	0.059305042
92	0xbd274e8d	-0.040846396
93	0x3bdcb965	0.006735968
94	0xbd5ea938	-0.0543606
95	0xbcb0a954	-0.021565117
96	0x3d8be404	0.068306
97	0x3d1c16d9	0.038107727
98	0xbd880636	-0.0664181
99	0xbd32850e	-0.043583922
100	0x3d602c47	0.054729726
101	0x39230371	0.00015546173
102	0x3c4e6a74	0.012598623
103	0x3d25a8b0	0.040444076
104	0xbd7e3246	-0.062059663
105	0xbd609de2	-0.05483807
106	0x3d0d8a53	0.034555744
107	0x3d57f122	0.052720197
108	0xbd1b1922	-0.037865765
109	0x3c2eb350	0.010662869
110	0xbd285d75	-0.041104753
111	0xbcd3beb2	-0.025847767
112	0x3d6e4bcd	0.058177758
113	0xbd0c9fc8	-0.034332067
114	0x3a046326	0.00050501747
115	0x3d16dc57	0.036831226
116	0xbd02c2a5	-0.03192391
117	0x3b7938e7	0.0038028301
118	0xbc483430	-0.012219474
119	0x3d452a89	0.048136268
120	0x3c9a0b75	0.018804291
121	0xbd4aeefa	-0.049544312
122	0x39462160	0.00018895185
123	0x3d61fb1b	0.055171113
124	0x3cfaff1c	0.030639224
125	0x3d2c92df	0.042132255
126	0x3cb32ae7	0.021871043
127	0x3d513d80	0.05108404
128	0x3d6c0048	0.057617456
129	0xbc46dfb8	-0.0121383
130	0x3ca12b3c	0.019673936
131	0x3c21f357	0.009884677
132	0x3d8360b2	0.064149275
133	0xbd24d33b	-0.040240508
134	0xbd62e8a0	-0.05539763
135	0x3cb9072b	0.022586426
136	0x3d3e554e	0.04646807
137	0x3d00ac93	0.03141458
138	0x3cf9569a	0.030436803
139	0xbd50a3b1	-0.05093736
140	0x3d03cfb9	0.03218052
141	0xbbcee12d	-0.006313464
142	0xbd4dc38c	-0.050235316
143	0xbd2743b3	-0.040836047
144	0x3cfef5c3	0.031123048
145	0xbd261a46	-0.0405524
146	0xbc945c00	-0.018110275
147	0x3d5a5926	0.053307675
148	0x3cbc3bf3	0.022977805
149	0x3d23cd9e	0.039991014
150	0xbcb45f2e	-0.022018041
151	0xbd89c3b7	-0.06726783
152	0x3bdf68e0	0.006817922
153	0x3d3e70bf	0.04649424
154	0xbd2a32d2	-0.041552372
155	0xbd6c2542	-0.05765272
156	0xbce78f2a	-0.028266508
157	0xbbf3ae02	-0.007436515
158	0x3d7fbcbb	0.062435847
159	0x3c89995f	0.016796766
160	0x3d4ee147	0.05050781
161	0xbb2424b2	-0.0025046286
162	0xbd1b4522	-0.037907727
163	0x3d93780a	0.0720063
164	0x3c753210	0.014965549
165	0xbd72e9a9	-0.059304867
166	0x3d36b31e	0.044604413
167	0x3ccd2286	0.025040876
168	0xbd1d942b	-0.038471382
169	0x3bbc4038	0.00574496
170	0xbd914845	-0.070938624
171	0xbd7ec955	-0.062203724
172	0xbbafcc80	-0.0053649545
173	0x3d95dbed	0.07317338
174	0xbcb9c1d0	-0.022675425
175	0x3cb84f10	0.022498637
176	0xbd87d2ae	-0.06631981
177	0x3d322806	0.0434952
178	0xbc7e8471	-0.015534506
179	0x3cf93bff	0.030424116
180	0x3d8e0aa4	0.06935623
181	0xb9680cb9	-0.00022129984
182	0x3c1f3785	0.009717827
183	0xbd582c64	-0.05277671
184	0xbd1f2fc4	-0.038863912
185	0xbd642acf	-0.055704888
186	0xbd0e301a	-0.034713842
187	0x3bd12c47	0.006383452
188	0xbb87f966	-0.0041496037
189	0x3cffa90a	0.031208534
190	0xbd499cae	-0.049221687
191	0x3d7f7f84	0.062377468
192	0xbd8a327c	-0.067479104
193	0x3cfebae3	0.031094974
194	0xbc8ef0ec	-0.017448865
195	0x3c4a7098	0.012355946
196	0xbd5ae291	-0.053438727
197	0x3c0e45db	0.008683647
198	0xbd7019a1	-0.05861819
199	0xbd762d4e	-0.0601018
200	0xbcbd9ff9	-0.02314757
201	0xbd079b9e	-0.033107392
202	0xbc891583	-0.01673389
203	0x3d676360	0.056491256
204	0x3c2ef45c	0.010678377
205	0x3cbc8ffa	0.023017872
206	0x3cd83caf	0.026396124
207	0x3c88f988	0.016720548
208	0x3d018ed2	0.031630345
209	0x3d547e47	0.05187824
210	0x3bc72ba7	0.006078202
211	0x3d391f1b	0.04519568
212	0x3d00fdca	0.031492032
213	0xbc2413cb	-0.010014485
214	0xbcea04f0	-0.028566808
215	0x3d92accd	0.071618654
216	0xbd29b28d	-0.041430045
217	0x3cd28853	0.02569977
218	0x3c9ddfa4	0.01927168
219	0xbd792e83	-0.060835373
220	0xbd0d330e	-0.034472518
221	0x3cfca9fa	0.03084277
222	0xbcfcf4ba	-0.030878413
223	0xbd03b750	-0.032157242
224	0x3d25489f	0.04035246
225	0xbd4d93fb	-0.050189953
226	0xbd23dbf9	-0.040004704
227	0x3d277c40	0.04088998
228	0x3d3dea11	0.0463658
229	0x3cef1b19	0.029187726
230	0xbd059fd2	-0.03262312
231	0x3ccffc1b	0.025388768
232	0x3c0086b1	0.007844613
233	0xbd8eecd6	-0.069787666
234	0xbd186e49	-0.03721455
235	0x3cfbd224	0.030739851
236	0xbc925c54	-0.017866291
237	0xbcaee2e9	-0.021348434
238	0xba8d2ed9	-0.0010771408
239	0x3cb1856c	0.021670066
240	0x3c950aa8	0.018193558
241	0xbcef5566	-0.029215526
242	0xbd8d5b38	-0.06902164
243	0xbcc933ae	-0.024560776
244	0xbd81d6f7	-0.063398294
245	0xbd0f7f11	-0.03503329
246	0x3d59f538	0.053212374
247	0x3d0bbb4d	0.03411417
248	0xbcaf9cb7	-0.021437032
249	0x3ca5f071	0.020256253
250	0xbc2600ab	-0.010131995
251	0x3be20e7c	0.0068986993
252	0x3cc66674	0.024218775
253	0xbd903bd4	-0.07042661
254	0x3d1fc6c5	0.03900792
255	0xbc14543d	-0.009053287

conv8.op.weight f4 [32, 80, 3]
0	0xbcf5ae75	-0.029990414
1	0x3c58a459	0.013222777
2	0xbd02d9a2	-0.031945832
3	0x3c0d7602	0.008634092
4	0x3c9c533b	0.019082656
5	0x3cb3f60a	0.021967907
6	0xbd0096ee	-0.031393938
7	0x3bed71b3	0.00724622
8	0xbd016ce1	-0.031597976
9	0x3d35aacd	0.04435234
10	0x3a65cf22	0.0008766522
11	0xbc676b48	-0.014124699
12	0xbc983cbc	-0.018583648
13	0x3d12c9f6	0.035837136
14	0xbc9a7bca	-0.018857855
15	0xbb08230a	-0.0020772838
16	0x3ba31399	0.0049767015
17	0xbd184818	-0.03717813
18	0x3d5cd161	0.053910617
19	0xbd6a7d5a	-0.05724845
20	0x3d14bb88	0.036311656
21	0xbd59012d	-0.052979637
22	0xbbd1b3e0	-0.0063996166
23	0xbc200773	-0.009767401
24	0x3bfef7f8	0.007781025
25	0xbd09b1c4	-0.033616796
26	0xbd54579b	-0.05184136
27	0xbce1bde6	-0.027556371
28	0x3d4d9151	0.050187413
29	0xbc8b5414	-0.017007865
30	0xbcc07372	-0.023492549
31	0x3d6585ca	0.056035794
32	0x3d1cc477	0.0382733
33	0x3d82c091	0.063843854
34	0xbc316782	-0.010827901
35	0xbd23afb6	-0.039962493
36	0x3d34b620	0.044119
37	0xbc5abf25	-0.0133512365
38	0x3ccd1388	0.025033727
39	0x3d731f13	0.059355807
40	0xbc198653	-0.009370404
41	0xbd182ac0	-0.037150145
42	0x3c6c7e82	0.014434459
43	0x3d04134a	0.032244958
44	0xbd8359a6	-0.064135835
45	0x3c8db306	0.01729728
46	0xbd16519d	-0.036698926
47	0xbd338780	-0.043830395
48	0x3d46fd93	0.04858167
49	0xbcd2d058	-0.025734112
50	0x3c24a5ad	0.010049266
51	0x38118700	3.4696423e-05
52	0xbd2ba117	-0.041901674
53	0x3cbb44d6	0.022859972
54	0x3d4fabbf	0.0507009
55	0x3bde1122	0.0067769447
56	0xbd78beae	-0.06072872
57	0xbd092e0d	-0.033491183
58	0x3cf8c878	0.030369028
59	0x3a3ce274	0.0007205375
60	0xbc00535b	-0.0078323735
61	0x3cab4097	0.020904822
62	0xbc8217e1	-0.015880527
63	0xbd43ba8d	-0.04778533
64	0xbcc97832	-0.024593446
65	0xbd65f51d	-0.05614196
66	0xbb93cff3	-0.0045108735
67	0xbca94933	-0.020664787
68	0x3d114312	0.035464354
69	0xbc966654	-0.01835934
70	0x3caf5119	0.021400975
71	0x3d26339e	0.04057657
72	0x3d52a584	0.05142738
73	0x3d3145bf	0.043279406
74	0x3d03cba0	0.032176614
75	0x3c8a2600	0.016863823
76	0xbbee6405	-0.007275107
77	0xbd36ef61	-0.044661883
78	0xbd61f49f	-0.05516493
79	0xbcc781df	-0.02435392
80	0x3d1a19b7	0.03762218
81	0x3d693d0d	0.05694299
82	0xbd488b21	-0.04896081
83	0x3d4edb64	0.050502196
84	0x3b203f49	0.0024451783
85	0xbc59394b	-0.013258289
86	0xbc914fe0	-0.017738283
87	0x3d45b3c8	0.048267156
88	0x3c8c4b35	0.017125705
89	0x3d597466	0.05308952
90	0x3cce63a4	0.025193997
91	0x3c8c0444	0.017091878
92	0xbd3d2049	-0.046173368
93	0xbccc3403	-0.024927145
94	0x3cf049d6	0.029332083
95	0x3d59d916	0.053185545
96	0x3d3dfb26	0.046382092
97	0xbd0f25e1	-0.034948234
98	0xbc539f21	-0.012916357
99	0x3bed29db	0.0072376556
100	0xbd8062d5	-0.06268851
101	0x3c981d5d	0.018568689
102	0xbbc3daef	-0.0059770267
103	0xbc27e01b	-0.010246302
104	0xbd2cae1e	-0.04215824
105	0xbce19fac	-0.027541958
106	0xbc0ecd48	-0.008715935
107	0xbd1762ed	-0.036959577
108	0x3bfdf807	0.0077505144
109	0x3d3bc97c	0.045846447
110	0x3d3a7138	0.04551813
111	0xbcea44c2	-0.02859724
112	0xbd4dfa67	-0.05028763
113	0x3cfe0c61	0.031011762
114	0x3c8c52aa	0.017129261
115	0xbd6a3bde	-0.057186
116	0xbcfe6e5d	-0.031058485
117	0xbd6dd5be	-0.05806517
118	0x3c55f4e4	0.013058875
119	0x3ba23273	0.0049498617
120	0xbd64db18	-0.055873007
121	0x3b80c106	0.00392926
122	0xbd78b9ab	-0.06072394
123	0x3cb710cf	0.022346882
124	0xbb496717	-0.0030731612
125	0xbae1d2bb	-0.001722894
126	0xbc181c33	-0.009284067
127	0x3c81efe4	0.01586146
128	0xbd71d225	-0.0590383
129	0xbce6f8de	-0.028194841
130	0x3c0fbc2e	0.008772893
131	0x3c91e0ad	0.01780733
132	0x39319177	0.00016934225
133	0xbd0abdb6	-0.03387233
134	0x3c3a7dd0	0.011382535
135	0xbcdeb40f	-0.027185468
136	0xbbcedec9	-0.006313179
137	0xbcdaf08e	-0.026726034
138	0xbd233f4c	-0.039855286
139	0x3b74b6cc	0.00373404
140	0x3cdf6f7e	0.027274843
141	0x3d017569	0.03160611
142	0xbd7a6349	-0.061129842
143	0xbcadcc87	-0.02121569
144	0xbd5f8ce5	-0.054577727
145	0x3d1f3666	0.038870238
146	0x3d090e34	0.03346081
147	0xbd40fecf	-0.047118004
148	0xbd680a72	-0.056650586
149	0xbb232bef	-0.0024898013
150	0x3d33eb62	0.04392565
151	0x39ee3eb5	0.00045441618
152	0xbc9724ed	-0.018450225
153	0xbd44eff7	-0.04808041
154	0x3cb9b563	0.0226695
155	0xbd553dc8	-0.052060872
156	0xbd694f8d	-0.05696063
157	0x3cedf002	0.029045109
158	0xbccb26f4	-0.024798848
159	0x3d000985	0.03125908
160	0xbd712ecb	-0.058882516
161	0x3d16c986	0.03681328
162	0x3d10e658	0.035375923
163	0x3d0eb5aa	0.034841217
164	0xbc0f0c51	-0.008730964
165	0xbd368384	-0.044559017
166	0x3ba116c0	0.004916042
167	0xbc6c533a	-0.01442414
168	0xbc48669a	-0.012231493
169	0xbca48531	-0.020083042
170	0xbc98ef58	-0.018668815
171	0xbc8ef55e	-0.017450985
172	0x3d7b5cde	0.061367862
173	0x3d00c4d1	0.0314377
174	0x3a8b2e28	0.0010618614
175	0xbd7db576	-0.061940633
176	0xbcb3f62f	-0.021967975
177	0x3c9197c5	0.017772565
178	0x3c1da3f0	0.009621605
179	0xbb526552	-0.0032103849
180	0x3d7e93c3	0.062152635
181	0x3d144be7	0.0362052
182	0x3ccf8a60	0.025334537
183	0x3d19262e	0.037389927
184	0xbd3af416	-0.045642935
185	0xbce1dd8f	-0.027571468
186	0xbd2a220e	-0.041536383
187	0xbd155ee4	-0.036467448
188	0x3ccf60df	0.025314746
189	0xbcf67259	-0.030083822
190	0xbcc44e6d	-0.023963178
191	0xbd521441	-0.051288847
192	0xbd6c0772	-0.057624288
193	0x3d28bf6b	0.041198175
194	0xbd750c05	-0.059825916
195	0xbd143eeb	-0.036192816
196	0xbd69eb70	-0.057109296
197	0x3d0b6dfd	0.03404044
198	0x3c44520f	0.011982455
199	0xbd4bafe1	-0.049728278
200	0x3cdd1816	0.026989024
201	0x3cc3c1ef	0.023896186
202	0x3d5761ee	0.052583627
203	0x3bc1242f	0.005894206
204	0x3c547cec	0.012969237
205	0xbb19250c	-0.002336803
206	0x3d2fe2bd	0.042940844
207	0xbd111179	-0.035417054
208	0xbd4d484f	-0.050117787
209	0xbd5d99a9	-0.05410162
210	0xbd22c1da	-0.039735653
211	0xbcb5cf0b	-0.022193452
212	0x3ccac9db	0.024754455
213	0xbd3e8368	-0.046512038
214	0xbca95c00	-0.020673752
215	0xbd3ef24b	-0.046617787
216	0x3a0ac722	0.00052939553
217	0xbd276677	-0.040869202
218	0x3d6afe6e	0.05737155
219	0xbd15fa4c	-0.036615655
220	0xbbe8b4cf	-0.007101632
221	0xbd0f0bee	-0.034923486
222	0xbd60a628	-0.05484596
223	0x3bc2a6d6	0.0059402985
224	0x3c8e32b0	0.017358154
225	0xbd081438	-0.033222407
226	0xbd0a4186	-0.033753894
227	0xbcd08544	-0.025454171
228	0xbd611b9a	-0.054957964
229	0xbb2fb305	-0.0026809585
230	0x3c406d50	0.011744812
231	0x3cdcff69	0.026977258
232	0x3d06cb2b	0.0329086
233	0xbd3f9d4b	-0.046780866
234	0x3c037d43	0.00802547
235	0x3d2d7ed7	0.042357292
236	0x3ce8d8dc	0.02842372
237	0x3d0f2d20	0.034955144
238	0xbd36efbc	-0.044662222
239	0x3d416be4	0.047222033
240	0x3d053f49	0.032531057
241	0xbce6fb9d	-0.02819615
242	0xbd00f7ce	-0.031486325
243	0xbbb59ef5	-0.005542631
244	0xbc9cf2ee	-0.019158807
245	0xbc87f6fc	-0.016597264
246	0xbb474627	-0.0030406804
247	0x3d281d9b	0.04104386
248	0x3d7df86b	0.062004488
249	0x3c07b682	0.008283259
250	0x3d45e61b	0.04831515
251	0xbd589bd8	-0.052883
252	0x3d596c7b	0.05308197
253	0x3cddfe15	0.027098695
254	0x3d71ab2b	0.05900113
255	0x3c1fa5ea	0.009744147

fc.op.weight f4 [3, 160]
0	0x3c356162	0.011070581
1	0x3d5ce8a2	0.053932793
2	0x3c3e3ffa	0.011611933
3	0xbd1fd242	-0.039018877
4	0xbc835857	-0.016033335
5	0xbd958390	-0.07300484
6	0xbd43f17e	-0.047837727
7	0x3d92039e	0.07129596
8	0x3d061790	0.032737315
9	0x3c67176a	0.014104703
10	0xbc17aa3b	-0.009256895
11	0xbd040ef3	-0.03224082
12	0xbcc50706	-0.0240512
13	0xbd36c81c	-0.044624433
14	0xbb631860	-0.003465198
15	0xbd574753	-0.052558254
16	0x3dc6c3de	0.097053275
17	0xbd168764	-0.036750212
18	0x3d902bcc	0.070396036
19	0x3cbd6d4c	0.023123406
20	0x3dafeb91	0.085898526
21	0x3cd4e9d7	0.02599041
22	0x3d3f2723	0.046668183
23	0xbd1451e5	-0.036210913
24	0x3d27aef7	0.040938344
25	0x3d8f215b	0.06988784
26	0x3b0f8f44	0.0021905461
27	0xba8fa43b	-0.0010958979
28	0xbbe4ec47	-0.0069861743
29	0xbd9f7a6f	-0.07787024
30	0x3d9fa5a5	0.07795266
31	0x3dc4ad47	0.096033625
32	0x3d903d46	0.07042937
33	0xbc98c24f	-0.018647341
34	0x3cc74b4a	0.024327893
35	0x3c16e041	0.00920874
36	0xbce6d478	-0.028177485
37	0xbd0bc97c	-0.034127697
38	0x3c0bba8d	0.008528364
39	0xbce8af79	-0.028403984
40	0xbbb56b58	-0.005536478
41	0xbcbc721b	-0.023003628
42	0x3cd5c031	0.02609262
43	0xbc61ed12	-0.013789432
44	0xbd9d351a	-0.07676144
45	0xbd45027c	-0.048098072
46	0xbd84f136	-0.0649132
47	0x3d707506	0.058705352
48	0x3d13aed1	0.03605539
49	0x3a8fd590	0.0010973681
50	0xbd1f93e1	-0.038959388
51	0x3cc7675f	0.024341283
52	0x3ce00aa0	0.027348816
53	0x3c6601fb	0.014038558
54	0xbd404dd7	-0.046949234
55	0x3c9eab55	0.019368807
56	0x3c13ca68	0.009020425
57	0xbd2e9838	-0.042625636
58	0xbd0ddc48	-0.034633905
59	0x3d9f24af	0.07770669
60	0xba7d3ddb	-0.0009660401
61	0xbb8b824a	-0.004257475
62	0xbd4a92a5	-0.049456257
63	0xbd60af48	-0.05485466
64	0xbbc039b4	-0.0058662537
65	0xbd89e163	-0.06732442
66	0xbcb6c4be	-0.02231061
67	0xbd941691	-0.07230867
68	0xbce087cb	-0.027408501
69	0x3d5fdf49	0.0546563
70	0x3d6bd5aa	0.057576813
71	0xbda185be	-0.078868374
72	0xbd7b8174	-0.061402753
73	0xbce50589	-0.02795674
74	0xbd76f826	-0.060295247
75	0x3b590f50	0.00331207
76	0x3d6ac1d4	0.057313755
77	0xbd177ab9	-0.03698227
78	0xbd915596	-0.07096402
79	0x3cfef1ac	0.031121098
80	0xbcfcebd4	-0.03087417
81	0x3c656e8e	0.014003409
82	0x3d3db5ac	0.046315834
83	0xbd87af6a	-0.066252545
84	0x3d6ff099	0.05857906
85	0xbd436d86	-0.04771187
86	0xbb6b84d2	-0.0035937321
87	0x3db7a9ec	0.08967957
88	0x3d2d4a56	0.04230722
89	0x3da10b52	0.07863487
90	0x3d9391f7	0.07205575
91	0xbc20683e	-0.009790478
92	0x3b2e5569	0.0026601201
93	0x3dab310b	0.083589636
94	0xbca73e1d	-0.02041536
95	0x3d95685a	0.07295294
96	0xbd11f65a	-0.03563533
97	0xbc9f805f	-0.019470392
98	0xbc041028	-0.008060493
99	0x3d557ee2	0.052122958
100	0xbd2cb234	-0.042162135
101	0x3c7a717c	0.015285846
102	0x3c9be7bf	0.019031404
103	0x3d670863	0.056404483
104	0xbd7e7c99	-0.062130544
105	0x3d31c2f3	0.04339881
106	0x3d1caffd	0.038253773
107	0xbd89b6c6	-0.067243144
108	0xbd7a1c91	-0.0610624
109	0x3c850ec2	0.016242389
110	0xbb0ef2b2	-0.0021812138
111	0x3db24edd	0.08706448
112	0x3d0bb1d1	0.034105126
113	0xbc770881	-0.015077711
114	0x3a7eac50	0.00097150076
115	0x3d952c9c	0.07283899
116	0x38d6dd7a	0.000102455684
117	0x3d4d44a6	0.050114296
118	0xbc97f447	-0.018549098
119	0x3d9cc5c0	0.07654905
120	0x3dc57af0	0.09642589
121	0xbd676921	-0.056496743
122	0x3cd26269	0.025681691
123	0x3d2f1c84	0.042751804
124	0xbd285271	-0.041094247
125	0xbcc98232	-0.024598215
126	0xbd2165e0	-0.039403796
127	0x3c614c30	0.013751075
128	0x3d99146c	0.07474598
129	0xbd849dd1	-0.064754136
130	0x3bd5bf80	0.0065230727
131	0x3d3b71c1	0.04576278
132	0xbc9dc71f	-0.019259987
133	0x3b959a15	0.004565487
134	0xbd4740c1	-0.04864574
135	0x3cea2966	0.028584193
136	0x3d2b11b6	0.041764937
137	0xbd9ee5b2	-0.07758655
138	0xbd11b63b	-0.03557418
139	0xbd31d931	-0.04342002
140	0x3d0832a4	0.03325142
141	0x3cffe1f8	0.03123568
142	0xba292e8e	-0.00064537756
143	0x3ca79f29	0.020461636
144	0x3b9fb53f	0.004873901
145	0x3d9e422d	0.07727466
146	0x3d741dca	0.05959872
147	0xbd0df909	-0.034661327
148	0x3d9c89a8	0.07643443
149	0x3a82afa1	0.0009970554
150	0x3da3dee8	0.080015
151	0xbd487063	-0.048935305
152	0xbd1d1c27	-0.038356926
153	0x3d018826	0.031623982
154	0x3d084fa1	0.033279065
155	0x3c1b5683	0.009481075
156	0xbd731683	-0.05934764
157	0xbd3734cc	-0.044728085
158	0xbd9bdb0a	-0.07610138
159	0xbcaa7bf3	-0.020811057
160	0xbcc9683a	-0.024585832
161	0xbd453635	-0.0481474
162	0x3c999e34	0.018752195
163	0xbc8e4b34	-0.017369844
164	0x3c755eb1	0.0149761895
165	0x3d500d07	0.050793674
166	0x3d2089eb	0.03919403
167	0xbd12e606	-0.0358639
168	0x3d6f447f	0.058414932
169	0xbcf7fa3a	-0.030270685
170	0x3d7ccf1b	0.06172095
171	0x3cc1be72	0.023650382
172	0x3d66b347	0.056323316
173	0x3b16ae32	0.0022992012
174	0x3d0b4e0c	0.03400998
175	0x3db1190f	0.08647358
176	0xbd476380	-0.048678875
177	0xbc4e4d01	-0.012591601
178	0xbd65b148	-0.05607727
179	0xbcea29cb	-0.028584382
180	0xbd29c3be	-0.04144644
181	0x3d03c2b6	0.032168113
182	0xbd4a939b	-0.049457174
183	0x3ba558d9	0.005045992
184	0x3d23fc92	0.04003579
185	0xbc818806	-0.015811931
186	0x3cd2c98c	0.02573087
187	0xbd01c072	-0.03167767
188	0x3be6f257	0.007047932
189	0x3cae1e84	0.021254785
190	0x3d52d8d3	0.05147631
191	0x3d6ac68f	0.057318266
192	0xbd7ccff4	-0.061721757
193	0x3db59e62	0.088681
194	0x39b008e0	0.00033575948
195	0x3d89bc03	0.067253135
196	0x3c93fb27	0.018064095
197	0x3d2f7669	0.042837534
198	0x3d7a6fa5	0.06114163
199	0x3d8b3e4c	0.067989916
200	0x3d5f8d06	0.05457785
201	0xbd6dea35	-0.058084685
202	0x3c4210ba	0.011844808
203	0x3d47d3b6	0.048785888
204	0xbd8c35a3	-0.06846168
205	0xbd9f4660	-0.07777095
206	0xbcc1a37d	-0.023637528
207	0x3d1499ef	0.036279615
208	0x3bdeedf1	0.006803267
209	0x3d985cb9	0.074395604
210	0xbc2c0569	-0.010499337
211	0xbc264c90	-0.01015009
212	0xbd1c7d78	-0.038205594
213	0x3dc18fbe	0.09451245
214	0xbd0c1ef8	-0.03420922
215	0xbd0cd816	-0.034385763
216	0x3d05a30a	0.03262619
217	0x3ca50d76	0.02014802
218	0xbd051d8b	-0.032498877
219	0xbc19ccc5	-0.0093872
220	0xbd6a4b62	-0.057200797
221	0x3cfbb0f3	0.030724024
222	0x3cf11983	0.02943111
223	0x3c9188de	0.017765459
224	0x3cb0850c	0.021547817
225	0xbd15df88	-0.03659013
226	0xbc4803b8	-0.012207918
227	0xbd6b90e2	-0.057511218
228	0x3d5a1c05	0.053249378
229	0xbd8ae1b8	-0.06781334
230	0xbc29a93a	-0.010355288
231	0x3d84704f	0.06466734
232	0x3d998813	0.07496657
233	0xbd900d70	-0.07033813
234	0x3d24e120	0.04025376
235	0xbd15033f	-0.03638005
236	0x3c734574	0.014848102
237	0xbd631445	-0.055439252
238	0xbd0c02ef	-0.034182485
239	0xbcbca3b6	-0.023027282
240	0xbc367fc5	-0.011138861
241	0xbd75c2bf	-0.060000177
242	0xbcb15b81	-0.021650078
243	0xbd7652e5	-0.060137648
244	0xbbdc9eda	-0.006732804
245	0x3a500d72	0.0007936574
246	0x3d10ecc6	0.035382055
247	0x3d74d375	0.059771974
248	0x3cc37d15	0.023863355
249	0x3dc3e849	0.09565789
250	0x3b41464d	0.0029491365
251	0x3d683f28	0.056700855
252	0x3da0a88a	0.07844646
253	0xbada3663	-0.0016648289
254	0x3c85479b	0.016269496
255	0x3d595753	0.053061794
