lr_full/width landr/qat_checkpoint.pth.tar (torch, 581158 bytes, 21 tensors)

conv1.op.weight f4 [50, 128, 1]
00000000: 5aa8 7c3a eeca 353d 78fa a4bd c3e3 81bd
00000010: c945 36bd b214 fd3c 715e 0ab9 d205 953d
00000020: 70f5 7cbb 7448 5c3c 684b 48bd 7c86 81bc
00000030: ca81 eebd dc3a a3bd d9e9 0ebd d7c8 6bbc
00000040: f462 083d 2620 4c3d 3598 1bbd cedb 14bd
00000050: 3428 6d3d 89ef b23d b255 5ebc 2a94 c93d
00000060: 7813 0dbc 4205 ba3c 84f5 ba3d b6fa 95bd
00000070: 79e4 4fbd 92cf c2bc 1f13 a3bc 08b8 963d
00000080: f5c3 59bd 0860 f9bc f334 77bd 32fa 9cbd
00000090: 1dbe 4bbd 95c1 9e3d 470e 0e3d 595f 303d
000000a0: 1087 df3a adcf 73bd 7e32 873c 57d7 d8bd
000000b0: 0b7d 97bd de8d 77bd 1fd6 fe3c dc8d 423d
000000c0: b409 93bd daef ccba ccf1 2e3d 9ba3 b63d
000000d0: 80a6 3d3d 1030 693c b357 a13d b78c 3ebd
000000e0: aecc 013d 49a6 7ebd 0ae7 65bd b052 31bd
000000f0: 3a40 223d bc8e 023d dbed 5bbd a779 c23c
00000100: f871 393d be58 3abc bc0c 063b 2147 633c
00000110: 4477 4d3d 7c2f a53d bc0a 95bd 745e 1cbd
00000120: bbc3 da3c be71 8e3d cd86 9b3d 20a1 a33d
00000130: 9c31 a23c 58e7 9abd b59f 063c fa8b 66bd
00000140: 982b aabd ea49 a13d c86e 8b3d 4488 b1bd
00000150: b61c 973c fc04 54bc 7355 4cbc 73f2 1dbd
00000160: 19e1 113d c679 51bd 0da4 073d ab19 393d
00000170: e08b 823d 9ec6 093d 9741 b2bd 1fe5 68bd
00000180: 96b4 363d 7a4c 9d3c 52a5 8bbd 571e 4dbd
00000190: a148 ac3d 2b64 783d 0a76 18bd 3d7a aabc
000001a0: 81c1 a8bd 757b 9f39 ed81 84bd 4256 87bd
000001b0: 8f58 24bb 1ed2 7f3c 8c51 0bbd 5f47 5f3d
000001c0: 8e62 54bd 2a25 a83d 3196 7f3d 68d2 94bd
000001d0: 5b7b a5bc 4e10 bc3b aed7 6e3c ecff b83c
000001e0: b002 153d b012 e43b 83f6 29bd 3bf9 313d
000001f0: 2950 aabd cfec 4fbd d7f0 a7bc 45c6 3cbd
00000200: 6729 03bd f345 a1bd bdca e9bc 01c2 913c
00000210: 13c0 6dbd 7376 3d3b 12a4 7e3d 7faa 4ebc
00000220: 9528 b13a 4757 7fbc 5eb5 d63b d594 613d
00000230: 81b3 b23d 7384 673d 9173 a93d 04f7 743c
00000240: 868f a6bd 8f56 0ebd 0b33 9f3d c8b3 94ba
00000250: 8d8d 58bd cc15 9bbd c1bf a3bd 5477 afbd
00000260: 2fd3 abbc 2f0b 443d 5e14 233d 56ab aabd
00000270: 74d9 613d 935e 8ebd e73b 5cbc 2e24 38bd
00000280: 8030 a8bc a038 c1bc 3f00 a4bd eef3 a4bd
00000290: 47e2 a5bc d00d 3438 18bf 4fbd 9fb5 023d
000002a0: a6a5 acbd dd82 7ebc 00ee 9c3d 871c 40bd
000002b0: de24 9a3d df00 ef3c ee33 aabd 693a 5e3d
000002c0: 631e f6bb cb1f 26bd c930 9f3d 5f49 94bd
000002d0: 9e1a a83c 3608 9ebc 8296 923d 52f7 c03c
000002e0: 33ce 363d be27 d43c 1ae9 e7bc e309 e2bc
000002f0: 69f1 9fbd 8bdd 283d 85be 873d 8cff 5c3d
00000300: 01a4 8bbd 97bb b8bb 9db9 8fbd 3dc7 70bd
00000310: 0947 7fbd 0280 993c a456 84bd 3bc7 c2bb
00000320: e0e3 873b 2698 693d 4d66 89bd b5b8 7abd
00000330: 0a18 51bd dfcb 7e3d 17a6 01bd de36 983d
00000340: 3d81 043d 1ec8 283c fe2d e8ba 418c 9cbc
00000350: 4c3d 183c fc96 b3bc f184 1fbb 929f 153c
00000360: 134d 91bd 424c 46bd 32f0 8d3d ec95 98bd
00000370: f00c 12bc 3076 ad3d 4f3d ef3c 0ca8 cc39
00000380: 8acf a0bd 652a 2d3d 0fd1 84bd b2af d9bc
00000390: 5246 fcbc 82a8 65bc 0cc5 9439 d817 943d
000003a0: 65e2 2f3c 2e26 a23d fbe3 5c3d 2205 66bd
000003b0: 0474 213d 0355 81bd 512d 1bbd dd80 cd3c
000003c0: 13c9 e83c 355f 853d 6410 f2bc e1a5 86ba
000003d0: c2c4 343d 0b73 b2bd 6b56 803d 6df2 97bd
000003e0: a401 0f39 56fd 83bc 4d2e 43bd 4d61 2d3c
000003f0: 006f 933d 19ae dcbc dc72 5bbd 1db5 1fbd
0.00096381234 0.044382982 -0.080555856 -0.0634227 -0.044500146 0.030893657 -0.00013195888 0.07276501
-0.003859844 0.013445009 -0.048900038 -0.015811197 -0.11645849 -0.07970211 -0.034890983 -0.014391146
0.033297494 0.049835347 -0.037986953 -0.036342435 0.05789967 0.08737094 -0.013570236 0.09842713
-0.008610599 0.022707585 0.0912886 -0.0732321 -0.050754998 -0.023780618 -0.019906579 0.0735932
-0.053165395 -0.0304413 -0.06035323 -0.076649085 -0.049741853 0.077517666 0.034681585 0.04305968
0.0017053802 -0.059524227 0.016503569 -0.10587948 -0.07396897 -0.06043803 0.03110796 0.04749857
-0.07179585 -0.0015635446 0.042711064 0.08917924 0.046301365 0.01423265 0.078780554 -0.046520915
0.03168934 -0.0621703 -0.05612854 -0.043291748 0.039612032 0.031874403 -0.053693634 0.023739649
0.045274705 -0.011373697 0.0020454368 0.013871939 0.05016257 0.080656976 -0.07277438 -0.038176015
0.02670466 0.06955288 0.075940706 0.079897165 0.019799046 -0.075636566 0.008216788 -0.056285836
-0.08309096 0.07875426 0.06808239 -0.08668569 0.018446308 -0.0129406415 -0.012471545 -0.038561296
0.03561506 -0.051141523 0.033115435 0.045190495 0.06374335 0.03363668 -0.087039165 -0.056859132
0.044605814 0.019201506 -0.06818642 -0.050077762 0.0841229 0.060642403 -0.037221946 -0.02081024
-0.08240033 0.00030418826 -0.06470094 -0.06608249 -0.00250772 0.015614061 -0.034013316 0.054511424
-0.0518518 0.082102135 0.062399093 -0.07266694 -0.020200422 0.0057392484 0.014577789 0.02258297
0.036379516 0.0069602355 -0.041494858 0.043450575 -0.083160706 -0.050762948 -0.020500584 -0.046087522
-0.032021906 -0.0787467 -0.028539056 0.017792704 -0.058044504 0.0028909713 0.06216819 -0.012613892
0.0013516123 -0.015584773 0.0065523824 0.055073578 0.08725644 0.056522798 0.08273996 0.014951471
-0.08132844 -0.034750517 0.077734075 -0.0011345083 -0.05286937 -0.07572517 -0.079955585 -0.08567682
-0.020974724 0.047862228 0.039814346 -0.08333461 0.05513902 -0.06951632 -0.013442016 -0.04495638
-0.02053094 -0.023586571 -0.080078594 -0.080543384 -0.020249499 4.2928208e-05 -0.05071935 0.03191149
-0.084300324 -0.01553413 0.076625824 -0.046902206 0.07526563 0.02917522 -0.08310686 0.054254923
-0.0075109466 -0.040557664 0.07772977 -0.07240557 0.020520505 -0.019291025 0.07157613 0.023555432
0.04463024 0.025897857 -0.028309394 -0.027592605 -0.07809717 0.041226905 0.066281356 0.053954646
-0.06818391 -0.005637597 -0.07017825 -0.05878376 -0.062323604 0.018737797 -0.06461838 -0.0059441603
0.004147038 0.057029866 -0.067089655 -0.061211307 -0.051048316 0.062206145 -0.031652536 0.0743234
0.032349814 0.010301618 -0.0017713902 -0.019109847 0.009291958 -0.02192258 -0.0024340714 0.009132283
-0.07094779 -0.04841257 0.06930579 -0.0745047 -0.008914217 0.08469808 0.029204039 0.00039035117
-0.07852085 0.04227676 -0.06485187 -0.026573036 -0.03079525 -0.014017226 0.0002837557 0.0723111
0.010735129 0.079174384 0.053928357 -0.05615724 0.03941728 -0.06315043 -0.037885014 0.02508586
0.028416192 0.065123 -0.029548831 -0.0010272824 0.044132955 -0.08713349 0.06266483 -0.07419286
0.00013638154 -0.01611201 -0.047651578 0.01058228 0.07198906 -0.026938485 -0.053576335 -0.038991082

conv2.op.weight f4 [24, 50, 3]
00000000: cfe2 3d3d 79cf 02bc 0834 0bbc ab92 9b3c
00000010: 56ee a33c 504c 943d ac27 ce3d 8212 d13c
00000020: e8aa b03d 1d21 4dbd 462d 213c 8291 47bd
00000030: c046 873d 3f26 f13c 2e16 3ebd 63fd bbbd
00000040: 5200 c8bc 0a44 21bd 57a8 86bd 514d dcbd
00000050: 6e61 b5bd bbaa 963d 81e7 e2bc 4c88 423d
00000060: 3128 fc3b 07bf 0abc 800c f33c 0fd8 723d
00000070: b2ca 6d3c 4162 eabb 7f65 b03d 929f f3bb
00000080: 8423 6bbc 1826 c23d 044b 2fbd 5e98 933d
00000090: 6166 56bd 8b05 3a39 8a40 67bd 3996 823d
000000a0: 717a 5dbd 9ef3 24bd 0416 863d 2eaf 073d
000000b0: da7e 8a3d d955 5c3d e70b 8dbd 9366 7abd
000000c0: 3a9d 79bd 9604 a63d 2ec2 bb3c 2998 afbd
000000d0: e5bd efbd 3c08 263d 9146 9c3d 4670 44bd
000000e0: 49f4 b73c 4a24 19bd 3a04 e53c 134f 8cbd
000000f0: 5fa9 7c3d 4c81 b23d e7a1 623d f11f 37bc
00000100: 7e17 173c 5871 033d 867c a2bc d6fd 033d
00000110: a8b9 303c 6a39 6c3d 7664 1bbd 91ac 8f3d
00000120: 55c6 86bd 44b9 1dbd f62a 7a3d 662c de3b
00000130: 9739 2abd 55ca ef3c 1e0a 03bd 2f90 89bd
00000140: 2a0e 8cbd 24b2 f93c 61af 133c 888b fdbc
00000150: a57a f63c d37a e0bc 99af 87bd 204e fd3c
00000160: cac6 cdbc a1a0 b6bc 01cc e73d ec92 123e
00000170: 61c5 b43b b3a1 943d e3cd 9a3d fc3d 66bd
00000180: c992 a0bd 9e4e 7cbd ad16 a3bc ab87 333c
00000190: 8927 c33c 0d91 453c c4fc 823c ad7f 82bd
000001a0: 6f90 b03d fcef 913d cd11 283d 5640 ac3c
000001b0: ad6f 3ebd 480b b53b 2e79 74bd 8e7e e83d
000001c0: fc1b d0bc 945f c73d fe0a aa3d 1293 fabc
000001d0: 679e 87bd 70fb cc3c 3e0d 3dbc bb57 18bc
000001e0: 8421 70bd d416 6e3d 38c6 25bd 4911 ebbd
000001f0: ba7a b2bd 8611 863c 5c82 253d c60b 5c3d
00000200: 4d08 15bc 503b babd 4de5 633b a620 503c
00000210: 9235 b23d bf75 12bd bf57 793a e4a1 643b
00000220: 85c4 84bc babe 5b3c 6f10 cdbc 0050 9f3d
00000230: fade ef3c 9172 01bd 4a91 21bd 98bb af3c
00000240: 630b 97ba 9eb2 06bd 55cd 10bd 5fab 243e
00000250: c18b 263e ba47 373e 2170 e0bc b0ff 29bd
00000260: af35 32bd c6b6 35bd bec1 b93d c2d2 f1bc
00000270: d7e4 d6bc bc3b 843d 5e53 943d d577 8fbd
00000280: 55a8 9abb ceb1 f53c 2942 d13c df84 09bd
00000290: 1934 59bd 4258 50bd 6c84 033d caec 84bc
000002a0: c048 6bbd 1c91 c03d f433 463d 8ece 87bc
000002b0: 99b8 ac3c 1b49 aabc b921 39bd cbe1 89bd
000002c0: 475f 7e3d 8d94 87bd 33bc 5dbd 4af1 9b3d
000002d0: 082a 62bd 6750 02bd c1e2 c6bb b589 a1bd
000002e0: f936 8fbd f224 82bd c776 b3bc 3310 1dbd
000002f0: 1a1f 4d3d 9159 5f3d fb4c a53d 6a7c 88bd
00000300: 5ef9 f5bc 63ec 8a3d 2687 323d 35b0 55bd
00000310: 822e 7b3d 4c0b 48bd 7d64 b13d 88d4 65bd
00000320: 8d40 533d 7ddc 7aba b9f6 6cbd b913 813d
00000330: 9dc5 b2bc 30b0 1d3c 1464 89bc 711f 9cbc
00000340: 479e c3bc 68f1 153d e077 be3b ae89 893d
00000350: ef48 3b3d cb29 ea3b 1621 233d 41f3 96bc
00000360: f27a 82bd 1537 4ebd 9f1b 44bd dafc 86bd
00000370: 020b 563c d10e eebb 9dc8 9cbd 3b2d 1e3d
00000380: ebfe 543d ce08 b63d 0f5a ba3c 5192 633c
00000390: ec5a 733d 4fa9 78bd c5bf 833c c328 7b3d
000003a0: 3be1 833d 4a71 8f3c e93d d73a 2093 1b3d
000003b0: 67c2 d23c 8fd9 c93b 4eb4 963d 4ce4 a03d
000003c0: 43dc e6bc f367 c73d 854d a9bb 42da d43c
000003d0: 4440 a63d 3560 f6bc 2a38 3f3d d32a 2abb
000003e0: d021 1abd 76a7 243b 31a3 a03d 1b42 623d
000003f0: f225 03bd 2458 aa3d a00a d03c fcbd a03d
0.04635888 -0.007984036 -0.008496292 0.018990835 0.020011108 0.07241118 0.100661606 0.02552152
0.08626348 -0.050080407 0.009837454 -0.04872275 0.06605291 0.029437182 -0.04640787 -0.09179189
-0.024414215 -0.039371528 -0.06575077 -0.107569344 -0.08856474 0.07356783 -0.02769828 0.047493264
0.007695221 -0.008468396 0.029669046 0.05928808 0.014513658 -0.007152826 0.08613109 -0.0074347937
-0.014351729 0.09479922 -0.04279615 0.07206796 -0.05234373 0.00017740407 -0.056458034 0.06376309
-0.054071847 -0.040271394 0.06547168 0.03312605 0.06762476 0.05379281 -0.06887036 -0.06113298
-0.06094096 0.081063434 0.02291974 -0.08573944 -0.117061414 0.040535197 0.07630647 -0.047958635
0.022455351 -0.037388124 0.027956117 -0.0685102 0.061684962 0.08716068 0.055330183 -0.011177049
0.00922191 0.032090515 -0.019834768 0.0322245 0.010786451 0.05767194 -0.037937604 0.07015336
-0.065807976 -0.03850676 0.061076127 0.006780195 -0.04155883 0.029271284 -0.03199207 -0.06716954
-0.06838639 0.030480452 0.009013982 -0.030950323 0.030087778 -0.027402317 -0.066252895 0.030921042
-0.025119204 -0.02229339 0.113182075 0.14313859 0.0055166935 0.07257404 0.07558801 -0.056211457
-0.07840497 -0.061598413 -0.019908274 0.010957639 0.023822563 0.012058509 0.015989669 -0.063720085
0.086212985 0.071258515 0.0410326 0.021026772 -0.04649322 0.0055250265 -0.05968588 0.113522634
-0.025403969 0.09735027 0.08302878 -0.030587707 -0.0662201 0.025022238 -0.011538802 -0.00929826
-0.058625713 0.05812724 -0.04047224 -0.11477906 -0.087148145 0.016365778 0.040407524 0.053722166
-0.009096217 -0.09093344 0.0034774125 0.0127030965 0.08701624 -0.035756823 0.00095116714 0.0034886533
-0.016206989 0.013412172 -0.02503225 0.07778931 0.029281128 -0.0316034 -0.0394452 0.021451756
-0.0011523779 -0.032885186 -0.03535207 0.16080998 0.1626425 0.17898455 -0.027397217 -0.04150361
-0.043508228 -0.04436376 0.090701565 -0.029519442 -0.026232166 0.06456706 0.072424635 -0.07005278
-0.004719774 0.02999201 0.025544243 -0.03357398 -0.0530282 -0.05086542 0.03210871 -0.016226191
-0.057442427 0.094026774 0.04838939 -0.016577985 0.021084117 -0.020786813 -0.045198176 -0.0673252
0.062102582 -0.06620131 -0.05413456 0.076143816 -0.055215865 -0.03181496 -0.0060695116 -0.07887594
-0.06992907 -0.06354703 -0.021907223 -0.038345527 0.05007849 0.054528777 0.080713235 -0.06664355
-0.030026134 0.067833684 0.04358592 -0.052169997 0.06132365 -0.0488389 0.08661745 -0.05611089
0.051575232 -0.00095695985 -0.05785248 0.0630259 -0.021822745 0.009624526 -0.016771354 -0.019057961
-0.023879183 0.036607176 0.00581263 0.067157134 0.04572385 0.0071460954 0.039826475 -0.01842654
-0.06371106 -0.0503455 -0.047877904 -0.06591196 0.013064148 -0.00726495 -0.076554514 0.038617354
0.05200092 0.08888398 0.022748021 0.013889865 0.05941288 -0.06070834 0.016082654 0.06131817
0.06439444 0.017510075 0.0016421649 0.037982106 0.025727464 0.006159968 0.07358609 0.07856044
-0.0281812 0.097366236 -0.0051667118 0.02598298 0.081177264 -0.030075172 0.04668442 -0.0025965467
-0.037629902 0.0025124229 0.07843626 0.055238824 -0.03201861 0.08317593 0.025395691 0.07848737

conv3.op.weight f4 [48, 24, 3]
00000000: 3a90 dd3d 3e1b a8bc 3a6c 9abd 92dd 5ebd
00000010: ec5f 9c3c 2923 013d 6e8e 62bd 2ff4 1d3d
00000020: fb79 f1bb ffe6 303e 5623 013e 234c fb3d
00000030: 8913 9d3d f968 8cbc ce28 b0bc 0910 0d3e
00000040: 8c56 e9bc 583f fc3d e3da e13d 0a06 353e
00000050: 4f8e b23d 6b0b 81bd 99ad 023c b981 183d
00000060: d841 b2bd ceaf 20bd 60ce b63d 1ce5 d03c
00000070: cc3e 263d bf16 c33c eb35 0a3d 8557 a3bd
00000080: e2c1 e3bc 7472 1dbc a9bb 55bd 414c d3bd
00000090: e407 51bd 09b5 acbb 53bc 9ebd 0cf4 fa3b
000000a0: fbaf 7b3c 55eb c43c d9f1 1cbe e940 a73d
000000b0: fc05 eabc 2c25 703d 0d39 e4bd 7ab9 b8bb
000000c0: b8ef 3a3d c670 88bd 2eae 5fbc fcb5 cabd
000000d0: 2d5e 3e3d 1389 ce3d 3cbc 8bbc c532 a83c
000000e0: 69d2 69bd 507f 413d 1c0d ddbd a863 033e
000000f0: 98af a03c 80ee be3d 63e5 493e b480 c4bd
00000100: 834e 8ebd 6cae 623c aad4 debd 4d68 5d3d
00000110: 7ad6 013d 06b3 ecbd 90f9 a9bc 561e 64bd
00000120: 9287 3a3c 70db b13d 32be e53d 54ae e1bd
00000130: 2421 2c3d dec5 b9bd 3493 2b3d d4da 843d
00000140: a6ee e5bd 1436 aebd d26b d8bd 9b09 35bc
00000150: 02e7 303d ab0b b1bd 4443 fbbb c20a 28bd
00000160: d5f7 da3d 4d4a ddbd bff6 85bd 62b4 90ba
00000170: 1917 bcbd 01c9 b93d 97be ddbd 51bc 1bbd
00000180: 2ddc 49bd 568d 8dba 9458 65bd 3b46 ad3d
00000190: 14c8 cfbd 0c9e 7ebd 25f0 5cbd 5faf e6bd
000001a0: d864 efbd d453 2a3d ac51 e33d 059b 93bc
000001b0: 1c49 3bbd 1706 533d 7138 8e3d 359c d8bd
000001c0: 3279 66bd a001 cc3d 5ddb 563d 5611 e0bd
000001d0: f364 103b bcc5 b6bd f4b2 babd 93c1 6fbd
000001e0: 688e ef3d 802a 8bbd cce5 a53d 3509 dbbd
000001f0: f1d4 04bc 3546 da3d dcc6 d8bc f45d 26bd
00000200: 7868 55bd 6371 aebd ace1 1a3d 73f1 afbd
00000210: dc82 99bd b9a9 d13d 8399 b33d 6767 7cbd
00000220: 0b0c 233b 37b3 01bd 94be b73d ebb0 d8bd
00000230: 9dd9 d8bd e747 6c3d 680a b83b ef34 0dbd
00000240: 5cf3 8c3d 1e41 743d 16f2 9bbd 0361 6c3d
00000250: b462 633d 82c7 eebc 2907 e6bd cde7 143d
00000260: 7fff 713d a6e5 e4bd 886c 56bd c9e9 d73d
00000270: b684 96bd 84cb 27bd 1b85 a53d 4b08 cf3c
00000280: 1e70 a83d 5194 273d 11bd 083e b695 a03d
00000290: 090c a13d 4af9 243c d68d ebbd 8d23 5d3d
000002a0: 22f3 373c dcf0 dc3d f1e4 8fbd b642 bebd
000002b0: fbf1 9e3d 0ec0 8fbd b488 f73c 95a6 ea3d
000002c0: 5e3d b33c 2055 96bd 0621 8ebd 9205 99bd
000002d0: c66c ebbd 6ad9 003d 36f8 21bd df8e d5ba
000002e0: ff7c 583d 8b08 d53d 3bf6 66bd 60c2 f4b9
000002f0: 4a4a 9dbd 2174 2e3d e0cb a23b bbe1 b9bc
00000300: 7be6 ff3d 353b 243e c3b3 173e b58b cebd
00000310: c2e8 f1bd 18fe 113d 086a 60bd 0572 353c
00000320: 3ea5 8abd 1317 23bd 355b 75bd c424 7f3d
00000330: 89fa a6bd ef31 53bd 7241 c83d 80ec 82bc
00000340: 7c41 e5bb c711 ecbd 3b7a 8fbd f733 4d3d
00000350: 7e43 853d fc99 28be f1cb 0fbe 8a73 20bb
00000360: 7688 bdbd 0cee 83bd ef69 8cbd 6335 b8bd
00000370: c90f 70bd 292e a73d a408 debd 05d4 9d3d
00000380: 6f44 d3bd 2832 02bd b07b 2bbd 463d 943d
00000390: c487 c3bd bb26 66bd 12f6 e6bd a3ee 0dbd
000003a0: 33a7 3b3d eb26 e23d a918 d13d 4124 0abd
000003b0: 8369 85bd 9b36 d63c 88ee 9c3d c82d d53d
000003c0: f82b a53d 17bc 0abb 7e65 c7bd 170e 92bd
000003d0: 56b0 8f3d 1681 d0bd e1c6 b0bd 58da 9bbd
000003e0: eb0a 06bd aa0f 613d ee45 a83d a26c bd3d
000003f0: 6814 603d 3d8a d83c dd85 f0bc 49e2 93bd
0.10818525 -0.020520803 -0.07540174 -0.054410525 0.019088708 0.031527672 -0.055311613 0.03856295
-0.0073692775 0.17275618 0.12611136 0.12270381 0.07669742 -0.017139899 -0.021503832 0.13775648
-0.028483652 0.12316769 0.110280775 0.17678085 0.087185495 -0.06301006 0.007975959 0.03723309
-0.08703965 -0.03923016 0.08926082 0.025499873 0.04058723 0.023814557 0.033742826 -0.079756774
-0.027802411 -0.009609807 -0.05218092 -0.10317279 -0.051032916 -0.0052706045 -0.07750764 0.007658487
0.015361781 0.024037996 -0.15326633 0.081666775 -0.028567307 0.0586292 -0.11143694 -0.005637345
0.04563877 -0.06662135 -0.0136523675 -0.09897992 0.04647653 0.100847386 -0.01705753 0.020532021
-0.05708543 0.047240555 -0.10793516 0.12830985 0.01961498 0.09322834 0.1971641 -0.09594861
-0.06948569 0.013835531 -0.10880406 0.054054547 0.03169868 -0.115575835 -0.020748883 -0.055692993
0.011384862 0.086844325 0.112179175 -0.110195786 0.042023793 -0.09070943 0.04188843 0.06487051
-0.11227159 -0.08506408 -0.1056744 -0.011049653 0.043189056 -0.086448036 -0.007667931 -0.041025884
0.106918015 -0.108051874 -0.06541204 -0.0011040086 -0.09184093 0.090715416 -0.10827368 -0.03802139
-0.04928224 -0.0010799568 -0.055992678 0.08460661 -0.10145584 -0.062162444 -0.053939957 -0.11263918
-0.11689156 0.04158385 0.11099562 -0.018018255 -0.04572402 0.05151948 0.06944359 -0.10576669
-0.056267925 0.099612474 0.052455295 -0.109408066 0.0022032827 -0.089244336 -0.09116164 -0.058534216
0.11697084 -0.067952156 0.08100471 -0.106951155 -0.00810741 0.10657922 -0.026462011 -0.040616944
-0.052101582 -0.085177206 0.037812874 -0.08590975 -0.074956626 0.1023745 0.087695144 -0.06162205
0.0024879004 -0.031665053 0.08971897 -0.105806194 -0.105883814 0.05768576 0.005616475 -0.03447431
0.068823546 0.059632413 -0.076145336 0.057709705 0.055514053 -0.029147867 -0.112318344 0.036353875
0.05908155 -0.111766145 -0.052349597 0.10542638 -0.07349531 -0.040965572 0.080820285 0.02527251
0.0822451 0.04091293 0.13353373 0.07841055 0.07863624 0.010069201 -0.115016624 0.053988982
0.011227401 0.10788128 -0.07026089 -0.09290068 0.07760998 -0.070190534 0.030216552 0.11457554
0.021879848 -0.07340455 -0.069398925 -0.074717656 -0.11495356 0.031457342 -0.039543353 -0.0016293189
0.05285358 0.1040202 -0.056387167 -0.00046684127 -0.07680185 0.042591218 0.0049681515 -0.022690644
0.124951325 0.1603821 0.14814667 -0.10085241 -0.11811973 0.035642713 -0.05478862 0.011074548
-0.06769799 -0.039816927 -0.059901435 0.06229092 -0.081532545 -0.051561292 0.09778108 -0.015981913
-0.0069963317 -0.11526828 -0.070057355 0.050098386 0.06507014 -0.1646499 -0.14042641 -0.002448293
-0.092545435 -0.06441888 -0.06856143 -0.08994558 -0.058608804 0.08163101 -0.10841492 0.07706455
-0.10315787 -0.031786114 -0.041866004 0.072382495 -0.095473796 -0.05618928 -0.11277403 -0.03465141
0.04581375 0.11042579 0.10209782 -0.03372598 -0.065142654 0.026149085 0.07662684 0.10409123
0.08065027 -0.002116924 -0.09736155 -0.07131594 0.07016055 -0.10180871 -0.08631683 -0.07610005
-0.032725256 0.05494658 0.08216463 0.09249236 0.05470696 0.026433105 -0.029360706 -0.07220895

conv5.op.weight f4 [64, 48, 3]
00000000: dc91 a4bd 18e4 ff39 e901 1abc 6455 9e3d
00000010: c036 343d 7be8 b43c 1163 b5bc 9a52 6dbd
00000020: 7aef 103d a56b 163d b541 9d3b f406 963d
00000030: f297 9e3d 0f28 5fbd fa32 b33c 1b44 02bd
00000040: 3906 033b 94c9 313c c1e0 873c 9852 533d
00000050: 04f4 813d 5a7e 7b3c 1391 acbc 53d1 a9bc
00000060: 85d8 e93c f7e7 1b3d 8718 a43d 97d6 7bbd
00000070: f7d5 5ebd 0d8a 15bd a890 2e3d 7ef6 833d
00000080: c365 07bc 15e6 8ebd 14cd 583c 77c9 92bd
00000090: 1a24 703d 7683 76bd d881 923c f893 f33b
000000a0: 560a 473d 5725 4dbd a58f 3a3d 5125 283c
000000b0: 6486 943c bf3b 51bd 544d b43d a584 b33a
000000c0: ec03 40bd e5bd 94bc b069 adbc 0be9 af3d
000000d0: 85c9 893d 145d 323c 80e0 b33d 52bd 033c
000000e0: b437 ac3c 282a 6c3c 0fa3 42bc 83bc 69bd
000000f0: b609 073d 3ecb d93a 3901 393d 8680 bbbc
00000100: f419 82bc 7bad 0bbd e19e d4bc 18d2 80bd
00000110: 306d a83b 1d7f 90bd 08c1 13bd fb15 b63c
00000120: 131c 473d 1c71 683d f170 85bd d78a 9c3c
00000130: 2f27 a9bd 0d92 253d 01de 88bd 2f10 603c
00000140: e852 ac3c da3b efbc 601b b83c ded3 3d3d
00000150: 0dc7 df3c c773 9e3c 12fd b73d cad9 a63d
00000160: b825 6cbd 1037 a43d 6e79 973d d256 d4bb
00000170: ef20 d73c cefa f6bc d659 d2bc 0fa3 ca3c
00000180: dc15 dabc 6637 f73c 6a27 313d 9fba 6c3d
00000190: 650f 59bd a1c9 00bd a3de 13bc 2b6f 1e3d
000001a0: a8cd c6bc af05 26bd 7477 6ebc 918a cd3c
000001b0: f844 76bb 5bd0 06bd 272e 173d 3a72 44bd
000001c0: e04e a8bd 5d46 3e3d 774a a63d 19b1 a63b
000001d0: ed00 6d3d fdda 723d feb9 9d3d 4255 843c
000001e0: ba9e 55ba 3ef4 93bd 535f 8d3b aec2 d3bc
000001f0: 32de 623b 7f33 be3d 55c0 e2bc 3a6c 87bd
00000200: a37f b43d a43c 35bc ef00 6ebd 58a9 1dbc
00000210: a2a9 abba 5465 b53c e16f 9f3d cbcd 18bd
00000220: c786 25bd e818 313b b7f4 3b3d 5565 a93d
00000230: 7c21 5cbd f2ee 82bd 7582 14bd 55ba bdbd
00000240: 5391 9f3c 7cf4 fa3d 9511 9b3d be76 773d
00000250: 6bf8 5dbc ee5d 28bd 2822 053e 4345 ee3a
00000260: 5250 aebc c398 9d3d f8ad d5bb 4b61 7e3d
00000270: 7006 68bc 1984 853d 1a7e 953d 2c75 b33b
00000280: fe8b 48bd fb2e 9e3c 9560 30bd 0e13 8e3d
00000290: e6db 9c3d 8707 aa3c 1b45 9e3d 5767 893d
000002a0: 6694 ed3d 9805 003d 772b 0ebe dae8 06bd
000002b0: 0522 e23d 064d 113d be4f 7cbd 454a bc3d
000002c0: 6360 4b3c 08fa 99bd 9b12 09bd 7fe0 8fbd
000002d0: 9da3 d2bc 5496 8b3a bb65 faba 27a3 79bb
000002e0: 4345 af3a 0fab 943d 4af7 883d 915e 94bd
000002f0: 6de0 bf3c d7cb 093d db0a 0c3d aa07 5dbd
00000300: 5379 33bd 66e9 46bd 5704 b3bd 2b98 2bbc
00000310: c0d9 dabb 54b0 a8bd 5427 523d 268b fbbc
00000320: c188 01bd 7dcf 763d 6fac 0a3e aa90 293d
00000330: c519 2dbd abdc 9d3d f940 0abc 9b6b a3bc
00000340: e12e e7bd cf15 973d 35f5 0cbd 22e0 b13c
00000350: a9e4 3a3c cd63 133d 28c5 8f3d 2082 173d
00000360: 2df8 59bb 699b 733c 7c59 cc3b c4c3 25bc
00000370: 65b6 d7bd 575c 7e3c 49dd 96bd 8124 7f3d
00000380: 4c42 a4bc 871f 98bc 4e7f 04bd 6ff7 18bd
00000390: f10d 80bc 1539 78bd d355 63bd 3bb1 3a3d
000003a0: ce46 b13d d3f9 9bbd 0eae 22bd 3a0d 553c
000003b0: cf98 debc a803 333d 4a46 8c3b c242 703b
000003c0: 9dd2 18bd 3304 88bd 6eab 3cbb 406c 973d
000003d0: 3796 d73d d514 9a3d dd29 bd3c 0817 aa3d
000003e0: 0c3b 19bd 82a0 4a3d accf aabc ec2a 8dbd
000003f0: 5553 503c fc81 2d3e 7945 eebc c255 c0bd
-0.08035633 0.00048807333 -0.0093998695 0.07731131 0.043997526 0.022083512 -0.022141965 -0.057940103
0.035384633 0.03672375 0.0047990927 0.07325545 0.07743825 -0.054481562 0.021874893 -0.03180323
0.0019992723 0.010851283 0.016586663 0.05159244 0.063453704 0.015349949 -0.02106527 -0.020729696
0.028545627 0.038063016 0.08012491 -0.061483946 -0.05440327 -0.03650861 0.042618424 0.06443499
-0.008264008 -0.069774784 0.013232488 -0.071673326 0.05862818 -0.060183965 0.01788418 0.0074334107
0.04859384 -0.05008444 0.045547146 0.010262803 0.018130489 -0.05108237 0.08803812 0.0013696147
-0.04687874 -0.018156955 -0.02116856 0.08589371 0.0672789 0.010886449 0.08783054 0.008040743
0.021022655 0.014414348 -0.0118796965 -0.057064544 0.032968245 0.0016616357 0.04516718 -0.022888433
-0.015881516 -0.03410099 -0.025954666 -0.06290072 0.0051399693 -0.07055495 -0.03607276 0.022227278
0.048610758 0.056748495 -0.065156825 0.019109173 -0.08259427 0.040422488 -0.06682969 0.0136757335
0.021035627 -0.029203344 0.02247399 0.04634463 0.027316594 0.019342316 0.08983816 0.08147009
-0.05765316 0.08018315 0.07396208 -0.0064800764 0.026260821 -0.03014889 -0.025677603 0.024735956
-0.026621751 0.030177783 0.04325048 0.057795163 -0.052993197 -0.03144229 -0.009025249 0.038680237
-0.024267986 -0.040532764 -0.014554847 0.025090488 -0.003757773 -0.032913547 0.03690925 -0.047960497
-0.08218169 0.046453822 0.08119672 0.0050870297 0.05786221 0.059290875 0.07701491 0.016153935
-0.0008148957 -0.0722432 0.004314342 -0.025849666 0.0034617302 0.09287166 -0.027679602 -0.066124395
0.08813407 -0.011061821 -0.05810636 -0.009622894 -0.0013096819 0.022143044 0.07785011 -0.037305634
-0.040411737 0.0027022902 0.045887675 0.08271281 -0.05374287 -0.063932315 -0.036257226 -0.09264056
0.019478476 0.12253663 0.07571713 0.060415976 -0.013547997 -0.041105203 0.13001311 0.0018178601
-0.021278534 0.076951526 -0.006520983 0.062104505 -0.014161691 0.06519336 0.072994426 0.0054766145
-0.048961632 0.019309511 -0.043060858 0.06937228 0.0765913 0.020755542 0.077280246 0.06709164
0.116005704 0.031255335 -0.13883768 -0.03293691 0.11041645 0.035473846 -0.061599486 0.09193853
0.012413117 -0.07518393 -0.03346501 -0.07025241 -0.025712783 0.001064966 -0.0019103804 -0.003809163
0.0013372082 0.07259189 0.06687792 -0.072445996 0.023422444 0.033641662 0.03419004 -0.053962387
-0.043816876 -0.04856243 -0.08741062 -0.010473291 -0.00667879 -0.08236757 0.051307037 -0.030706
-0.03162456 0.06025647 0.1354234 0.041397728 -0.042260904 0.07708105 -0.008438342 -0.019948771
-0.11288238 0.073772065 -0.034413535 0.02171332 0.011407056 0.03598385 0.070200264 0.03698933
-0.0033259497 0.014868596 0.0062362533 -0.010117475 -0.10532836 0.015524945 -0.073664255 0.062290672
-0.020051144 -0.01856972 -0.03234797 -0.037345346 -0.015631648 -0.060601313 -0.05550177 0.045579176
0.08656083 -0.076160096 -0.039716773 0.013003642 -0.027172474 0.04370466 0.00428084 0.0036660885
-0.03731023 -0.06641426 -0.0028788703 0.07393694 0.10526698 0.07523505 0.023091251 0.08305174
-0.037409827 0.04946948 -0.020850979 -0.06892952 0.01271518 0.16944116 -0.029085862 -0.09391357

conv7.op.weight f4 [80, 64, 3]
00000000: eb6c 0f3c 7954 2f3d 6894 493d 918d 6bbd
00000010: 156e 18bc f974 b4bc dae2 c4bc f429 d2bc
00000020: 7c78 59bd 4b57 053c c44c 4a3d 392d a2bd
00000030: 4836 a03d fa6b 253d c53b dcba ff3b 10bd
00000040: 40f6 cdbc 5583 51bc cef3 4f3d 3c8f 383d
00000050: 8e56 ce3c db95 b0bd 5787 5b3b 08b5 b0bc
00000060: aa60 283d 2978 8fbc 72fd 62bd 1382 0ebd
00000070: 8c64 7bbc c79b 91bd cfdf 9abc b875 803d
00000080: 089e 31bd ce85 623d a5ae d43d ae89 b23c
00000090: 6ce8 92bb 2245 60bb af85 d13c 82f3 603d
000000a0: ffa3 753d cbae 803d 8378 9f3d 691a fb3c
000000b0: 4019 68bd 1849 58bc 8f3f 183d b12a 2a3d
000000c0: d911 b0bc 6ce8 62bd 7542 8c3d df15 8d3d
000000d0: 23ba 793d a97d 8abd 97ab 80bd bf49 6c3d
000000e0: ecb7 aabd be82 c3bb 419e 373d 4385 37bd
000000f0: adeb a33d a5d3 ed3b 0002 0abe fe78 e7bc
00000100: abd6 793d 5977 8fbd e3f2 d7bc 7de3 b9bc
00000110: 3ddd eabb c259 afbc dd0e dabc b2c9 733d
00000120: be86 b93c fa31 9f3d 66c0 44bd d167 82bc
00000130: 0a01 213d e7a6 82bd db36 a9bc 7b3c b53d
00000140: fdc4 a2bd fe21 b7bc 471a d33d 0602 553d
00000150: 3929 3dbd 09c8 8fbd 8218 8ebd 75a1 f33b
00000160: 6b63 aebc b386 153d 1d14 a6bc 87c4 7f3d
00000170: f140 2abd 1d95 b139 0fe2 69bd ad53 a2bc
00000180: b46c 433d 4ca6 6b3d e1de c5bd f414 3cbd
00000190: 1d74 363d 6dc4 103c 746a 4e3c b0a8 253d
000001a0: 4632 7ebd 9526 a4bd 7b50 443d 8306 e73c
000001b0: b643 3bbd 9b3c 883b 3bc0 4fbd 56eb 553b
000001c0: d6a3 58bb 0c2a cf3c f202 83bc 25a0 193d
000001d0: 923e 0cbd f485 7f3b 1def 7bbc e45f 403d
000001e0: c160 bb3d 6f20 1ebd 3b74 e53b 48ee 3e3d
000001f0: cf0e 743d 75dd 513c a27f b23c 1c62 023c
00000200: ae2b 02bc b8df 46bc 3c2b a13c 57f3 213c
00000210: 85f8 673d 4199 0abd 10e3 0fbe a678 823d
00000220: 84b5 a5bd a99e 673d 9a56 f93c b1a3 50bd
00000230: b9cf 033d 4764 21bc 7e11 63bd 86a0 30bd
00000240: f345 6ebd a9ba f1bc 9c61 0dbd 29cf d7bb
00000250: 1809 43bb f32e 0e3d cd3f 2fbd e597 63bd
00000260: 98c8 23bd 3976 633d 4fe7 85bd 29f9 40bd
00000270: 799a efbc 66f8 16bc cac9 7e3d 5275 3f3c
00000280: f853 713d e4ed 52bc 90ae a9bd ea9b 803d
00000290: d115 0fbc 3149 6bbd 3054 573d cbe4 c83c
000002a0: 2b94 1dbd 3840 bc3b 4548 91bd d473 8ebd
000002b0: 38d5 01bb ff04 903d bdd3 d9bc 73fb df3c
000002c0: f461 82bd a77a 3a3d 9504 8fbc 464a e23c
000002d0: e661 8d3d 2989 e23c c44d f43c f5d8 8bbd
000002e0: 19a5 eebc 4b54 f3bd 8f3a 22bd b6eb 103b
000002f0: 95b2 fdbb 0b5f 863d bde8 93bd aa44 f03d
00000300: 2be5 8cbd e7c1 df3c 0943 9bbc cb50 9f3c
00000310: 4ec6 1cbd 89b0 1f3c d730 a9bd 2bba 7abd
00000320: ec51 84bc 968e 88bb 1693 a4bc bae3 3d3d
00000330: 37c5 ed3c 5ef6 fe3c 2a6f e53c eec1 c23c
00000340: 4eab 023d 1897 483d 1892 a13c f815 643d
00000350: 32ee 003d 44b9 ce3c 05be 99bc 83a7 873d
00000360: 80f3 27bd 7e76 f83c 56d7 b03c 832e 79bd
00000370: 0e33 0dbd 240c b93c 97c3 9fbc 1d09 11bd
00000380: 7b1b 163d f05d 55bd 9a39 a1bc ca70 733d
00000390: 7e73 7e3d 98df fe3c 5264 16bd 7d19 d33c
000003a0: 7f18 633c 118d 89bd f1fb 22bd 548b 033d
000003b0: 7ff9 88bc 3f82 b3bc e481 a23a d9ce eb3c
000003c0: 2825 b33c 6852 bdbc 9b1c 8abd ae33 c9bc
000003d0: f7d6 81bd 117f 0fbd a586 673d b7f0 b73c
000003e0: feb2 e7bc 7eb7 e63c f2a4 cfbc 4fcb a7bb
000003f0: fb33 e93c 8a98 02be 9f53 0fbc 12da 2abc
0.008753995 0.04280517 0.049213797 -0.057508055 -0.009303589 -0.022028433 -0.024033953 -0.02565477
-0.05309342 0.008138488 0.049389616 -0.07918782 0.07822853 0.040386178 -0.0016802481 -0.035213467
-0.025141835 -0.01278766 0.05076962 0.045058474 0.025187757 -0.08622333 0.0033497417 -0.021570697
0.04110781 -0.017513352 -0.055417486 -0.034792017 -0.015343796 -0.0710979 -0.018905548 0.06272453
-0.0433636 0.055303387 0.10384873 0.021794166 -0.0044832733 -0.0034220894 0.02557644 0.054919727
0.059970852 0.06283339 0.07786658 0.030652242 -0.056664705 -0.013201021 0.03716999 0.04154462
-0.021492885 -0.055397436 0.06848613 0.06888937 0.06096853 -0.06762249 -0.06282728 0.057687517
-0.083358616 -0.0059665134 0.044828657 -0.044804823 0.08003936 0.007257896 -0.13477325 -0.028255936
0.06099574 -0.07005186 -0.026360935 -0.022691483 -0.007167487 -0.021405105 -0.026618415 0.059518524
0.022647258 0.07773204 -0.048035048 -0.015918644 0.03930763 -0.0637949 -0.02065604 0.08849426
-0.07947729 -0.022355076 0.103077464 0.052003883 -0.04618189 -0.070205756 -0.06938268 0.0074350187
-0.02128764 0.036505412 -0.020273263 0.062443282 -0.04156584 0.0003387117 -0.057100352 -0.01981529
0.04771109 0.05753164 -0.096616514 -0.04591842 0.044544328 0.008835894 0.012598623 0.040444076
-0.062059663 -0.080151714 0.047928315 0.028201347 -0.04571887 0.0041576154 -0.050720435 0.0032641492
-0.0033056638 0.025288604 -0.015992615 0.03750624 -0.03423936 0.0038989754 -0.015376833 0.04696645
0.09149314 -0.03860515 0.007002381 0.04661396 0.059584435 0.012809147 0.021789376 0.007957961
-0.007944984 -0.0121383 0.019673936 0.009884677 0.05663349 -0.03383756 -0.14051461 0.06370668
-0.08091262 0.056547794 0.030436803 -0.05093736 0.03218052 -0.009850568 -0.055436604 -0.043121837
-0.058172178 -0.029507952 -0.034516916 -0.0065859747 -0.002976006 0.034712743 -0.042785455 -0.05556478
-0.039986223 0.055532668 -0.06538259 -0.047112618 -0.029248463 -0.009214496 0.06220416 0.011685686
0.05891797 -0.0128741 -0.08285248 0.06279738 -0.008733229 -0.057442848 0.05257052 0.02452316
-0.038471382 0.00574496 -0.070938624 -0.06955686 -0.0019810926 0.07032203 -0.026590222 0.02734158
-0.06366339 0.045527127 -0.01745824 0.027623307 0.06903438 0.027653294 0.029822238 -0.06828491
-0.02913146 -0.11881312 -0.039606627 0.002211315 -0.007742236 0.06561097 -0.07222126 0.11731847
-0.06879648 0.02731414 -0.018952863 0.019447705 -0.038275056 0.009746679 -0.082612686 -0.0612127
-0.016152345 -0.004167388 -0.020089667 0.046359755 0.029024703 0.031123336 0.028007109 0.023774114
0.03190165 0.04897222 0.019722983 0.055685014 0.03147716 0.025234826 -0.018767366 0.06623747
-0.041003704 0.030329939 0.021587055 -0.060835373 -0.034472518 0.022588797 -0.019502444 -0.03540908
0.0366473 -0.05209154 -0.019680787 0.059433736 0.06212186 0.031112477 -0.036716767 0.02576899
0.013860821 -0.067163594 -0.03979105 0.032115296 -0.016720532 -0.021912692 0.001239833 0.028785156
0.021868303 -0.023110583 -0.06743737 -0.024560776 -0.063398294 -0.03503329 0.05652489 0.022453649
-0.028283592 0.028163668 -0.025347207 -0.005120672 0.028467169 -0.12753502 -0.008747964 -0.010427969

conv8.op.weight f4 [32, 80, 3]
00000000: 75ae f5bc 59a4 583c a2d9 02bd 0276 0d3c
00000010: 3b53 9c3c 0af6 b33c ee96 00bd b371 ed3b
00000020: e16c 01bd cdaa 353d 22cf 653a 486b 67bc
00000030: bc3c 98bc f6c9 123d ca7b 9abc 0a23 08bb
00000040: 9913 a33b 1848 18bd 61d1 5c3d 5a7d 6abd
00000050: 88bb 143d 2d01 59bd e0b3 d1bb 7307 20bc
00000060: f8f7 fe3b c4b1 09bd 9b57 54bd e6bd e1bc
00000070: 5191 4d3d 1454 8bbc 7273 c0bc ca85 653d
00000080: 77c4 1c3d 91c0 823d 8267 31bc b6af 23bd
00000090: 20b6 343d 25bf 5abc 8813 cd3c 131f 733d
000000a0: 5386 19bc c02a 18bd 827e 6c3c 4a13 043d
000000b0: a659 83bd 06b3 8d3c 9d51 16bd 8087 33bd
000000c0: 93fd 463d 58d0 d2bc ada5 243c 0087 1138
000000d0: 17a1 2bbd d644 bb3c bfab 4f3d 2211 de3b
000000e0: aebe 78bd 0d2e 09bd 78c8 f83c 74e2 3c3a
000000f0: 5b53 00bc 9740 ab3c e117 82bc 8dba 43bd
00000100: 3278 c9bc 1df5 65bd f3cf 93bb 3349 a9bc
00000110: 1243 113d 5466 96bc 1951 af3c 9e33 263d
00000120: 84a5 523d bf45 313d a0cb 033d 0026 8a3c
00000130: 0564 eebb 61ef 36bd 9ff4 61bd df81 c7bc
00000140: b719 1a3d 0d3d 693d 218b 48bd 64db 4e3d
00000150: 493f 203b 4b39 59bc e04f 91bc c8b3 453d
00000160: 354b 8c3c 6674 593d a463 ce3c 4404 8c3c
00000170: 4920 3dbd 0334 ccbc d649 f03c 16d9 593d
00000180: 26fb 3d3d e125 0fbd 219f 53bc db29 ed3b
00000190: d562 80bd 5d1d 983c efda c3bb 1be0 27bc
000001a0: 1eae 2cbd ac9f e1bc 48cd 0ebc ed62 17bd
000001b0: 07f8 fd3b 7cc9 3b3d 3871 3a3d c244 eabc
000001c0: 67fa 4dbd 610c fe3c aa52 8c3c de3b 6abd
000001d0: 5d6e febc bed5 6dbd e4f4 553c 7332 a23b
000001e0: 18db 64bd 06c1 803b abb9 78bd cf10 b73c
000001f0: 1767 49bb bbd2 e1ba 331c 18bc e4ef 813c
00000200: 25d2 71bd def8 e6bc 2ebc 0f3c ade0 913c
00000210: 7791 3139 b6bd 0abd d07d 3a3c 0fb4 debc
00000220: c9de cebb 8ef0 dabc 4c3f 23bd ccb6 743b
00000230: 7e6f df3c 6975 013d 4963 7abd 87cc adbc
00000240: e58c 5fbd 6636 1f3d 340e 093d cffe 40bd
00000250: 720a 68bd ef2b 23bb 62eb 333d b53e ee39
00000260: ed24 97bc f7ef 44bd 63b5 b93c c83d 55bd
00000270: 8d4f 69bd 02f0 ed3c f426 cbbc 8509 003d
00000280: cb2e 71bd 86c9 163d 58e6 103d aab5 0e3d
00000290: 510c 0fbc 8483 36bd c016 a13b 3a53 6cbc
000002a0: 9a66 48bc 3185 a4bc 58ef 98bc 5ef5 8ebc
000002b0: de5c 7b3d d1c4 003d 282e 8b3a 76b5 7dbd
000002c0: 2ff6 b3bc c597 913c f0a3 1d3c 5265 52bb
000002d0: c393 7e3d e74b 143d 608a cf3c 2e26 193d
000002e0: 16f4 3abd 8fdd e1bc 0e22 2abd e45e 15bd
000002f0: df60 cf3c 5972 f6bc 6d4e c4bc 4114 52bd
00000300: 7207 6cbd 6bbf 283d 050c 75bd eb3e 14bd
00000310: 70eb 69bd fd6d 0b3d 0f52 443c e1af 4bbd
00000320: 1618 dd3c efc1 c33c ee61 573d 2f24 c13b
00000330: ec7c 543c 0c25 19bb bde2 2f3d 7911 11bd
00000340: 4f48 4dbd a999 5dbd dac1 22bd 0bcf b5bc
00000350: dbc9 ca3c 6883 3ebd 005c a9bc 4bf2 3ebd
00000360: 22c7 0a3a 7766 27bd 6efe 6a3d 4cfa 15bd
00000370: cfb4 e8bb ee0b 0fbd 28a6 60bd d6a6 c23b
00000380: b032 8e3c 3814 08bd 8641 0abd 4485 d0bc
00000390: 9a1b 61bd 05b3 2fbb 506d 403c 69ff dc3c
000003a0: 2bcb 063d 4b9d 3fbd 437d 033c d77e 2d3d
000003b0: dcd8 e83c 202d 0f3d bcef 36bd e46b 413d
000003c0: 88be 5d3d 343d e73c 29f7 f1bc 4880 153d
000003d0: 00fd 9a3c 39a4 d0bb 557e e639 b545 5a3d
000003e0: 4905 9d3d e26a 85bc 74d0 3b3b 672c 97bd
000003f0: a201 8e3d d170 5e3b 3e4c 533d caf9 2a3c
-0.029990414 0.013222777 -0.031945832 0.008634092 0.019082656 0.021967907 -0.031393938 0.00724622
-0.031597976 0.04435234 0.0008766522 -0.014124699 -0.018583648 0.035837136 -0.018857855 -0.0020772838
0.0049767015 -0.03717813 0.053910617 -0.05724845 0.036311656 -0.052979637 -0.0063996166 -0.009767401
0.007781025 -0.033616796 -0.05184136 -0.027556371 0.050187413 -0.017007865 -0.023492549 0.056035794
0.0382733 0.063843854 -0.010827901 -0.039962493 0.044119 -0.0133512365 0.025033727 0.059355807
-0.009370404 -0.037150145 0.014434459 0.032244958 -0.064135835 0.01729728 -0.036698926 -0.043830395
0.04858167 -0.025734112 0.010049266 3.4696423e-05 -0.041901674 0.022859972 0.0507009 0.0067769447
-0.06072872 -0.033491183 0.030369028 0.0007205375 -0.0078323735 0.020904822 -0.015880527 -0.04778533
-0.024593446 -0.05614196 -0.0045108735 -0.020664787 0.035464354 -0.01835934 0.021400975 0.04057657
0.05142738 0.043279406 0.032176614 0.016863823 -0.007275107 -0.044661883 -0.05516493 -0.02435392
0.03762218 0.05694299 -0.04896081 0.050502196 0.0024451783 -0.013258289 -0.017738283 0.048267156
0.017125705 0.05308952 0.025193997 0.017091878 -0.046173368 -0.024927145 0.029332083 0.053185545
0.046382092 -0.034948234 -0.012916357 0.0072376556 -0.06268851 0.018568689 -0.0059770267 -0.010246302
-0.04215824 -0.027541958 -0.008715935 -0.036959577 0.0077505144 0.045846447 0.04551813 -0.02859724
-0.05028763 0.031011762 0.017129261 -0.057186 -0.031058485 -0.05806517 0.013058875 0.0049498617
-0.055873007 0.00392926 -0.06072394 0.022346882 -0.0030731612 -0.001722894 -0.009284067 0.01586146
-0.0590383 -0.028194841 0.008772893 0.01780733 0.00016934225 -0.03387233 0.011382535 -0.027185468
-0.006313179 -0.026726034 -0.039855286 0.00373404 0.027274843 0.03160611 -0.061129842 -0.02121569
-0.054577727 0.038870238 0.03346081 -0.047118004 -0.056650586 -0.0024898013 0.04392565 0.00045441618
-0.018450225 -0.04808041 0.0226695 -0.052060872 -0.05696063 0.029045109 -0.024798848 0.03125908
-0.058882516 0.03681328 0.035375923 0.034841217 -0.008730964 -0.044559017 0.004916042 -0.01442414
-0.012231493 -0.020083042 -0.018668815 -0.017450985 0.061367862 0.0314377 0.0010618614 -0.061940633
-0.021967975 0.017772565 0.009621605 -0.0032103849 0.062152635 0.0362052 0.025334537 0.037389927
-0.045642935 -0.027571468 -0.041536383 -0.036467448 0.025314746 -0.030083822 -0.023963178 -0.051288847
-0.057624288 0.041198175 -0.059825916 -0.036192816 -0.057109296 0.03404044 0.011982455 -0.049728278
0.026989024 0.023896186 0.052583627 0.005894206 0.012969237 -0.002336803 0.042940844 -0.035417054
-0.050117787 -0.05410162 -0.039735653 -0.022193452 0.024754455 -0.046512038 -0.020673752 -0.046617787
0.00052939553 -0.040869202 0.05737155 -0.036615655 -0.007101632 -0.034923486 -0.05484596 0.0059402985
0.017358154 -0.033222407 -0.033753894 -0.025454171 -0.054957964 -0.0026809585 0.011744812 0.026977258
0.0329086 -0.046780866 0.00802547 0.042357292 0.02842372 0.034955144 -0.044662222 0.047222033
0.054136783 0.028227426 -0.0295368 0.03649929 0.018919468 -0.006367233 0.00043963143 0.053289134
0.07667024 -0.016286317 0.0028658183 -0.07381516 0.06933905 0.0033941756 0.051586382 0.010435531

fc.op.weight f4 [3, 160]
00000000: 6261 353c a2e8 5c3d fa3f 3e3c 42d2 1fbd
00000010: 5758 83bc ef70 e4bd 3f7b 57bd a736 9a3d
00000020: 753c 063d a230 363d b6e5 53bc 3ace 0cbd
00000030: d0b5 c7bc d7e0 2cbd 2cc0 1f3b fb9a 9cbd
00000040: ab8c e93d 749a 1fbd 815b a43d 16d3 053d
00000050: 5467 c03d b6fd e63c 67ea 4b3d 8f7d 0fbd
00000060: f00a 1c3d 5b21 8f3d d5c7 6e3b 3ba4 8fba
00000070: 47ec e4bb 6f7a 9fbd f6e6 a43d 429d c93d
00000080: da24 953d 25d3 85bc 7015 db3c 247e 493c
00000090: 5f42 dfbc 6943 0fbd d859 1b3c 77a7 e0bc
000000a0: 586b b5bb 1b72 bcbc 31c0 d53c 12ed 61bc
000000b0: 1a35 9dbd a5f9 bcbc d161 8ebd c28f a63d
000000c0: e0aa 1c3d d417 8ebc b584 1cbd f23a 1f3d
000000d0: cff5 163d 7900 2e3c 8e12 1dbd 5a92 ae3c
000000e0: 182c 033c dacf 25bd e0e0 02bd 0df5 a93d
000000f0: db3d 7dba 4a82 8bbb a592 4abd 48af 60bd
00000100: b439 c0bb 63e1 89bd bec4 b6bc 9116 94bd
00000110: cb87 e0bc 49df 5f3d bbcb 213e 031d c5bd
00000120: a297 e6bd 6f01 0ebd 19b7 e6bd 7f5c fa3c
00000130: 8224 3b3d c351 b9bc 1460 acbd 02a3 4b3d
00000140: a760 e2bd bc09 5f3d 38ab 45bc df8e a0bd
00000150: 329d de3d be72 4fbd 7ae0 c1bb 32d2 bf3d
00000160: 258d 3a3d 2a7c a53d dcbb 973d e732 2fbc
00000170: 01a1 9e3b f54d b13d 895c 98bc b972 9a3d
00000180: dc3a 1fbd ede0 8dbc a2eb a6bb 0338 6d3d
00000190: e223 9abb ccac ba3c b8a4 fb3c 2139 af3d
000001a0: d871 97bd a606 113e 0b88 913d 6f1f e9bd
000001b0: 6472 53bc dd41 0b3c 3342 8aba 00fb b63d
000001c0: 5149 133d d609 5dbc 0380 1c3a 7da9 113e
000001d0: 02f3 723d 6fe5 483d 3d55 28bd 8b17 b63d
000001e0: 8d76 ca3d 9676 5dbd 1038 e63c 3efe 383d
000001f0: d994 20bd aec9 1abd 4030 21bd 0a11 893c
00000200: e348 a43d 05c3 7cbd 80bf d53b c171 3b3d
00000210: 962f c7bc a7bd 2abc a32c 3ebd 33d0 b63d
00000220: dd8b 8c3d c2c5 c8bd a9ab f9bc a603 a8bd
00000230: a432 083d f8e1 ff3c 8e2e 29ba 299f a73c
00000240: 3fb5 9f3b 7a69 a33d 71b5 7d3d 1ed5 03bd
00000250: 1f5b a13d 6e99 4f3b 9b74 aa3d 9042 99bd
00000260: 9cf4 06bd dff8 9c3c 50aa 5e3d 8356 1b3c
00000270: 8316 73bd cc34 37bd 0adb 9bbd f37b aabc
00000280: 3a68 c9bc 3536 45bd 349e 993c 344b 8ebc
00000290: b15e 753c 7ef5 b63d 3016 343d 9249 23bd
000002a0: db22 6f3d 6f65 78bd 9e59 863d dff7 d43c
000002b0: 85f4 683d e6fe f138 b459 e83c 355d e23d
000002c0: 82fb 85bd 95bc 26bc 198f 86bd c74c 1bbd
000002d0: 11d8 49bd 7227 f73c 5d7a 56bd 4f82 853b
000002e0: da6e 303d 0688 81bc fced c63c 72c0 01bd
000002f0: 57f2 e63b 841e ae3c f077 493d 1011 623d
00000300: 07ba 82bd db77 b13d 5226 ecba 71ee 833d
00000310: 696e 8e3c 73ed 333d 1c89 773d 86b4 893d
00000320: 068d 5f3d 35ea 6dbd ba10 423c b6d3 473d
00000330: a335 8cbd ae87 d2bd 32d7 9bbc aece 5f3c
00000340: 6e2b 973b 9324 be3d 88c4 34bc 026b c8bc
00000350: fd8b 42bd f8fe c83d 0e7f 2ebd ad05 14bd
00000360: db90 0a3d 3a0a 953c b751 0fbd 8c31 6dbc
00000370: 624b 6abd f3b0 fb3c 8319 f13c de88 913c
00000380: 0c85 b03c 88df 15bd b803 48bc e290 6bbd
00000390: 051c 5a3d b8e1 8abd 5efc e0bd 540b a83d
000003a0: 4230 013e 2a4c 82bd 82ac bd3d 7b91 87bd
000003b0: 37e0 d83c 44f2 8ebd 04d7 abbc af7a 2abd
000003c0: 9277 883d 12a7 ccbd 877e 063d 561e 57bd
000003d0: 483e 68bd 4104 813b 1743 1b3d b253 653d
000003e0: 709a aa3c a9de bf3d c392 9e3a b936 6d3d
000003f0: f9da 9c3d 6fb6 8dbb 8bcf 713c 8742 503d
0.011070581 0.053932793 0.011611933 -0.039018877 -0.016033335 -0.11154353 -0.05260777 0.07529955
0.0327725 0.044479974 -0.012933185 -0.03437636 -0.024378687 -0.04220661 0.0024376018 -0.07646748
0.114037834 -0.038965657 0.080252655 0.03267201 0.09394708 0.02819715 0.04978409 -0.03503185
0.03809637 0.06988784 0.0036435027 -0.0010958979 -0.0069861743 -0.07787024 0.08051865 0.09844448
0.072824195 -0.016336033 0.02674362 0.012298141 -0.027253328 -0.034976397 0.00948187 -0.027423603
-0.005536478 -0.023003628 0.02609262 -0.013789432 -0.07676144 -0.023068259 -0.06952251 0.081328884
0.038248897 -0.017345347 -0.038212497 0.038874574 0.036855515 0.01062023 -0.038347773 0.02131002
0.008006118 -0.040481426 -0.03195274 0.08298693 -0.0009660401 -0.004257475 -0.049456257 -0.05485466
-0.0058662537 -0.06732442 -0.02231061 -0.07230867 -0.027408501 0.0546563 0.15800373 -0.09624674
-0.112593904 -0.034669336 -0.11265392 0.030561684 0.045689113 -0.022621995 -0.08416763 0.049716003
-0.11053591 0.054452643 -0.0120647475 -0.078397505 0.108698264 -0.050646536 -0.0059166523 0.093662634
0.045544762 0.08080323 0.07408878 -0.010693288 0.0048409705 0.08657447 -0.018598812 0.07541413
-0.038874492 -0.017319167 -0.0050940076 0.057914745 -0.0047039846 0.022787474 0.030718192 0.08555818
-0.07394761 0.14162692 0.07106026 -0.113829486 -0.012905691 0.00849959 -0.0010548293 0.08934593
0.03595859 -0.013491115 0.0005970003 0.14224811 0.05931378 0.04904693 -0.041096915 0.08891209
0.09885893 -0.05406817 0.028102905 0.04516434 -0.039204452 -0.037789993 -0.039352655 0.016731758
0.080217145 -0.061709423 0.0065230727 0.04576278 -0.024314683 -0.010421193 -0.046429288 0.089264296
0.06862614 -0.09803344 -0.030477362 -0.08203821 0.03325142 0.03123568 -0.00064537756 0.020461636
0.004873901 0.079791024 0.061940614 -0.032185666 0.07878708 0.0031677145 0.08323022 -0.07483399
-0.03294812 0.01916164 0.05436164 0.009481075 -0.05934764 -0.044728085 -0.07610138 -0.020811057
-0.024585832 -0.0481474 0.018752195 -0.017369844 0.0149761895 0.08933543 0.043966472 -0.039865084
0.05838285 -0.06064361 0.06560062 0.0259971 0.056873817 0.00011539254 0.028363086 0.11052934
-0.06542112 -0.010176797 -0.065702625 -0.037915017 -0.049278323 0.030170176 -0.05236279 0.004074372
0.043074466 -0.015811931 0.024283402 -0.03167767 0.007047932 0.021254785 0.049186647 0.055192053
-0.06383138 0.08665439 -0.0018016791 0.064419635 0.017386632 0.04392762 0.060433492 0.06723885
0.05457785 -0.058084685 0.011844808 0.048785888 -0.06846168 -0.10279785 -0.019023512 0.013660116
0.0046133315 0.0928432 -0.011033185 -0.024465088 -0.047496784 0.098142564 -0.042601638 -0.036138225
0.03382955 0.018193353 -0.03499004 -0.014477145 -0.057200797 0.030724024 0.02943111 0.017765459
0.021547817 -0.03659013 -0.012207918 -0.057511218 0.053249378 -0.06781334 -0.10985635 0.08205286
0.12616065 -0.063621834 0.09261419 -0.06619545 0.026474101 -0.06979802 -0.02097655 -0.041620906
0.06663431 -0.09992804 0.03283551 -0.052519165 -0.05670002 0.0039372747 0.03790578 0.05598802
0.020825595 0.09368641 0.0012098182 0.057913516 0.07658953 -0.0043247263 0.014758955 0.050844695
