leftandright/2D/optimiced/qat_checkpoint.pth.tar (torch, 663835 bytes, 46 tensors)

conv1.op.weight f4 [16, 1, 3, 3]
0	0xbcd15c63	-0.025556749
1	0x3f282e35	0.65695506
2	0xbf80a5ab	-1.0050558
3	0xbf6c317e	-0.9226302
4	0xbef3c29b	-0.4760941
5	0x3ebbfe91	0.36717656
6	0xbc44bc9a	-0.012007857
7	0x3f85e53f	1.0460585
8	0xbd9cea39	-0.07661862
9	0x3e4af6da	0.19820729
10	0xbe8094af	-0.25113437
11	0xbe30e563	-0.17275004
12	0xbf32eb38	-0.69890165
13	0xbef9167a	-0.4864996
14	0xbe9d7e8d	-0.30760613
15	0x3cbf78b6	0.02337299
16	0x3e8f640d	0.2800602
17	0x3ed3f516	0.41397923
18	0xbf0312ee	-0.5120076
19	0xbea7025c	-0.32618988
20	0x3e81e335	0.25368658
21	0x3f1c341b	0.61017007
22	0xbe0fb3cd	-0.14033432
23	0x3f17896d	0.5919407
24	0xbe07cb74	-0.13261205
25	0x3db43966	0.088000104
26	0x3f270a43	0.65250033
27	0xbeccf4d0	-0.40030527
28	0xbe8ed5b5	-0.2789742
29	0xbdeb7d7d	-0.11498544
30	0xbe291f3a	-0.16515818
31	0x3eb2c44a	0.34915382
32	0xbe889601	-0.26676944
33	0xbe4c8e69	-0.199762
34	0xbe98646f	-0.29764125
35	0xbec75fad	-0.38940182
36	0xbee5536f	-0.44790217
37	0x3f2ff1e1	0.6872845
38	0x3ebc32ec	0.367576
39	0x3ed46d78	0.41489768
40	0x3d8cd810	0.06877148
41	0xbec9629a	-0.3933304
42	0x3e18e4fa	0.14931098
43	0xbf372454	-0.7153981
44	0xbf1200d0	-0.5703249
45	0xbe77aa58	-0.24186075
46	0x3ebc139e	0.36733717
47	0x3ea283a1	0.3174105
48	0xbe616e05	-0.22014625
49	0xbb34e616	-0.0027602962
50	0x3eaf0dec	0.3419031
51	0x3f04bd25	0.5185111
52	0x3e4c76a9	0.1996714
53	0x3da5902f	0.080841415
54	0x3f1828bf	0.59437174
55	0xbefd4e58	-0.49473834
56	0x3e09b1fd	0.13446803
57	0xbf2a029c	-0.6641023
58	0xbf1ba93b	-0.608051
59	0xbedf7d74	-0.436504
60	0x3ebe099c	0.37116706
61	0x3ea3fe8b	0.32030138
62	0xbf010f22	-0.50413716
63	0x3e8d4c29	0.27597168
64	0x3ef50c01	0.4786072
65	0xbdd06db6	-0.10177176
66	0x3db97544	0.0905557
67	0x3e1a321d	0.15058179
68	0x3ef273d6	0.47354
69	0x3f3f729c	0.74784255
70	0xbf1fb5d4	-0.6238682
71	0xbe982428	-0.29715085
72	0x3e4eed4a	0.20207706
73	0x3ed182bc	0.40920055
74	0x3eddb37f	0.43301007
75	0x3ef511ee	0.47865242
76	0x3dcf369d	0.101178385
77	0xbef35f22	-0.47533518
78	0x3d071d25	0.03298678
79	0xbeb053c7	-0.34438917
80	0xbf052e23	-0.52023524
81	0x3f52448a	0.8213583
82	0x3f35fe05	0.7109073
83	0xbf61a784	-0.88146234
84	0x3e4812ab	0.19538371
85	0xbde3aa02	-0.11116411
86	0xbe0f94b0	-0.14021564
87	0xbebf1944	-0.37323964
88	0x3eae7f78	0.34081626
89	0xbf09f59c	-0.53890395
90	0x3ea42408	0.3205874
91	0x3ef29ecf	0.47386786
92	0x3f213723	0.62974757
93	0x3ea6162a	0.32438785
94	0xbf686d43	-0.9079172
95	0xbf15e9ef	-0.5856008
96	0x3edb2996	0.42805165
97	0x3e333dfa	0.17504111
98	0xbf31a1a6	-0.6938728
99	0xbeb60b6e	-0.35555595
100	0x3f0f2911	0.5592204
101	0x3ec400a8	0.3828175
102	0xbe813f39	-0.25243548
103	0xbe3009ed	-0.17191286
104	0xbf11e195	-0.56984836
105	0xbcdfe279	-0.02732967
106	0xbee85a51	-0.45381406
107	0xbeef526a	-0.46742564
108	0xbdc9911b	-0.0984213
109	0x3e6474a1	0.22310115
110	0xbf191f40	-0.5981331
111	0x3f72fabf	0.9491386
112	0xbf68f538	-0.90999174
113	0x3fb4ebf8	1.4134512
114	0x3f82b62c	1.0211844
115	0xbfa88e18	-1.3168364
116	0xbed6272d	-0.41826764
117	0x3d1ffd89	0.03906015
118	0x3dc9932f	0.09842526
119	0x3e2c8b1f	0.16849945
120	0x3ea1cba0	0.31600666
121	0x3cd8b3fd	0.026453013
122	0xbeea2bca	-0.45736533
123	0x3ebf293b	0.37336144
124	0xbf54e91a	-0.83168185
125	0xbf0a9d44	-0.5414622
126	0xbe252f17	-0.16131245
127	0xbe9410bc	-0.28919017
128	0xbe5b9019	-0.21441688
129	0xbefa57d2	-0.48895127
130	0xbe084885	-0.13308914
131	0x3dfd5d18	0.12371272
132	0xbece70b0	-0.4032035
133	0xbd3a8e84	-0.04554607
134	0x3ed0ec22	0.40805155
135	0xbcbc2555	-0.02296702
136	0x3d153c15	0.03643425
137	0xbcc434cc	-0.023950957
138	0x3dd198f2	0.1023425
139	0x3e933d37	0.2875764
140	0x3ed41954	0.41425574
141	0x3e928251	0.2861505
142	0x3edbed1e	0.42954344
143	0xbd051315	-0.0324889

conv1.op.bias f4 [16]
0	0xbed48e30	-0.4151473
1	0xbf790be5	-0.97283775
2	0x3f8cfe33	1.1015075
3	0xbfdbfbef	-1.7186259
4	0xbeda1473	-0.42593727
5	0x3fafe61a	1.3742096
6	0xbf9e1358	-1.2349653
7	0x3f94c919	1.162387
8	0x3ead432d	0.33840314
9	0x3d77399b	0.06035767
10	0x3e3887ed	0.18020602
11	0xbfa84fa1	-1.3149301
12	0x3e92de49	0.28685215
13	0xbf47642b	-0.7788722
14	0xbf94cc26	-1.1624801
15	0x3fb7317d	1.4311978

conv3.op.weight f4 [32, 16, 3, 3]
0	0xbd2ef313	-0.042712282
1	0x3c92a605	0.01790143
2	0xbe9c5af1	-0.30538133
3	0xbe8f566b	-0.2799562
4	0xbd72ffa3	-0.059325825
5	0xbcb2ea2f	-0.021840183
6	0xbe2a0f55	-0.16607411
7	0x3e09232a	0.1339232
8	0xbeba5ab5	-0.3639733
9	0xbb1f311a	-0.0024290741
10	0x3ecd361f	0.40080354
11	0xbe1bf602	-0.15230563
12	0x3eb6735d	0.3563489
13	0x3e1167e7	0.14199792
14	0xbeb81646	-0.35954493
15	0x3e758c6c	0.23979348
16	0xbd1fb3c5	-0.0389898
17	0xbe21cb32	-0.15800169
18	0x3eab6cc1	0.3348141
19	0xbe882def	-0.26597545
20	0x3cdf1b17	0.027234597
21	0xbdb70828	-0.089371026
22	0x3e809473	0.25113258
23	0x3dab8cce	0.08376466
24	0x3e2b392b	0.16721027
25	0x3e197fb7	0.14990126
26	0xbe04aa78	-0.12955654
27	0xbe09e80e	-0.13467428
28	0xbea2fa9f	-0.31831834
29	0x3e51d2a9	0.20490517
30	0x3ea714a7	0.32632944
31	0x3eaf3f34	0.34227908
32	0xbe283995	-0.16428216
33	0x3d8cc951	0.068743356
34	0xbe271afc	-0.16318887
35	0xbe190dc3	-0.14946656
36	0xbe756783	-0.23965268
37	0x3e3cb6c4	0.18429095
38	0xbe57aaa5	-0.2106119
39	0x3c8560bd	0.01628148
40	0x3cc21d6d	0.023695672
41	0x3e81cb7f	0.25350568
42	0xbe9e09e5	-0.30866924
43	0xbe87e9c7	-0.26545545
44	0xbe52a3de	-0.20570323
45	0x3e889a02	0.2668
46	0xbdf246b8	-0.11829895
47	0x3ea20855	0.31646982
48	0x3e0f60ff	0.14001845
49	0x3d5a8baf	0.05335587
50	0xbc8e3873	-0.017360901
51	0xbd95d13a	-0.073152974
52	0x3d5a2ecd	0.05326729
53	0xbdee1441	-0.11624957
54	0xbd139e3e	-0.036039583
55	0x3d7016e4	0.05861558
56	0xbe829395	-0.2550322
57	0xbe55ddd9	-0.2088541
58	0x3ea476ab	0.32121786
59	0xbe98a7f7	-0.29815647
60	0xbd81b3b8	-0.06333107
61	0x3ec1c530	0.37845755
62	0x3e2e3d05	0.17015465
63	0x3c1a77c1	0.009427966
64	0xbe99499b	-0.2993897
65	0x3e4258cf	0.1897919
66	0xbe7fb4e0	-0.24971342
67	0xbdb12930	-0.08650434
68	0xbe0cc86c	-0.1374833
69	0xbd235bf9	-0.039882634
70	0x3c8cc0c7	0.017181767
71	0x3e9a2ece	0.30113834
72	0x3d5c00d3	0.053711724
73	0x3ecfe048	0.406008
74	0x3e8717e0	0.26385403
75	0xbe46f85a	-0.19430676
76	0x3e3c6d67	0.18401109
77	0xbe799946	-0.24374875
78	0xbe376be1	-0.17912246
79	0x3de4bbfb	0.11168667
80	0x3e0c7540	0.13716602
81	0x3e8a34f7	0.26993534
82	0xbd5fb416	-0.054615103
83	0x3d44eb44	0.04807593
84	0x3e542d32	0.20720366
85	0xbea58769	-0.32329872
86	0x3e94fc4e	0.29098743
87	0xbeacc6df	-0.33745477
88	0x3c694b20	0.014239103
89	0xbd89951c	-0.067178935
90	0xbe4e282a	-0.20132509
91	0x3dc58220	0.0964396
92	0x3eac6fda	0.33679086
93	0xbd8c4908	-0.06849867
94	0xbe539663	-0.20662837
95	0xbdf61f06	-0.12017636
96	0xbecb627c	-0.39723575
97	0x3e2062c0	0.1566267
98	0xbe4032a5	-0.1876932
99	0xbe8b0d1c	-0.2715844
100	0xbe47696d	-0.1947381
101	0x3e51b91f	0.20480774
102	0x3e5a5982	0.21323207
103	0x3eaf385a	0.3422268
104	0x3e0ce47c	0.13759035
105	0xbdd91b2c	-0.10600886
106	0xbdf43bfb	-0.11925503
107	0x3d741c85	0.05959751
108	0x3e8f2729	0.27959564
109	0x3e0a9e57	0.13536964
110	0xbe444803	-0.19168095
111	0xbe3f7ece	-0.18700716
112	0xbec0528c	-0.37562978
113	0x3d43e9eb	0.047830503
114	0xbe7524fe	-0.23939893
115	0xbea4dd60	-0.32200146
116	0x3ea6d13f	0.32581517
117	0xbe7496cc	-0.2388565
118	0x3cc2982a	0.023754198
119	0x3dec6a27	0.115436845
120	0x3d6c698b	0.05771784
121	0xbe8148af	-0.25250766
122	0xbe75712c	-0.23968953
123	0x3e934937	0.28766796
124	0x3d8ed84f	0.06974851
125	0x3eb381ac	0.3505987
126	0xbda1b0b4	-0.078950316
127	0x3e3baac1	0.18326856
128	0xbdc047fd	-0.09388731
129	0x3ce49f74	0.027908064
130	0xbe52e432	-0.20594862
131	0x3e06e2b1	0.13172413
132	0x3e1dd982	0.15415004
133	0x3c646bd8	0.013941728
134	0xbd8f4455	-0.06995455
135	0xbe42aef6	-0.19012055
136	0x3e929e66	0.28636473
137	0xbe92b505	-0.28653732
138	0x3e1c7b13	0.15281324
139	0xbdff3eb1	-0.12463129
140	0xbe439879	-0.19101132
141	0x3d993958	0.074816406
142	0xbe38a275	-0.18030722
143	0x3d920402	0.07129671
144	0x3d231a43	0.039819967
145	0xbe5e7544	-0.21724421
146	0x3d1a9b68	0.037745863
147	0x3da0800c	0.07836923
148	0x3ddd9189	0.10818774
149	0xbd81453e	-0.06312035
150	0xbea1c348	-0.315943
151	0xbd6d7c95	-0.05798014
152	0x3d5546c5	0.052069444
153	0xbe0a8777	-0.13528238
154	0x3df44f27	0.119291596
155	0x3e73e748	0.23818696
156	0xbe695fa2	-0.22790387
157	0xbd41140a	-0.04713825
158	0x3e3a9d5d	0.18224092
159	0x3d050007	0.03247073
160	0x3dac3917	0.084093265
161	0x3d8a8765	0.06764106
162	0xbe821143	-0.25403795
163	0x3cbb4a6f	0.022862641
164	0x3e521e3e	0.20519349
165	0x3e87fdbb	0.26560768
166	0x3e246665	0.16054685
167	0xbce66db8	-0.02812849
168	0x3e1c29b1	0.15250279
169	0xbe6e7551	-0.2328694
170	0xbea812ae	-0.3282675
171	0xbea550c4	-0.32288182
172	0x3e809fcc	0.25121915
173	0x3e1ba535	0.1519974
174	0xbe8a1fb6	-0.2697732
175	0x3e16b3bd	0.14717002
176	0x3eb4e21b	0.35328755
177	0x3ebf24b2	0.37332684
178	0x3ebeb806	0.37249774
179	0x3ecc7a06	0.39936846
180	0xbe011150	-0.1260426
181	0xbe13d379	-0.14436139
182	0x3e91c8a7	0.28473398
183	0x3e18e4d8	0.14931047
184	0xbe3614b6	-0.17781338
185	0x3ead5d0e	0.33860058
186	0x3db2896d	0.08717618
187	0x3e692420	0.22767687
188	0xbe889177	-0.2667348
189	0x3dad075e	0.08448671
190	0xbde618d4	-0.11235204
191	0x3e6a8f59	0.22906245
192	0xbdc568c5	-0.09639124
193	0x3d9c4238	0.07629818
194	0xbc764b95	-0.015032669
195	0x3deb7a6c	0.114979595
196	0xbe1cdd21	-0.15318729
197	0x3de84385	0.11341003
198	0xbe98031c	-0.29689872
199	0x3d5ab5c6	0.05339601
200	0xbe62429a	-0.22095719
201	0xbea16ff0	-0.31530714
202	0xbe6ed860	-0.23324728
203	0x3eae9adb	0.3410252
204	0x3e1fd29c	0.15607685
205	0x3eafe632	0.34355313
206	0x3e8b9311	0.2726064
207	0xbeacd1c2	-0.33753783
208	0xbe7d1b07	-0.24717341
209	0xbd959ee1	-0.07305694
210	0xbe753ef8	-0.23949802
211	0x3e4e0b95	0.20121606
212	0xbea723eb	-0.3264459
213	0xbe6a0622	-0.22853902
214	0xbebad38e	-0.36489528
215	0xbe8ed393	-0.27895793
216	0x3e75ece2	0.24016145
217	0x3e86c3ff	0.26321408
218	0x3e6bcf1c	0.23028225
219	0x3e7915c3	0.24324708
220	0x3ea4fbb6	0.3222329
221	0xbd9142ab	-0.07092794
222	0x3dd12f2c	0.102140754
223	0x3ea1f765	0.3163406
224	0x3d52637f	0.051364418
225	0x3e9dc343	0.30813035
226	0x3e186ae3	0.14884524
227	0x3e813962	0.25239092
228	0xbe1c96b5	-0.15291865
229	0x3e69433a	0.22779551
230	0x3da73523	0.08164432
231	0xbd51ea03	-0.05124856
232	0xbe64ca90	-0.22342896
233	0xbe73d9bc	-0.23813528
234	0xbe9ac51b	-0.30228505
235	0x3e7986da	0.24367848
236	0x3e80627b	0.25075135
237	0xbcd9faea	-0.026608903
238	0xbe1ddb1d	-0.15415616
239	0x3e8d7162	0.27625567
240	0x3e383aec	0.17991227
241	0x3b185c20	0.002324827
242	0xbe70e478	-0.23524654
243	0x3e8f364e	0.2797112
244	0x3e1080aa	0.14111581
245	0xbe92a637	-0.28642437
246	0x3ec3de5f	0.38255593
247	0x3ea64fbf	0.32482716
248	0xbdb96728	-0.090528786
249	0x3e40767f	0.18795203
250	0xbe1a1324	-0.15046364
251	0xbdf65419	-0.12027759
252	0x3e9060df	0.28198907
253	0x3d2b8765	0.04187717
254	0xbe491918	-0.19638479
255	0xbdc29327	-0.09500723

conv3.op.bias f4 [32]
0	0x3d2b5053	0.04182465
1	0xbdabb9fd	-0.08385084
2	0xbcb4615a	-0.022019077
3	0x3b5df252	0.0033866358
4	0xbca1a370	-0.019731253
5	0x3e10109c	0.14068836
6	0x3cfcd234	0.030861951
7	0x3d9f0ef5	0.07766525
8	0x3d4a6f4c	0.049422547
9	0x3c75cfb3	0.015003133
10	0xbd8e9dc4	-0.06963685
11	0x3d50882a	0.050911106
12	0x3d2507ba	0.04029057
13	0xbb1aeeca	-0.0023640865
14	0x3dc4cdc1	0.09609557
15	0x3dc7083b	0.09718367
16	0xbcd6a52e	-0.02620181
17	0xbb19791b	-0.0023418132
18	0x3d1585b5	0.036504466
19	0xbdc10cff	-0.09426307
20	0x3d150b15	0.03638752
21	0xbc32cbf0	-0.01091288
22	0x3d4811e3	0.048845183
23	0x3da0f371	0.07858933
24	0x3aeec508	0.0018216679
25	0x3c996210	0.018723518
26	0x3df75bcf	0.12078058
27	0x3d0ae138	0.03390619
28	0x3d5e7989	0.054315124
29	0xbda8eefb	-0.08248707
30	0x3d4dd99a	0.05025635
31	0x3db84db2	0.08999194

conv5.op.weight f4 [64, 32, 3, 3]
0	0x3ddae048	0.106873095
1	0x3d5c8869	0.05384103
2	0x3d061770	0.032737195
3	0xbd4a238f	-0.049350318
4	0xbd7a39ca	-0.06109027
5	0xbd22dc0c	-0.039760634
6	0xbb3d6d04	-0.002890409
7	0xbcd3c196	-0.025849145
8	0x3d871065	0.06594924
9	0xbd4bd7bc	-0.049766287
10	0xbd296b57	-0.041362133
11	0xbcfe5689	-0.031047123
12	0x3d5651e9	0.05232421
13	0xbd31838f	-0.043338355
14	0x3da1755e	0.07883714
15	0x3d3bcaa3	0.045847546
16	0x3c3ba537	0.0114529645
17	0x3d580e59	0.052748058
18	0x3d3d3d3f	0.046200987
19	0xbcba9dc6	-0.02278031
20	0xbd071d9f	-0.032987233
21	0x3d799c00	0.06093979
22	0x3d546643	0.051855337
23	0xbd352d7d	-0.044232834
24	0xbcea414d	-0.028595591
25	0x3d553ee2	0.052061923
26	0x3d1f8932	0.0389492
27	0x3bd8c6a5	0.006615477
28	0xbd340b1f	-0.04395592
29	0xbdaffbcd	-0.08592949
30	0xbcc4ab41	-0.024007441
31	0x3d23d2b7	0.039995875
32	0xbc528dcc	-0.01285119
33	0xbd8635d6	-0.06553237
34	0xbc426636	-0.011865189
35	0x3d9c2117	0.07623499
36	0xbd664a0c	-0.05622296
37	0xbd5db991	-0.054132048
38	0x3d522592	0.05130536
39	0x3d5233aa	0.051318802
40	0xbdcbfdb4	-0.099604994
41	0xbd6113bd	-0.054950465
42	0xbcab2a35	-0.02089415
43	0x3db1a7b6	0.086745664
44	0xbcd2dd98	-0.02574043
45	0xbc27e065	-0.010246371
46	0x3d890a48	0.06691414
47	0xbcd42790	-0.025897771
48	0xbcd7bf27	-0.026336266
49	0xbd688071	-0.056763116
50	0x3bc6c552	0.006066003
51	0x3d9a6742	0.07539226
52	0x3d24682e	0.040138416
53	0x3d87b596	0.06626432
54	0xbca7452b	-0.020418724
55	0xbc34103b	-0.010990198
56	0xbc9a8735	-0.0188633
57	0x3cfa361d	0.030543381
58	0xbb98e50d	-0.004665977
59	0xbda9379f	-0.08262562
60	0xbd33198f	-0.043725546
61	0x3c671a4d	0.014105392
62	0x3d70d8fa	0.058800675
63	0xbbabdffe	-0.005245208
64	0xbd68ed35	-0.056866843
65	0xbd953310	-0.0728513
66	0xbda98174	-0.08276644
67	0x3c88dd39	0.01670705
68	0x3d951efc	0.072813004
69	0x3cda0f96	0.02661876
70	0x3d2265fc	0.03964804
71	0x3d756c35	0.059917647
72	0x3d803e55	0.06261889
73	0x3d7c6685	0.061621208
74	0x3d406222	0.046968587
75	0x3c1b2685	0.009469633
76	0x3d24385c	0.04009281
77	0xbd4f40ca	-0.050598897
78	0xbd4a06b6	-0.049322806
79	0x3d1b8fd1	0.03797895
80	0x3c5aeb76	0.013361802
81	0xbda68dd0	-0.08132517
82	0xbd752f12	-0.059859343
83	0xbd90b7db	-0.07066318
84	0x3d5c18cc	0.053734586
85	0x3d50fc02	0.051021583
86	0xbd30c605	-0.043157596
87	0x3c845527	0.016153885
88	0xbbfda340	-0.007740408
89	0x3da5c502	0.08094217
90	0xbd849377	-0.06473439
91	0xbd3ee64e	-0.046606354
92	0xbdab24d2	-0.08356632
93	0x3d265785	0.04061081
94	0xbd18a4b7	-0.03726646
95	0x3d2d498c	0.042306468
96	0x3c53d6c0	0.012929618
97	0xbd2b6e42	-0.041853197
98	0xbce5ccc1	-0.028051736
99	0xbcb1833b	-0.02166902
100	0x3d3c4280	0.045961857
101	0xbd1fd560	-0.03902185
102	0xbbf91a93	-0.007602045
103	0xbb176ae8	-0.0023104493
104	0xbd865fb0	-0.0656122
105	0xbd4c715f	-0.049912807
106	0xbd455748	-0.04817894
107	0x3d2d5257	0.042314854
108	0xba8df8e8	-0.0010831626
109	0xbcbca76d	-0.023029054
110	0xbd8ce462	-0.06879498
111	0xbdb42f1b	-0.08798047
112	0xbd31e56c	-0.043431684
113	0xbd8318a0	-0.06401181
114	0xbd984a6f	-0.07436072
115	0xbd85d894	-0.065354496
116	0xbd1ea7fa	-0.038734414
117	0xbd8efa26	-0.06981306
118	0x3d21a996	0.03946837
119	0x3d139003	0.036026012
120	0x3ce537de	0.027980741
121	0xbd981cb7	-0.07427352
122	0x3d538c84	0.051647678
123	0x3cc2421c	0.023713164
124	0x3d6211d4	0.055192783
125	0xbc8f453a	-0.017489064
126	0x3d254e8f	0.040358122
127	0xbda6a561	-0.08137012
128	0x3cdc2298	0.026871964
129	0x3d486d23	0.048932206
130	0x3d0045d8	0.03131661
131	0xbd677916	-0.05651196
132	0xbc2843d2	-0.010270076
133	0x3bde7757	0.0067891288
134	0x3d87187e	0.065964684
135	0xbcccdace	-0.025006678
136	0x3c83bba5	0.016080687
137	0xbd59c28e	-0.053164057
138	0xbc95c24c	-0.018281125
139	0x3b920b3d	0.004456906
140	0xbd6593e6	-0.05604925
141	0xbd6af4e1	-0.05736244
142	0x3d99a371	0.07501877
143	0x3d85eb72	0.06539048
144	0xbc2e835a	-0.010651434
145	0x3d8a3eb8	0.06750244
146	0x3d6a5f7b	0.057219964
147	0xbd798945	-0.060921926
148	0xbd3b73e2	-0.04576481
149	0xbd77d93c	-0.060509905
150	0x3ccde5b3	0.025133943
151	0xbc4f6a2e	-0.012659593
152	0xbb80f182	-0.00393504
153	0x3d9d4c4a	0.076805666
154	0x3a91bf3e	0.0011119617
155	0xbd179029	-0.037002716
156	0xbd78c8d3	-0.060738396
157	0xbcf797b9	-0.030223714
158	0x3d964b47	0.07338577
159	0xbd24a337	-0.040194716
160	0x3b8d79f2	0.0043175155
161	0x3d302771	0.043006364
162	0xbd81a880	-0.06330967
163	0xbd3642ce	-0.044497304
164	0x3d471dde	0.048612468
165	0xbd1d3491	-0.03838021
166	0xbd0f208f	-0.03494316
167	0xbc7dd8e5	-0.015493606
168	0xbcade9e6	-0.021229696
169	0x3c9a9ac7	0.018872632
170	0x3ce43ffa	0.027862538
171	0xbd7eebdc	-0.06223665
172	0x3d855176	0.06509678
173	0xbdbb4ce3	-0.09145524
174	0x3aab1132	0.0013051389
175	0xbd19e595	-0.037572462
176	0xbd0cccc0	-0.034374952
177	0x3db233a8	0.08701259
178	0xbd859e5b	-0.065243445
179	0x3c4c699c	0.012476351
180	0x3cef2a97	0.029195113
181	0x3da037bc	0.078231305
182	0xbda39400	-0.07987213
183	0x3c89e492	0.016832624
184	0x3dc6cc55	0.09706942
185	0xbd9b547c	-0.075844735
186	0x3c8893e2	0.016672079
187	0xbcf8c2b4	-0.03036628
188	0x3c8901e3	0.016724532
189	0xbd9c92e5	-0.076452054
190	0x3d650b4a	0.05591897
191	0xbce619d2	-0.028088484
192	0x3d4ebd9a	0.050473787
193	0x3c9a2eca	0.018821139
194	0xbc6e93d5	-0.014561613
195	0xbcc7577e	-0.024333712
196	0xbd3d3fcc	-0.04620342
197	0xbce89bfa	-0.028394688
198	0xbd3e991a	-0.046532728
199	0xbd98e343	-0.07465222
200	0x3d56833f	0.05237126
201	0xbd67ec94	-0.056622103
202	0xbd15ce49	-0.036573682
203	0xba99cc4d	-0.001173386
204	0xbd942294	-0.07233158
205	0x3c7a9c01	0.015295983
206	0xbcb7ed58	-0.022452042
207	0xbd33a121	-0.043854836
208	0x3cc28f40	0.023749948
209	0x3d8c7e62	0.06860043
210	0x3c113ca5	0.008864556
211	0x3da2e8d9	0.079545684
212	0xbc5df81a	-0.013547922
213	0xbd2782ff	-0.040896412
214	0x3d8e58c5	0.06950525
215	0xbd80eed6	-0.06295554
216	0xbdc84c7f	-0.097802155
217	0x3bedbece	0.0072554117
218	0x3d279638	0.040914744
219	0xbd27e69a	-0.040991403
220	0x3d068310	0.032839835
221	0xbc9ab5a1	-0.018885436
222	0x3b95c1f0	0.0045702383
223	0x3bbcb27e	0.0057585826
224	0xbb9c93af	-0.0047783474
225	0xbd929600	-0.071575165
226	0x3a9a7f05	0.0011787122
227	0xbd4ca047	-0.04995754
228	0x3d20e41f	0.039280053
229	0xbbc0ba9f	-0.005881622
230	0xbd8864d9	-0.0665986
231	0xbd655d61	-0.055997256
232	0xbd02f943	-0.031975996
233	0x3d4a34d1	0.049366776
234	0xbd61b6d7	-0.05510601
235	0xbd444f55	-0.04792722
236	0xbc601371	-0.01367651
237	0xbd916aa8	-0.07100421
238	0xbcc94c6e	-0.024572577
239	0x3d85d475	0.065346636
240	0xbd059ab4	-0.03261824
241	0xbc81e01b	-0.015853932
242	0x3d30a260	0.043123603
243	0x3cb96ecb	0.022635838
244	0x3dad01c0	0.084475994
245	0xbd945e39	-0.07244534
246	0x3cf4037a	0.029786814
247	0x3b8fbac5	0.0043862783
248	0xbd2ea7cc	-0.042640492
249	0xbd030cb8	-0.03199455
250	0xbd7c94fb	-0.061665516
251	0x3d7de131	0.061982337
252	0xbb19efb6	-0.0023488826
253	0xbd73be6f	-0.059507784
254	0x3d79a77c	0.06095074
255	0x3d5ea823	0.054359566

conv5.op.bias f4 [64]
0	0x3e0ccfd2	0.13751152
1	0x3d745613	0.0596524
2	0x3db40715	0.08790413
3	0x3d83233a	0.06403203
4	0x3d866cba	0.06563707
5	0xbd3754d8	-0.044758648
6	0x3e01ae4e	0.12664148
7	0xba559514	-0.00081475195
8	0x3db13eb7	0.0865454
9	0x3d642f82	0.05570937
10	0x3dd16705	0.102247275
11	0x3de973bf	0.1139903
12	0x3cbd2239	0.023087608
13	0x3d050412	0.032474585
14	0x3dc0fc50	0.09423125
15	0x3dd76026	0.10516386
16	0x3e17b094	0.14813453
17	0x3e1ccd26	0.15312633
18	0x3e11a1c2	0.14221862
19	0x3df994ac	0.1218656
20	0x3e1e7844	0.15475565
21	0xbd2f6e0e	-0.042829566
22	0xbd270b2c	-0.04078214
23	0x3e0332af	0.12812303
24	0x3e02d9ab	0.12778346
25	0xbdf77b8a	-0.1208411
26	0x3d9bc8c5	0.07606653
27	0x3e0316a1	0.12801601
28	0x3e28c7db	0.16482489
29	0x3d530df7	0.05152699
30	0x3d5759c3	0.052575838
31	0x3db5dfe8	0.08880597
32	0xbd370490	-0.044682086
33	0x3dc6d96c	0.09709439
34	0x3e01fa5b	0.1269316
35	0x3e2b116a	0.16705862
36	0x3dec20e6	0.115297124
37	0x3e08b329	0.13349594
38	0x3dacb4e4	0.0843294
39	0xbd269dc8	-0.040677816
40	0x3d7564cc	0.05991058
41	0x3e2183a8	0.15772879
42	0x3e3c81d1	0.18408896
43	0x3e244a86	0.16044053
44	0xbb112802	-0.002214909
45	0x3e45530d	0.19269963
46	0x3e02cb40	0.12772846
47	0x3c94e036	0.018173318
48	0x3da93d82	0.08263685
49	0x3dda48e0	0.10658431
50	0xbd39547a	-0.04524658
51	0x3e7dd384	0.24787718
52	0x3dc954cf	0.09830629
53	0x3dc8d53c	0.09806296
54	0x3e5d11ad	0.21588774
55	0x3dff877a	0.12477012
56	0xbd8b1f36	-0.067930624
57	0x3dc5a6f5	0.09650985
58	0x3e3e1a24	0.1856466
59	0x3e2c64e2	0.16835359
60	0x3e05b828	0.13058531
61	0x3d0210be	0.031754248
62	0x3d9c6883	0.076371215
63	0x3c69c074	0.014267076

conv6.op.weight f4 [46, 64, 3, 3]
0	0xbc48e1c0	-0.012260854
1	0xbcff269a	-0.031146336
2	0xbe34c4ca	-0.17653194
3	0xbe6844aa	-0.22682443
4	0x3e15f846	0.1464549
5	0x3dab9bc8	0.08379322
6	0xbde6ab63	-0.11263158
7	0xbc2e219d	-0.010628131
8	0x3ddc26b7	0.10749572
9	0xbdc5762b	-0.096416794
10	0x3e7dea70	0.24796462
11	0x3dee7d2f	0.116449706
12	0xbe4e3960	-0.20139074
13	0x3db06c07	0.086143546
14	0x3e11b9c5	0.14231022
15	0xbe6806c8	-0.22658837
16	0xbd5399da	-0.051660396
17	0x3da45c71	0.08025444
18	0xbd5cba86	-0.05388882
19	0xbc69cbe7	-0.0142698055
20	0x3d853bfa	0.0650558
21	0xbeb22e7d	-0.34801093
22	0xbe99650d	-0.29959908
23	0x3e1fb732	0.15597227
24	0x3dd9d531	0.10636366
25	0xbe716cb3	-0.23576622
26	0x3e54eafb	0.20792763
27	0xbd18e5a7	-0.03732839
28	0x3e8533f4	0.260162
29	0xbe36af91	-0.17840411
30	0x3e3ed520	0.18635988
31	0x3e6132b3	0.21991996
32	0x3de7c14c	0.11316165
33	0xbe8eae71	-0.27867463
34	0xbdd37998	-0.103259265
35	0xbe9c40af	-0.305181
36	0x3de2bf61	0.11071659
37	0x3c8427e2	0.016132299
38	0x3e0497a2	0.12948468
39	0xbddaa0cb	-0.106752
40	0xbdc90be9	-0.09816725
41	0x3e81214e	0.25220722
42	0x3e344de2	0.17607835
43	0xbd5497ff	-0.051902767
44	0xbdf79d9c	-0.120906085
45	0xbdf7adc3	-0.12093689
46	0x3eaae168	0.33375096
47	0x3d0eca89	0.03486112
48	0x3dfb9269	0.12283785
49	0xbe5c3e40	-0.21508121
50	0x3e6c32f9	0.2306632
51	0xbd9f8928	-0.07789832
52	0x3e4c2eae	0.19939682
53	0xbeb170d3	-0.3465639
54	0xbe8bc5a0	-0.27299213
55	0x3dd999c9	0.10625035
56	0xbea6c3d9	-0.32571295
57	0x3ec61a9c	0.38692176
58	0x3e5502e0	0.20801878
59	0x3e99afb0	0.3001685
60	0x3d4ef2ff	0.050524708
61	0xbeb56b50	-0.35433435
62	0x3c6e5b46	0.0145481285
63	0xbe84f2c5	-0.25966468
64	0x3e83d5e2	0.25749117
65	0xbea18e0c	-0.31553686
66	0x3de3c085	0.111207046
67	0xbe1c1bc0	-0.15244961
68	0xbe57a4a7	-0.21058904
69	0x3dadec08	0.08492285
70	0xbe84ba6b	-0.25923476
71	0x3e9d1e7f	0.3068733
72	0xbe9d7b11	-0.30757955
73	0xbe0499ca	-0.12949291
74	0xbe9fde87	-0.31224462
75	0x3ec99696	0.393727
76	0x3bf87ec7	0.0075834724
77	0x3e2ecda9	0.1707064
78	0xbd9392a9	-0.072057076
79	0xbe1f7a59	-0.15574016
80	0x3e476d28	0.19475234
81	0x3df2f842	0.11863758
82	0x3d514bc2	0.05109764
83	0xbe9a677a	-0.3015707
84	0x3d90fc4f	0.07079374
85	0xbe220991	-0.15823962
86	0x3e5cc02c	0.21557683
87	0x3e3dc17e	0.18530843
88	0x3d81e288	0.063420355
89	0xbe929581	-0.28629687
90	0x3ea24979	0.3169668
91	0xbd781d88	-0.06057504
92	0xbe96917e	-0.29407877
93	0xbd76a9b3	-0.06022043
94	0x3e5fe623	0.21865134
95	0x3daf1d81	0.08550549
96	0xbe85d605	-0.26139846
97	0xbe283281	-0.16425516
98	0x3ec71ab3	0.38887557
99	0xbd8471fd	-0.06467054
100	0xbd93a058	-0.072083175
101	0xbe812cd2	-0.25229508
102	0x3e574ddc	0.21025795
103	0x3e900858	0.28131366
104	0x3dd76e1d	0.10519049
105	0x3ef5d8ea	0.48017055
106	0xbdcd340b	-0.10019692
107	0x3e889d22	0.26682383
108	0xbe4908d0	-0.19632268
109	0xbd82862f	-0.0637325
110	0x3ca06581	0.01957965
111	0xbe4ab7cc	-0.19796675
112	0xbdfb4e04	-0.1227074
113	0xbe82deba	-0.25560552
114	0x3d8cba1b	0.06871434
115	0xbe6cd79f	-0.23129128
116	0x3d2bb44c	0.04191999
117	0xbe5dbe03	-0.21654515
118	0x3e847d59	0.25876883
119	0x3e3b2f82	0.18279842
120	0x3eacf62a	0.33781558
121	0x3e2530c1	0.1613188
122	0xbe932b1e	-0.28743833
123	0xbe038fef	-0.12847875
124	0x3df20edc	0.118192405
125	0xbe9b40c3	-0.30322847
126	0x3e878702	0.2647019
127	0x3da3858a	0.07984455
128	0xbe5553ea	-0.20832792
129	0x3dece466	0.11567001
130	0x3e0404aa	0.12892404
131	0x3e53a9fe	0.20670316
132	0xbe4276ce	-0.18990633
133	0xbdf37ca3	-0.11889007
134	0xbd04e511	-0.032445017
135	0xbe16a57a	-0.14711562
136	0x3c47d9c9	0.01219792
137	0xbe655764	-0.22396618
138	0x3dc2e0ad	0.0951551
139	0x3dfdc143	0.12390377
140	0x3d9c47be	0.07630871
141	0xbe40fe94	-0.18847114
142	0xbdb39dd9	-0.087703414
143	0x3ccf433f	0.02530062
144	0xbe9707e9	-0.29498222
145	0x3e9d6db8	0.3074777
146	0xbea3d73e	-0.32000154
147	0x3e845bed	0.25851384
148	0xbd9a7eec	-0.0754374
149	0x3e935148	0.2877295
150	0x3e78d65b	0.2430052
151	0x3d00b4a5	0.031422276
152	0xbce9b198	-0.028527066
153	0x3e1fcd2e	0.15605614
154	0x3e4cc63b	0.19997494
155	0xbe9a4b20	-0.3013544
156	0xbe6dc7e3	-0.23220782
157	0x3ea0e2d3	0.31423053
158	0xbcf73c12	-0.030180011
159	0xbe977ddd	-0.29588214
160	0xbe0b234c	-0.13587683
161	0xbc9dda9a	-0.019269276
162	0xbea64c50	-0.32480097
163	0xbe525ec4	-0.20543963
164	0x3d78c406	0.060733818
165	0xbe96899d	-0.29401866
166	0xbdc742b5	-0.0972952
167	0x3dcad6f3	0.099042796
168	0x3ea82e18	0.32847667
169	0xbdf5242b	-0.11969789
170	0x3eb0146a	0.34390575
171	0xbe27b2d1	-0.16376807
172	0x3e4aea03	0.19815831
173	0x3e89c563	0.26908407
174	0xbe81e204	-0.2536775
175	0x3e9a9a21	0.30195716
176	0xbe530100	-0.2060585
177	0xbeb11b5f	-0.34591195
178	0xbdd8b9fb	-0.10582348
179	0xbd22f790	-0.039786875
180	0x3c305eee	0.0107648205
181	0xbe3bb0c7	-0.18329154
182	0xbec0692c	-0.3758024
183	0x3dad37d6	0.084579155
184	0xbe8b033c	-0.27150905
185	0xbd48375a	-0.048880912
186	0x3d90d494	0.07071796
187	0xbc868534	-0.016420938
188	0xbd575989	-0.05257562
189	0xbe51ea11	-0.20499445
190	0x3ea53c18	0.3227241
191	0xbe6daee9	-0.23211254
192	0x3d623201	0.05522347
193	0x3e35b9a5	0.17746599
194	0xbe071302	-0.13190845
195	0xbe0ddd86	-0.13854036
196	0x3ea667f2	0.3250118
197	0xbe92dac7	-0.2868254
198	0xbde489aa	-0.1115907
199	0xbe73fd44	-0.23827082
200	0xbe6ebeb5	-0.23314936
201	0x3ed905ff	0.42387387
202	0xbe2b0447	-0.1670085
203	0x3e62b2b5	0.22138484
204	0xbe181f96	-0.14855799
205	0x3e959f02	0.29222876
206	0xbea2dad9	-0.31807593
207	0xbdea95fe	-0.1145439
208	0x3e672f6f	0.22576688
209	0xbea0afde	-0.31384176
210	0x3bc2f965	0.0059501403
211	0x3d5fedfa	0.05467031
212	0x3e2438b0	0.1603725
213	0xbe15efb5	-0.14642222
214	0xbe3d898a	-0.18509498
215	0x3e0d169a	0.13778153
216	0x3e41479b	0.18874972
217	0xbe45b1f0	-0.19306159
218	0x3d096959	0.033547733
219	0xbe98c1ba	-0.29835302
220	0x3e1ac76d	0.15115137
221	0x3bce1550	0.0062891617
222	0xbe5e1db8	-0.21691024
223	0x3e9e64e5	0.3093635
224	0x3e243073	0.16034107
225	0xbe33a56e	-0.17543575
226	0x3e01da61	0.12680961
227	0xbe41c1be	-0.18921563
228	0x3eb84351	0.35988858
229	0xbe826bdf	-0.25472924
230	0x3e8f9a4d	0.2804741
231	0x3e87906a	0.26477367
232	0xbd0f6b99	-0.035014722
233	0x3e8ba59a	0.2727478
234	0xbdbd6647	-0.092480235
235	0xbd6efe34	-0.058347896
236	0x3dbf03ee	0.093269214
237	0x3e5caadd	0.21549554
238	0x3e89389c	0.26801002
239	0xbead1ef9	-0.33812693
240	0x3e1a2dda	0.15056553
241	0x3e752b90	0.23942399
242	0xbdce3850	-0.100693345
243	0xbc90bf6b	-0.0176694
244	0xbd975665	-0.07389525
245	0xbcd653ac	-0.026162945
246	0xbd3fec0d	-0.046855975
247	0xbebce5de	-0.36894125
248	0xbe79319c	-0.2433533
249	0x3e6eea9e	0.23331687
250	0x3e8dad97	0.276715
251	0xbcc094c9	-0.023508446
252	0x3e48f31e	0.19623992
253	0xbe86fd7e	-0.26365274
254	0x3e689fbd	0.22717185
255	0x3e498aa4	0.19681793

conv6.op.bias f4 [46]
0	0x3d039407	0.03212359
1	0xbbef25f2	-0.0072982246
2	0x3e424f9d	0.18975683
3	0xbd9b6f0d	-0.07589541
4	0xbd367ebe	-0.044554465
5	0x3e605797	0.21908413
6	0xbd6e4160	-0.058167815
7	0x3e3d0746	0.18459806
8	0xbdf9ace9	-0.12191183
9	0x3e9868bd	0.2976741
10	0xbccd901b	-0.025093129
11	0x3e926fe1	0.28600982
12	0x3d3eca06	0.046579383
13	0xbe70823b	-0.23487179
14	0x3e24a4a1	0.16078426
15	0x3ac0f765	0.0014722167
16	0xbeae5f3d	-0.34057036
17	0x3e853cde	0.26023
18	0x3e540a9c	0.20707172
19	0x3eccf430	0.4003005
20	0x3d664b49	0.05622414
21	0x3ea2d995	0.31806627
22	0xbdc3f5ca	-0.09568365
23	0x3ecc4ab9	0.3990076
24	0x3d95af19	0.07308788
25	0x3ee939d5	0.45551935
26	0xbd98a388	-0.07453066
27	0xbe4c0922	-0.19925359
28	0x3e12dd36	0.14342198
29	0x3d392ae9	0.045206938
30	0x3ecebe58	0.40379596
31	0x3e0380ea	0.12842146
32	0x3e130c26	0.14360103
33	0xbb9f0832	-0.004853272
34	0x3ea33ff9	0.31884745
35	0xbe5d3b9d	-0.21604772
36	0x3e8f0127	0.27930567
37	0xbe09c468	-0.1345383
38	0x3eb7fbeb	0.35934386
39	0x3e186875	0.14883597
40	0xbe5c7d37	-0.2153214
41	0x3dcca558	0.09992474
42	0xbdd92675	-0.10603038
43	0x3e10e108	0.14148343
44	0x3d9eb007	0.07748418
45	0xbd95b607	-0.073101096

fc.op.weight f4 [3, 966]
0	0xbd0156bb	-0.031576853
1	0x3d3ac84e	0.04560118
2	0x3d424bf8	0.04743573
3	0xbb23f7d9	-0.0025019555
4	0x3d0ec440	0.034855127
5	0xbd138c74	-0.03602262
6	0xbb9651fa	-0.004587409
7	0xbd1ad3e7	-0.037799742
8	0x3cecd033	0.02890787
9	0x3c6ebebd	0.014571843
10	0xbd01f0a4	-0.031723633
11	0xbd2b3759	-0.04180083
12	0xbccfa15b	-0.025345495
13	0x3d025fd8	0.031829685
14	0x3c9f361c	0.019434981
15	0xbc6dc82c	-0.014513057
16	0x3cc01f40	0.023452401
17	0x3d27724b	0.040880483
18	0x3c8d6fad	0.017265165
19	0x3cb27af5	0.021787146
20	0x3c904ee1	0.017615737
21	0xbd5fb6ff	-0.054617878
22	0xbcb1e28b	-0.02171447
23	0x3d0a3f1b	0.03375159
24	0xbd5ceaee	-0.053934984
25	0xbd545b8d	-0.051845122
26	0xbcf38949	-0.029728549
27	0x3ce5ec4a	0.028066773
28	0x3be2cec1	0.0069216196
29	0x3d187215	0.037218172
30	0xbcdff2ad	-0.027337397
31	0x3bba916e	0.005693606
32	0x3d6489b1	0.055795375
33	0x3d266f15	0.04063328
34	0x3cb731f7	0.022362692
35	0x3d10974b	0.035300534
36	0xbd0fccef	-0.03510755
37	0x3c809dbb	0.015700212
38	0xbca4553a	-0.02006017
39	0xbd130c85	-0.03590061
40	0x3bb08abf	0.0053876336
41	0x3bc3f20b	0.0059797815
42	0x3ca49b83	0.020093685
43	0xbcee3647	-0.029078616
44	0xbac06d06	-0.0014680929
45	0x3ce018b6	0.027355533
46	0xbd2d84b0	-0.04236287
47	0xbc498df3	-0.01230191
48	0xbd002c31	-0.031292144
49	0xbd41290e	-0.047158293
50	0xbc01a83d	-0.007913646
51	0xbd7f5b2e	-0.062342815
52	0xbc5c2e36	-0.013438752
53	0xbc09726d	-0.008389098
54	0xbc0786ed	-0.008271915
55	0x3d153d70	0.036435544
56	0x3cf1dc67	0.029524041
57	0x3d0c1d55	0.03420766
58	0x3c2c29a1	0.010507972
59	0x3cf6448e	0.030061986
60	0x3d334822	0.043769963
61	0xbc9b7ce2	-0.018980447
62	0x3c64c3d0	0.013962701
63	0x3cbd64cb	0.02311935
64	0xbd5a020f	-0.05322462
65	0x3c6076b0	0.013700172
66	0x3c0a7c38	0.008452468
67	0x3d4cb1c2	0.04997421
68	0x3d0a390e	0.033745818
69	0xbc06f582	-0.008237245
70	0x3c4dd5ea	0.012563208
71	0xbce4af6a	-0.027915675
72	0xbca6685e	-0.020313438
73	0x3c3bb6cb	0.011457155
74	0x3c1be172	0.0095142
75	0x3cae61b9	0.021286832
76	0x3bb51656	0.0055263443
77	0x3c6266c5	0.0138184475
78	0xbc1e2032	-0.009651231
79	0xbc8fcdf2	-0.017554257
80	0x3d12ff27	0.035887863
81	0xbce09c0e	-0.027418163
82	0x3caa645d	0.02079981
83	0x3bac86f4	0.005265111
84	0x3ce4bd10	0.027922183
85	0xbbf723d0	-0.007542111
86	0x3d1af30a	0.037829436
87	0x3d20a009	0.03921512
88	0xbb97c555	-0.004631678
89	0x3d1d1311	0.03834826
90	0xbce13f02	-0.027495865
91	0x3d0e57f7	0.03475186
92	0xbca3919e	-0.019966897
93	0x3d1fea7a	0.039041974
94	0xbb6f4203	-0.0036507852
95	0x3d0b24fc	0.033970818
96	0x3d154b2a	0.036448635
97	0x3cbf0708	0.023318782
98	0x3d3b4e9b	0.04572926
99	0x3c16fc79	0.009215468
100	0x3d76ee3b	0.060285788
101	0xbbecbe17	-0.007224809
102	0x3be123b1	0.00687071
103	0x3c66a9fd	0.014078614
104	0xbc53f5f4	-0.012937058
105	0xbcf41f1c	-0.02979999
106	0xbc89a447	-0.016801966
107	0x3c6485ee	0.013947947
108	0xbce814a1	-0.02833015
109	0xbd41c778	-0.04730937
110	0x3c62e3c3	0.013848248
111	0x3d6c70ad	0.057724643
112	0x3af02c55	0.0018323759
113	0xbb722304	-0.003694714
114	0xbd1ce862	-0.038307555
115	0xbb993f3d	-0.004676728
116	0xbcca435f	-0.024690328
117	0x3ceaa4e4	0.02864308
118	0xbc9d58be	-0.019207355
119	0xbc1001f3	-0.008789527
120	0x3cf34ecf	0.029700665
121	0xbc9e12cb	-0.01929607
122	0xbbf8cbde	-0.0075926622
123	0x3c6f46ed	0.014604312
124	0x3d00c148	0.031434327
125	0x3d67d856	0.0566028
126	0xbbb9f65b	-0.00567512
127	0x3c24a9a4	0.010050211
128	0x3d1f53a1	0.038898114
129	0xbd0b18a9	-0.033959065
130	0xbc08ad69	-0.008342125
131	0x3d78e0f1	0.060761396
132	0xbbe5a645	-0.0070083463
133	0x3d07b4cc	0.033131406
134	0xbc53a99f	-0.012918859
135	0xbcb0e92e	-0.021595564
136	0xbc3a59e9	-0.011373975
137	0xbc951791	-0.018199714
138	0xbd2b89d0	-0.041879475
139	0x3cadb3ea	0.021203954
140	0x3c927238	0.01787673
141	0xbd2fb69d	-0.042898763
142	0x3d304fe5	0.043044943
143	0xbc8e6766	-0.017383289
144	0x3d1e043e	0.038578264
145	0x3c818817	0.015811963
146	0x3cdc4784	0.02688957
147	0xbc1e6646	-0.009667939
148	0x3d0547cc	0.032539174
149	0x3cb62f43	0.022239333
150	0x3c13acf5	0.009013404
151	0x3d528cde	0.051403873
152	0xbce00fb0	-0.02735123
153	0x3c5ca909	0.0134680355
154	0x3d1f1ce0	0.038845897
155	0xbc80f91f	-0.01574379
156	0x3ad1bc11	0.0016001483
157	0xbd11c6f2	-0.03559012
158	0xbce518f8	-0.027966008
159	0xbd2a24f4	-0.041539147
160	0x3b8c5040	0.0042820275
161	0xbd05b366	-0.03264179
162	0x3c71058b	0.014710794
163	0x3d26f5c9	0.040761743
164	0x3d2fcc3f	0.042919394
165	0xbba6fcca	-0.005096053
166	0xbcb1dbee	-0.021711316
167	0xbcba53be	-0.02274501
168	0xbd034c43	-0.03205515
169	0x3c9082ac	0.017640434
170	0xbcd01512	-0.025400672
171	0xbb858115	-0.0040742257
172	0x3d7359c5	0.059411783
173	0x3c9798e1	0.018505516
174	0xbc863677	-0.016383393
175	0xbc03af7e	-0.008037446
176	0x3bf0f015	0.0073528388
177	0x3d28fd7a	0.04125736
178	0xbbbf5085	-0.005838456
179	0xbcbe2fbc	-0.02321612
180	0xbcc25ffc	-0.02372741
181	0xbcc61de8	-0.024184182
182	0xbbd441a1	-0.00647755
183	0x3d2a43e1	0.04156864
184	0x3cb4cfe4	0.022071786
185	0xbcf35047	-0.029701365
186	0x3c94067b	0.018069496
187	0xbb5d73ce	-0.0033790949
188	0x3d0cb570	0.03435272
189	0xbd1f5c17	-0.038906183
190	0xbcf40365	-0.029786775
191	0x3c989e14	0.018630065
192	0x3ca1e3ec	0.019762002
193	0x3bab6c08	0.005231384
194	0xbcc91da8	-0.024550274
195	0x3b0a2012	0.0021076244
196	0xbc958eee	-0.01825663
197	0x3d135949	0.03597382
198	0xbadaea2f	-0.0016701872
199	0x3d234abc	0.039866194
200	0xbd0c5ad3	-0.034266304
201	0xbce3525d	-0.027749235
202	0xbb2ca0d2	-0.0026340974
203	0x3d3db6b5	0.04631682
204	0x3c49f116	0.012325546
205	0x3d1c2c20	0.03812802
206	0xbb53ec31	-0.0032336826
207	0x3d1c862b	0.03821389
208	0x3ca92c12	0.020650897
209	0x3cd8f2bc	0.026482932
210	0xbd280c3c	-0.041027293
211	0xbc6336e6	-0.013868069
212	0xbb1fbb7b	-0.0024373222
213	0x3d38d0db	0.045121055
214	0xbc9eed5b	-0.01940029
215	0xbce588d2	-0.028019343
216	0x3c6e41a2	0.014542015
217	0xbc3eb292	-0.011639254
218	0xbd2934f8	-0.04131028
219	0x3c99a73c	0.018756501
220	0x3c6fb924	0.014631543
221	0xbc183d2a	-0.009291926
222	0x3ccee158	0.025253937
223	0x3d05370d	0.032523204
224	0x3cb41434	0.02198229
225	0x3bf41a9e	0.007449462
226	0x3c0045dc	0.007829156
227	0x3cc627cb	0.024188897
228	0x3d3f2660	0.046667457
229	0xbc5a55cf	-0.013326122
230	0x3c77d94e	0.015127493
231	0xbc24d329	-0.01006011
232	0xbb8413a4	-0.0040306617
233	0x3d11161f	0.035421487
234	0x3c301be3	0.010748836
235	0xbc49161f	-0.0122733405
236	0xbcbee46e	-0.023302283
237	0x3d047042	0.03233362
238	0x3c3f3a7e	0.0116716605
239	0xbd1a48e3	-0.037667166
240	0xbb05d67a	-0.0020422027
241	0xbc06ede6	-0.00823543
242	0x3b64cecf	0.0034913307
243	0x3c88b82a	0.016689379
244	0xbc2baef4	-0.010478724
245	0x3ce2f19d	0.0277031
246	0x3c852198	0.01625137
247	0x3d5e2973	0.054238748
248	0x3d638ef6	0.05555626
249	0x39d62251	0.00040842828
250	0x3cd7940a	0.026315708
251	0x3cd13d8d	0.025542045
252	0xbce82bb6	-0.028341155
253	0x3c0901d3	0.008362251
254	0x3ada5266	0.0016656637
255	0x3cb78703	0.022403246

fc.op.bias f4 [3]
0	0x3ced859b	0.028994372
1	0xba818e9b	-0.0009884419
2	0x3c50243f	0.012703954

exp_avg f4 [16, 1, 3, 3]
0	0xbc307d3c	-0.010772046
1	0xbc18b49b	-0.009320403
2	0xbc32fdb5	-0.010924746
3	0xbc4a4f44	-0.012348
4	0xbc3756e5	-0.011190151
5	0xbc34c30f	-0.011032834
6	0xbc2c57f1	-0.010519014
7	0xbc2e874e	-0.010652376
8	0xbc18ae86	-0.009318953
9	0x3c54caf6	0.012987843
10	0x3cb8a636	0.022540193
11	0x3cc51d3e	0.024061795
12	0x3cb41139	0.021980869
13	0x3cbcc19a	0.023041535
14	0x3cc8eb73	0.024526333
15	0x3cbcdb58	0.02305381
16	0x3cd03804	0.025417335
17	0x3cc952e1	0.024575653
18	0x3c93528e	0.017983701
19	0x3c911424	0.0177098
20	0x3c96c465	0.018404195
21	0x3ca8012c	0.020508371
22	0x3ca1cb6f	0.019750325
23	0x3c6b039c	0.014344122
24	0x3c941d15	0.018080274
25	0x3c87b5c7	0.01656617
26	0x3c892019	0.016738938
27	0xbd3e36fc	-0.046439156
28	0xbd4003e1	-0.0468787
29	0xbd37df0e	-0.044890456
30	0xbd41e5ae	-0.04733818
31	0xbd3ad797	-0.04561576
32	0xbd40e4de	-0.047093265
33	0xbd3f0996	-0.04664
34	0xbd3ff740	-0.046866655
35	0xbd419d4a	-0.047269143
36	0xbc2de714	-0.010614175
37	0xbc3856b0	-0.011251137
38	0xbc3bd907	-0.011465318
39	0xbc686740	-0.014184773
40	0xbc50a7ff	-0.012735366
41	0xbc2665ea	-0.010156134
42	0xbc2a9678	-0.010411851
43	0xbc13429a	-0.008988047
44	0xbc1452d2	-0.009052949
45	0x3c437932	0.011930751
46	0x3c37985f	0.011205762
47	0x3c1b59be	0.009481845
48	0x3c6a52c6	0.014301961
49	0x3c40dc0d	0.011771214
50	0x3c4e6dfd	0.012599465
51	0x3c31596e	0.010824544
52	0x3c14a99e	0.009073643
53	0x3c401e62	0.011725994
54	0xbc1e75e8	-0.009671666
55	0xbacc7fcb	-0.001560205
56	0x39a267e0	0.0003097644
57	0xb99e3ba6	-0.0003018055
58	0x3a1c0c50	0.00059527624
59	0xb81f4dfe	-3.798119e-05
60	0xbb15e3c3	-0.0022871352
61	0xba5df7f0	-0.00084674265
62	0x39fefeb3	0.0004863642
63	0x3bfbee83	0.007688345
64	0x3c01c067	0.007919407
65	0x3c432829	0.01191143
66	0x3b9d1593	0.0047938316
67	0x3c2fcdff	0.010730266
68	0x3c2d5256	0.010578712
69	0x3c287775	0.010282387
70	0x3c2d38f5	0.010572662
71	0x3c33e203	0.010979178
72	0xbc9ba54f	-0.018999724
73	0xbcb219d7	-0.021740837
74	0xbcd03584	-0.025416143
75	0xbcb40abd	-0.021977777
76	0xbcc33e23	-0.02383334
77	0xbcb5acbe	-0.022177096
78	0xbcb9cc81	-0.022680523
79	0xbcbc0d66	-0.022955608
80	0xbcb8eed3	-0.022574818
81	0xbc3aed85	-0.011409168
82	0xbc1ca567	-0.009560919
83	0xbbdba195	-0.0067026117
84	0xbc02d87f	-0.007986187
85	0xbbbe062c	-0.0057990756
86	0xbb63e41c	-0.0034773415
87	0xbbfde429	-0.007748146
88	0xbbb4433d	-0.0055011795
89	0xbb62f7d2	-0.0034632576
90	0xbca13d36	-0.019682508
91	0xbcac02bf	-0.020997403
92	0xbc9f2de7	-0.019431068
93	0xbca67166	-0.020317744
94	0xbc9e2260	-0.0193035
95	0xbca035bb	-0.01955687
96	0xbc8d64e2	-0.017260019
97	0xbc9b436c	-0.018953048
98	0xbca2893c	-0.01984083
99	0xbcbad8d6	-0.022808474
100	0xbccb1c9e	-0.02479392
101	0xbcbdabd0	-0.023153216
102	0xbcbeb259	-0.023278402
103	0xbcae82d9	-0.021302627
104	0xbcb15bb3	-0.02165017
105	0xbca45462	-0.020059768
106	0xbcb22149	-0.021744387
107	0xbcb2c911	-0.021824392
108	0xbd31a376	-0.04336878
109	0xbd2a0b10	-0.041514456
110	0xbd2c084a	-0.042000093
111	0xbd39bd6e	-0.04534667
112	0xbd31f583	-0.04344703
113	0xbd327d93	-0.04357679
114	0xbd2f7f2c	-0.04284589
115	0xbd2b4d36	-0.04182168
116	0xbd2dca7f	-0.042429443
117	0xbd779d9f	-0.060453054
118	0xbd621e34	-0.055204585
119	0xbd52ab28	-0.05143276
120	0xbd5ea503	-0.054356586
121	0xbd4ed756	-0.05049833
122	0xbd48d28c	-0.04902892
123	0xbd5a3fdc	-0.053283557
124	0xbd4bc70f	-0.049750384
125	0xbd465939	-0.048424933
126	0xbd0a3153	-0.033738445
127	0xbd08608b	-0.033295196
128	0xbd0a5dae	-0.033780746
129	0xbd06851a	-0.03284178
130	0xbd0c61c7	-0.034272935
131	0xbd19c137	-0.03753778
132	0xbd07a778	-0.033118695
133	0xbd139cd9	-0.036038253
134	0xbd1d1af4	-0.038355783
135	0x3b8c7b4f	0.0042871605
136	0x3b0e71db	0.0021735344
137	0x391bc251	0.0001485434
138	0x3babe9ce	0.0052463776
139	0xb926412f	-0.00015855276
140	0x3ab8566f	0.0014063845
141	0x3bcbb516	0.0062166555
142	0x3aa121f9	0.001229345
143	0x3b383a19	0.00281108

exp_avg_sq f4 [16, 1, 3, 3]
0	0x3c7c5296	0.015400549
1	0x3c7d1627	0.015447176
2	0x3c800d14	0.015631236
3	0x3c8028f3	0.015644526
4	0x3c8011eb	0.015633544
5	0x3c7efbca	0.015562961
6	0x3c7dea3e	0.015497742
7	0x3c7dfe79	0.015502566
8	0x3c808862	0.015690032
9	0x3c92e3fe	0.01793098
10	0x3ca4318d	0.020043159
11	0x3ca619fe	0.020276066
12	0x3ca6671e	0.020312842
13	0x3ca6b431	0.020349594
14	0x3ca4f4ee	0.020136323
15	0x3ca4dfd6	0.020126265
16	0x3ca27ed5	0.019835869
17	0x3ca066fd	0.019580359
18	0x3cd2bbc5	0.025724301
19	0x3cd3de5f	0.02586287
20	0x3cd58a76	0.026067
21	0x3cc8f812	0.024532352
22	0x3cd3d64e	0.025859024
23	0x3cd7a648	0.026324406
24	0x3cd6247f	0.02614045
25	0x3cd7a8c3	0.026325589
26	0x3cd74f45	0.026282916
27	0x3da303cc	0.079597086
28	0x3da3164a	0.07963236
29	0x3da3afaa	0.0799249
30	0x3da2eb74	0.07955065
31	0x3da40b2c	0.08009943
32	0x3da3087d	0.079606034
33	0x3da3024e	0.07959424
34	0x3da31b80	0.079642296
35	0x3da32861	0.07966686
36	0x3c89d8eb	0.016827067
37	0x3c8b644a	0.017015595
38	0x3c87764d	0.016535902
39	0x3c8dec73	0.017324662
40	0x3c895477	0.016763909
41	0x3c8676cf	0.016414074
42	0x3c87c24d	0.016572142
43	0x3c85b84d	0.016323233
44	0x3c8532a3	0.016259497
45	0x3a99597d	0.0011699643
46	0x3a979366	0.0011564314
47	0x3a972766	0.0011532127
48	0x3a9a917c	0.0011792625
49	0x3a9b400b	0.0011844648
50	0x3a9ad25d	0.0011811961
51	0x3a98dd29	0.001166259
52	0x3a9ab506	0.0011803217
53	0x3a9b0ef3	0.0011830017
54	0x3c4f4523	0.012650761
55	0x3c6020af	0.013679667
56	0x3c61c142	0.013778986
57	0x3c614776	0.013749948
58	0x3c60fd0f	0.013732209
59	0x3c60367c	0.013684865
60	0x3c5a5b82	0.013327481
61	0x3c5819f8	0.013189785
62	0x3c5fb623	0.013654265
63	0x3a6c1937	0.0009006443
64	0x3a6b095f	0.0008965935
65	0x3a825560	0.0009943657
66	0x3a76611e	0.0009398627
67	0x3a7c1e5e	0.0009617562
68	0x3a7f0bba	0.00097292254
69	0x3a759e57	0.0009369603
70	0x3a8b349b	0.0010620536
71	0x3a908282	0.0011025222
72	0x3c28e776	0.010309091
73	0x3c27a991	0.010233299
74	0x3c274d17	0.010211251
75	0x3c287b9e	0.010283379
76	0x3c282039	0.010261589
77	0x3c298350	0.010346249
78	0x3c285e4b	0.010276387
79	0x3c29c517	0.010361931
80	0x3c2a320e	0.0103879105
81	0x3c8d67da	0.017261434
82	0x3c8cf940	0.017208695
83	0x3c8c9807	0.017162336
84	0x3c8b003a	0.016967881
85	0x3c8ba9c3	0.017048722
86	0x3c8ae930	0.016956896
87	0x3c8bdba3	0.017072504
88	0x3c8a8341	0.01690829
89	0x3c8a4459	0.016878294
90	0x3d0330b9	0.032028887
91	0x3d048737	0.032355513
92	0x3d051350	0.03248912
93	0x3d03f594	0.032216623
94	0x3d06456a	0.032781042
95	0x3d06bbfd	0.032894123
96	0x3d05571d	0.03255378
97	0x3d062917	0.03275403
98	0x3d06d66e	0.03291934
99	0x3c2d2ac6	0.01056928
100	0x3c2c4094	0.0105134435
101	0x3c2703c1	0.010193766
102	0x3c29c6cb	0.010362337
103	0x3c268dfe	0.0101656895
104	0x3c24aa99	0.010050439
105	0x3c263f5a	0.01014694
106	0x3c247850	0.01003845
107	0x3c2463bc	0.010033544
108	0x3d15e199	0.0365921
109	0x3d14e029	0.03634659
110	0x3d160d4c	0.036633775
111	0x3d16cae0	0.03681457
112	0x3d1630a9	0.0366675
113	0x3d16490c	0.036690757
114	0x3d15bd2e	0.03655737
115	0x3d16a24f	0.036775883
116	0x3d16e18d	0.036836196
117	0x3d50e7ec	0.051002428
118	0x3d505f44	0.050872102
119	0x3d50d30d	0.050982524
120	0x3d4c0993	0.04981382
121	0x3d4eded9	0.050505493
122	0x3d5072a5	0.050890584
123	0x3d4d93ea	0.05018989
124	0x3d509b4a	0.050929345
125	0x3d512f87	0.051070716
126	0x3d29a71f	0.041419145
127	0x3d2a6bff	0.0416069
128	0x3d2aa255	0.04165872
129	0x3d2a5f09	0.04159454
130	0x3d2a3a69	0.04155961
131	0x3d2b391e	0.041802518
132	0x3d2a73c8	0.041614324
133	0x3d2b57a2	0.04183162
134	0x3d2cdd7f	0.042203423
135	0x3af54944	0.0018713851
136	0x3aebabec	0.0017980314
137	0x3aeb5180	0.0017953366
138	0x3ada20fc	0.001664191
139	0x3ad50f50	0.0016255174
140	0x3ae20e62	0.0017246718
141	0x3addca72	0.0016921295
142	0x3ae082ec	0.0017128862
143	0x3af2e0a1	0.0018530079

exp_avg f4 [16]
0	0x3c451d25	0.012030874
1	0xbcb72a5d	-0.022359068
2	0xbc887121	-0.016655507
3	0x3d4521eb	0.04812805
4	0x3c11de6b	0.008903126
5	0xbc488084	-0.012237672
6	0xba35d37a	-0.00069361145
7	0xbc2a8792	-0.010408299
8	0x3cad3128	0.021141604
9	0x3b91f90a	0.0044547366
10	0x3ca31cea	0.019911248
11	0x3cb54582	0.02212787
12	0x3d2f1bdb	0.042751174
13	0x3d4eb6ee	0.050467424
14	0x3d0d14ff	0.03444385
15	0xbaf3fe16	-0.0018615152

exp_avg_sq f4 [16]
0	0x3c81e111	0.01585439
1	0x3ca7db44	0.020490296
2	0x3cdc2515	0.02687315
3	0x3da37a30	0.0798229
4	0x3c850e61	0.016242208
5	0x3a9e9424	0.0012098593
6	0x3c63763a	0.013883168
7	0x3a982ba3	0.0011609684
8	0x3c2ac8d7	0.0104238605
9	0x3c89ac81	0.01680589
10	0x3d076c9e	0.03306257
11	0x3c246358	0.010033451
12	0x3d17456a	0.036931433
13	0x3d51a87d	0.051186074
14	0x3d2ac500	0.04169178
15	0x3b012ad5	0.0019709368

exp_avg f4 [16]
0	0x00000004	6e-45
1	0x00000004	6e-45
2	0x00000004	6e-45
3	0x80000004	-6e-45
4	0x80000004	-6e-45
5	0x80000004	-6e-45
6	0x80000004	-6e-45
7	0x80000004	-6e-45
8	0x00000004	6e-45
9	0x80000004	-6e-45
10	0x80000004	-6e-45
11	0x00000004	6e-45
12	0x80000004	-6e-45
13	0x80000004	-6e-45
14	0x80000004	-6e-45
15	0x80000004	-6e-45

exp_avg_sq f4 [16]
0	0x34fbe86f	4.692151e-07
1	0x35589076	8.067649e-07
2	0x3606bab2	2.0076227e-06
3	0x3433c08c	1.6740722e-07
4	0x35a28e55	1.2111365e-06
5	0x34de8159	4.1444835e-07
6	0x351adc55	5.7690096e-07
7	0x358f6752	1.06844e-06
8	0x355eec12	8.304497e-07
9	0x35c59524	1.4721049e-06
10	0x35c2447d	1.4474059e-06
11	0x349cba40	2.919278e-07
12	0x357dceec	9.4550956e-07
13	0x36307ce4	2.629874e-06
14	0x353bc59c	6.995049e-07
15	0x34f24533	4.5126362e-07

exp_avg f4 [16]
0	0x80000004	-6e-45
1	0x00000004	6e-45
2	0x80000004	-6e-45
3	0x00000004	6e-45
4	0x80000004	-6e-45
5	0x80000004	-6e-45
6	0x00000004	6e-45
7	0x80000004	-6e-45
8	0x80000004	-6e-45
9	0x80000004	-6e-45
10	0x00000004	6e-45
11	0x00000004	6e-45
12	0x80000004	-6e-45
13	0x00000004	6e-45
14	0x00000004	6e-45
15	0x80000004	-6e-45

exp_avg_sq f4 [16]
0	0x3490924e	2.692854e-07
1	0x343d058b	1.7604013e-07
2	0x3646835b	2.9580758e-06
3	0x3655f735	3.1883367e-06
4	0x35082cfb	5.0729403e-07
5	0x34c4018b	3.6508968e-07
6	0x342a9ea6	1.58902e-07
7	0x3554dd8e	7.929856e-07
8	0x369e8e67	4.7253448e-06
9	0x34bd1487	3.521893e-07
10	0x36630dc3	3.3833646e-06
11	0x347a003d	2.3283151e-07
12	0x36dbe1b9	6.552986e-06
13	0x35350f32	6.7449866e-07
14	0x35c14787	1.4400438e-06
15	0x350a34b2	5.148569e-07
