leftandright/KWSCNN 6, 32/checkpoint.pth.tar (torch, 909385 bytes, 90 tensors)

conv1.op.weight f4 [8, 1, 3, 3]
000000 62 0a 4b 3b 1f 28 4b 3e 97 53 63 be 26 9e 80 be
       0.003098153 0.19839524 -0.22199856 -0.25120658
000010 5c b4 f8 bd 23 0c d0 3d 78 fd 89 bb 4a 52 95 3e
       -0.12143776 0.10158565 -0.004211124 0.29164344
000020 78 cb 5c 3c b2 17 a7 3d 3e c4 c9 bd 82 13 62 bd
       0.013476245 0.081588164 -0.09851883 -0.055194385
000030 39 41 b2 be 44 33 76 be fe 72 06 be 89 33 ed 3c
       -0.34815386 -0.24042994 -0.13129804 0.028955238
000040 f6 97 06 3e 9c a4 39 3e 6d f0 85 be 62 67 2e be
       0.13143906 0.181292 -0.26159993 -0.17031625
000050 74 f6 f6 3d 1b 3b 84 3e 93 29 c5 bd 73 73 70 3e
       0.12058726 0.25826344 -0.0962707 0.2348154
000060 d2 dd 8c bd fb 0f 85 3d f1 d3 93 3e d6 02 bb be
       -0.06878246 0.06497189 0.28872636 -0.365256
000070 2c 2a 8a be 8c 68 ac bd 68 1b fc bd ce c2 91 3e
       -0.269853 -0.08418378 -0.12309915 0.28468937
000080 63 0a 5f be 85 3f 19 be 6b 99 5f be e6 3f 93 be
       -0.21781306 -0.14965637 -0.21835868 -0.28759688
000090 d7 e2 36 be 12 e1 b0 3e e5 7f 31 3e 27 18 13 3e
       -0.1785997 0.34546715 0.17333944 0.14364682
0000a0 8e 3e c3 3b 82 a6 24 be 01 6f 57 3d 89 68 8a be
       0.005958385 -0.16079143 0.052596096 -0.2703288
0000b0 3d 23 41 be 1d 38 51 be b4 ae 4a 3e 4c c2 06 3e
       -0.18861099 -0.20431562 0.19793206 0.13160056
0000c0 40 21 75 be be a4 ab bd 80 78 00 3e 81 de b9 3e
       -0.23938465 -0.083810315 0.12545967 0.3630257
0000d0 c1 85 b3 3d 62 d4 16 3d e5 60 68 3e 42 16 52 be
       0.08765746 0.036823638 0.22693212 -0.20516303
0000e0 14 7d 53 3d 79 d3 7f be 15 41 62 be 87 c0 24 be
       0.051632956 -0.24983014 -0.2209514 -0.16089068
0000f0 12 c7 1f 3e 94 fe 08 3e c3 22 4d be c3 4a 5c 3d
       0.15603283 0.13378364 -0.20032792 0.053782236
000100 14 c7 23 3e e2 82 0d be 20 48 d8 bc c6 c8 7c 3d
       0.15993911 -0.13819459 -0.02640158 0.06171491
000110 0a dc 20 3e 41 75 ac 3e ec 13 9b be 9d 42 26 be
       0.15708938 0.33683208 -0.30288637 -0.16236348

conv1.op.bias f4 [8]
000000 cf 84 2f 3e fa 8a 80 3e 83 79 9e 3e 28 5e 93 3e
       0.17140506 0.2510603 0.3095208 0.28782773
000010 f2 9c bb 3d e3 13 a8 be 51 48 71 3d 58 1f 5e be
       0.09160794 -0.32827672 0.058906857 -0.21691644

conv1.bn.weight f4 [8]
000000 62 77 89 3f 5f 81 75 3f 16 4c 84 3f 1a 3b 85 3f
       1.0739558 0.9590053 1.033572 1.0408661
000010 81 b9 8b 3f 2e fb 8b 3f a8 c2 82 3f d6 aa 88 3f
       1.0915986 1.0936029 1.0215654 1.0677135

conv1.bn.bias f4 [8]
000000 19 9e 90 3d 46 0b e5 bc e8 0a bd 3d 86 9b 13 3c
       0.07061405 -0.027959477 0.09230596 0.009009248
000010 21 54 89 3d e5 40 06 3e 79 84 7e bb 1a 82 d3 3d
       0.067054994 0.13110693 -0.0038836284 0.10327549

conv1.bn.running_mean f4 [8]
000000 43 cb 2b 3e a2 a6 2f 3f 47 40 53 bd f9 6f d8 3f
       0.16776757 0.68613636 -0.05157497 1.6909171
000010 de 47 26 3e 4a ac 3c bf 05 51 06 3f bb 20 c2 be
       0.16238353 -0.7370039 0.52467376 -0.37915596

conv1.bn.running_var f4 [8]
000000 57 2f 17 3b 5f 86 e5 3b 62 a0 98 3b 74 7c 96 3c
       0.0023068988 0.0070045437 0.004657791 0.01836989
000010 f8 a4 7d 3b ca 81 a2 3b 7b 36 aa 3b 2d b8 02 3b
       0.0038703065 0.0049593197 0.005194483 0.0019946203

conv2.op.weight f4 [16, 8, 3, 3]
000000 e9 3b f7 bd 16 7e 53 3d a1 5b ee 3d 73 68 24 be
       -0.12071974 0.051633917 0.116385706 -0.16055469
000010 90 cc 06 3d 09 2c 28 3c 65 20 a7 bc 22 c2 53 bd
       0.03290993 0.010264405 -0.02040119 -0.05169881
000020 b6 48 d6 3c 68 fb 41 bd e6 d7 1a 3d d9 b1 b9 3d
       0.026157718 -0.0473589 0.037803553 0.09067125
000030 a3 2f 93 3d 1d ea 52 3d 45 25 c3 bd c7 87 a6 bd
       0.0718682 0.0514928 -0.09528593 -0.08131366
000040 b7 5b f3 3c c7 9e 80 39 49 8a dd bd 0a ce a2 bd
       0.029706819 0.0002453236 -0.108173914 -0.07949455
000050 48 8e 0d 3e 8b c2 8a 3d 85 db 28 bd 8a 62 e7 3b
       0.13823807 0.067753874 -0.041224975 0.0070613073
000060 e6 a9 d3 bd b9 58 3a 3c b4 35 bc bd b5 3b 06 bd
       -0.1033514 0.011373692 -0.091899306 -0.032771785
000070 ec 31 71 3c b4 ea cf 3c 59 24 37 3d 62 c1 b4 3d
       0.014721375 0.02538047 0.0447124 0.08825947
000080 33 0e 27 bc f6 27 ed 3d ea 44 19 3e ce 0b af bd
       -0.010196256 0.115798876 0.14967695 -0.085471734
000090 9c 86 82 bd a5 46 84 bc 9b f6 5f 39 5e 85 d4 3c
       -0.06373331 -0.016146967 0.00021358805 0.0259425
0000a0 1b 24 95 3b 2e e5 08 3d 2e 9c 9e bd 1b cf 85 3d
       0.0045514232 0.033421688 -0.07744633 0.06533643
0000b0 e9 52 80 bd d5 c9 a8 bd f2 bb 84 bd 30 dd 17 bd
       -0.06265814 -0.082416214 -0.0648116 -0.037076175
0000c0 a5 ee a0 bd 48 c8 d6 bd d8 79 38 3c 6e 9e 20 3c
       -0.07858018 -0.10487419 0.011259519 0.009803398
0000d0 50 f9 61 bd 38 d1 63 bb f0 b3 b2 3d d4 64 18 bc
       -0.055169404 -0.0034762155 0.087257266 -0.009301383
0000e0 a3 a1 7d bb 70 e6 ae bb 63 93 e4 3c fd 40 d5 3d
       -0.003870108 -0.005337529 0.02790231 0.10412786
0000f0 e1 9b 9d 3d ed b0 a4 3d 31 0a 00 3e ec 69 f0 bc
       0.07695747 0.080415584 0.12503888 -0.029347382
000100 8d 42 07 be e5 77 3c bd d6 17 e0 3c 58 0a 14 3b
       -0.13208981 -0.046012778 0.027355116 0.0022589173
000110 58 d8 0f bd b5 d6 cf bd f8 e8 d4 bd 5d 2a 92 bd
       -0.03511843 -0.10148374 -0.10395998 -0.071369864
000120 c8 54 0b bd f8 1a 47 3d d7 d2 3d 3d 64 fb d7 bd
       -0.0340164 0.048609704 0.04634365 -0.10545996
000130 1e 4d 6f 3d d8 d9 d1 bd 97 cd 17 bd 74 60 a4 bd
       0.058423154 -0.102466285 -0.0370613 -0.080262095
000140 bb ef 6b bd c9 a3 28 bd 52 a2 bf bd 1f 5b e9 bd
       -0.05760167 -0.041171823 -0.09357132 -0.11394333
000150 9a b9 5f 3c 61 87 04 3c 34 21 7b bd 11 b5 62 3d
       0.013655091 0.0080889175 -0.06131096 0.05534846
000160 63 eb f8 bd f1 b7 fa bc 65 2f f9 3d e1 41 5c bd
       -0.121542715 -0.030605288 0.12167243 -0.053773765
000170 36 d5 c7 3d c3 a7 0f 3d d0 58 f6 bd 63 7a 8b 3d
       0.09757464 0.0350721 -0.120286584 0.06810453
000180 12 eb df bc 8a 07 9b bd 16 b8 85 3d 6e 30 e1 bd
       -0.02733377 -0.07569797 0.06529252 -0.10995565
000190 98 e3 9b 3c 54 9b 97 bc 01 63 2e 3d cc c8 d8 3c
       0.019029424 -0.018506683 0.042574886 0.026462935
0001a0 3c 65 03 3c b7 3a 8b 3d 9b eb fa bb 7d 9f f9 bc
       0.008019742 0.06798308 -0.007657481 -0.030471558
0001b0 df ba 79 bd 46 68 49 3d af 80 9a 3d da 3e a5 3d
       -0.06096923 0.04917171 0.07544076 0.080686286
0001c0 ad d5 d4 bd e1 56 2c b8 e9 d0 84 bd 7f d5 98 bd
       -0.10392318 -4.1088908e-05 -0.06485159 -0.07462596
0001d0 12 1b 9e bd 19 56 52 3d 9e ce b1 bd fc a5 fb bc
       -0.07720007 0.05135164 -0.08681987 -0.030718796
0001e0 8c 0b e7 bb 0d 52 80 3d b8 82 c7 bd 75 96 c0 bd
       -0.007050937 0.0626565 -0.097417295 -0.094036974
0001f0 dd 27 b9 bd 03 7a 5b 3d 12 8c d5 bc b1 e5 e5 3d
       -0.090408064 0.053583156 -0.026067767 0.11225451
000200 53 a8 d6 3c 71 21 2b 3d f6 f8 71 bb df 5d d4 bc
       0.02620331 0.04177994 -0.0036922074 -0.025923667
000210 b1 f3 00 3d 45 a6 0c bd f3 63 a9 bc 95 50 16 3d
       0.031482402 -0.034338254 -0.020677542 0.036697943
000220 a0 e3 b5 bd c6 e8 b0 bd fb 2c de 3d f4 22 d5 bd
       -0.08881307 -0.08638148 0.10848423 -0.104070574
000230 eb df bf bc 58 af f2 3d 0c 28 bf 3c 0a c5 67 bc
       -0.023422202 0.118498504 0.023334526 -0.014146099
000240 da 64 19 be 72 f9 b4 3c e1 bf 85 bd e3 ec 8b bd
       -0.14979878 0.022091601 -0.065307386 -0.06832292
000250 0c 6d ea bc f7 d6 04 bd 5f 81 c4 3c 00 9f ec 3d
       -0.02861645 -0.03243157 0.02398747 0.11553764
000260 ca 72 4d bd eb 7a e8 3d 12 ca 66 3d 45 01 8f bd
       -0.0501583 0.1135157 0.056345053 -0.06982664
000270 69 dd 3e 3d 15 b5 a4 bd de 39 cf bd 8d fa 44 3d
       0.046597872 -0.08042351 -0.10118459 0.048090506
000280 bf ed d0 3c 78 f9 36 3d f9 3d a0 bd aa f8 b2 bc
       0.025503991 0.044671506 -0.0782432 -0.021847088
000290 9d d5 5b 3d 6c 2c fc bd a4 fd a8 3d b8 ce c1 bd
       0.053670514 -0.1231316 0.08251503 -0.094632566
0002a0 d2 7b 93 3c a0 c3 31 bc f2 76 a0 bd e8 b0 aa 3c
       0.018003378 -0.010849863 -0.07835187 0.020836309
0002b0 a9 50 4a 3d 51 b7 ee bc 8e 73 44 3c f8 fd b5 3c
       0.04939333 -0.029140146 0.011990441 0.022215828
0002c0 03 85 a4 bd 19 db ed 3d 73 58 19 bc d2 4a f9 bd
       -0.080331825 0.11614055 -0.009359467 -0.12172474
0002d0 46 e1 0c be f5 88 1c 3d 08 18 a8 3d 31 c1 d9 3c
       -0.1375781 0.03821655 0.082077086 0.026581379
0002e0 75 28 94 3c d0 f6 d8 3b fb b3 98 bd bf 90 a8 3d
       0.018085698 0.006621219 -0.074562036 0.08230733
0002f0 82 e2 cb 3d 43 ae 50 bd 33 6e 80 bd e0 f2 2c bd
       0.09955312 -0.05094744 -0.06271019 -0.04222381
000300 40 e8 f2 bd c9 a6 80 3c 06 5d 57 bd 6a fe a8 bd
       -0.118607044 0.01570453 -0.05257895 -0.08251651
000310 1a 9f eb 3d 75 d8 d0 bd 5f 32 d5 bc b8 d8 9a 3c
       0.115049556 -0.10197536 -0.026024995 0.018902168
000320 16 33 5a bc 1c 84 9e bd 15 ac ed bc 5a 7e cf 3d
       -0.013317844 -0.077400416 -0.02901272 0.101315215
000330 d8 aa 01 3d f8 a7 f7 3d fe c6 84 bd d6 2c 06 bd
       0.03165707 0.12092584 -0.06483267 -0.032757603
000340 e6 06 7a bd 29 c8 40 bc 41 1b fa bd 05 9e f2 3c
       -0.061041735 -0.011766472 -0.122122295 0.029616365
000350 18 ba 05 3d aa 46 be bb 1b 50 c8 3c 99 1f 9c bd
       0.032648176 -0.0058067637 0.02445226 -0.07623214
000360 b5 20 5d 3d 6e 9d 26 bd fc b9 75 3c 6e c2 c0 bc
       0.05398627 -0.04067748 0.014997955 -0.023530211
000370 46 d4 79 bd 96 94 5e bb fe 05 a7 bd 57 dd 0a 3d
       -0.060993455 -0.0033963076 -0.0815544 0.033902492
000380 c1 89 83 3c 16 d9 08 be 61 cf 1b 3c 13 6a 4d 3d
       0.016056897 -0.13364062 0.009509892 0.05014999
000390 8c fa 13 3d e0 d8 34 bd c2 97 ea bd 20 4a 64 bd
       0.036127612 -0.04415214 -0.11454727 -0.055734754
0003a0 82 c7 48 3d 36 8e 98 bd 5b 7a 2e 3d 1b ad e2 3d
       0.04901839 -0.074489996 0.042597156 0.110681735
0003b0 b1 0d 97 bd 31 12 07 bd 63 2a d6 3c 77 21 11 bc
       -0.07375658 -0.032976333 0.026143258 -0.008858076
0003c0 6f 7d d4 3b 18 75 32 3c 11 eb fa bd a1 24 6a 3d
       0.0064846794 0.010892175 -0.122518666 0.05716384
0003d0 e2 31 0b 3e 16 99 45 3d 86 35 03 3d a3 dc b3 bd
       0.13593248 0.048241697 0.032033466 -0.087823175
0003e0 88 40 07 bd a0 64 c9 bd e2 77 09 be 0d 4f 9e bd
       -0.033020526 -0.09833646 -0.13424638 -0.077299215
0003f0 e7 8f df 3d 66 56 ac 3d 4e 8e 15 be 00 a0 c7 bb
       0.10916119 0.08414917 -0.14605066 -0.0060920715

conv2.op.bias f4 [16]
000000 a5 73 5c bd 3d 0d 14 bd 0a 6c 43 3d 4a 68 08 be
       -0.053821225 -0.036145438 0.047710456 -0.13321033
000010 08 cb ec 3c 07 7a 5d 3d ac bb 4c 3d 38 9e ea bd
       0.028905407 0.054071452 0.049983665 -0.11455959
000020 bd 56 e3 bd b7 d8 5f 3d 3b 1a 42 3d 04 40 94 bd
       -0.111005284 0.054650035 0.047388297 -0.072387725
000030 a1 fb ad bd d0 80 4c bd 1d 10 b1 bd 22 fc bd bc
       -0.0849526 -0.049927533 -0.086456515 -0.023191515

conv2.bn.weight f4 [16]
000000 33 fd 93 3f 76 17 83 3f 85 17 92 3f 28 c2 86 3f
       1.1561645 1.0241535 1.1413428 1.0528002
000010 49 63 83 3f 8f 8e 87 3f 1f f9 85 3f 78 fd 83 3f
       1.0264674 1.059038 1.0466651 1.0311728
000020 2e 53 7f 3f db 15 81 3f 6f ea 88 3f ad 0d 88 3f
       0.997363 1.0084795 1.0696543 1.0629174
000030 62 18 97 3f 3b 38 84 3f 9c c9 8b 3f 97 83 83 3f
       1.1804316 1.032966 1.0920901 1.0274533

conv2.bn.bias f4 [16]
000000 4a c4 75 bc 46 49 d4 bb 2a b0 4b 3c 8d 10 0e 3e
       -0.015000412 -0.0064784614 0.0124321375 0.13873501
000010 cb b9 36 3c 3e 94 cc 3d 3d ad 33 3d 82 43 56 3d
       0.011152695 0.099892125 0.043866385 0.052310474
000020 e7 9c dc 3d 3d 84 0a 3d f2 54 09 3e 18 0c 1a 3e
       0.10772114 0.03381752 0.1341131 0.15043676
000030 b8 58 3a bd a7 ea 02 3e d3 fa c3 bc 08 11 84 3b
       -0.045494765 0.12784825 -0.023923313 0.0040303506

conv2.bn.running_mean f4 [16]
000000 31 65 90 bd 2f 6f 92 bd 7b db 5c 3c c9 dd 0a be
       -0.07050551 -0.07150113 0.013480063 -0.13561167
000010 37 e2 c7 3c ae 80 59 3d 84 8b 03 3d 0b 45 fa bd
       0.02439986 0.053101234 0.032115474 -0.122202
000020 73 ad f6 bd b2 b0 7f 3d be d1 1a 3d 2c 87 94 bd
       -0.120448016 0.06242437 0.037797682 -0.072523445
000030 83 05 0c be 04 60 07 bd 45 6c 20 be 86 72 38 bd
       -0.13673978 -0.033050552 -0.15666302 -0.045031093

conv2.bn.running_var f4 [16]
000000 0d 14 5a 3c 39 3b 55 3c cc 4d 51 3c a4 45 36 3b
       0.013310445 0.013014608 0.012774896 0.0027812505
000010 05 ca c5 3b 34 31 3b 3b 22 2c 41 3c 66 d9 e0 3b
       0.0060360455 0.0028563263 0.011790307 0.0068618534
000020 62 26 80 3b 5b c5 b2 3b 3f 8b 17 3b d8 a1 3a 3b
       0.0039108256 0.0054556555 0.0023123769 0.0028477814
000030 f1 c0 c6 3c 2b 88 a7 3b 40 dd 9d 3c 85 cd e6 3b
       0.024261924 0.005112668 0.01927054 0.007043543

conv3.op.weight f4 [32, 16, 3, 3]
000000 2c 2d 99 3d 51 a6 6f 3c 91 b8 81 3d 33 33 c7 3d
       0.07479319 0.014627055 0.063340314 0.09726562
000010 90 95 90 3d 2e 05 91 bd fb 62 60 3d 6e f9 2e 3d
       0.07059777 -0.07081066 0.054781895 0.042718343
000020 d3 eb 7e 3d 10 d9 c9 bd a3 83 95 3d 26 04 ac 3d
       0.06223662 -0.098558545 0.07300498 0.08399229
000030 b1 77 50 bd 78 c9 d4 3c b7 f9 88 3d 54 f1 75 bd
       -0.050895397 0.025974974 0.06688254 -0.0600446
000040 90 84 28 bc b1 c7 48 3d 95 31 87 3d da ac e0 3d
       -0.010285512 0.049018566 0.06601254 0.10970469
000050 46 9a a3 3d b0 39 25 3d 97 1f 43 3b dc 9d 83 3d
       0.0798841 0.04033822 0.0029773468 0.06426594
000060 39 df 3b bd bf 2b 40 3a 91 bd 35 bd 3f 7f f8 bc
       -0.04586718 0.00073307374 -0.044370238 -0.030334113
000070 d2 a0 72 3d 5f 9b 07 3d 93 c8 46 3d 7b d4 92 3d
       0.0592354 0.033107158 0.048531126 0.07169434
000080 91 27 9a bd 2c e3 71 bd 14 31 e6 bc 69 a6 31 3c
       -0.07527078 -0.05905454 -0.028099574 0.010842898
000090 3d f3 2a 3c 6e 92 5e bd 9f f8 10 bd 5a ca 98 3d
       0.010433969 -0.054338865 -0.035393354 0.074604705
0000a0 ef 68 e1 ba 1a 26 81 bd 42 6e 78 3d 25 aa 4f 3d
       -0.001719741 -0.063060954 0.060652025 0.05069937
0000b0 a4 e8 50 bc 65 cc 1b bd d7 0e 43 bd c4 6f 82 bd
       -0.012750778 -0.038036723 -0.047621574 -0.06368974
0000c0 2f dd 0f 3d 6c 32 74 bd 04 d1 59 3d 36 2a 89 bd
       0.035123046 -0.0596184 0.05317785 -0.06697504
0000d0 0e e8 f1 bc 9f a0 b6 bc f3 e2 6e 3a 2f 43 7c 3d
       -0.029529598 -0.022293387 0.00091127976 0.06158751
0000e0 f3 b4 96 3d a0 b4 52 3d 07 d7 01 bc 4f c3 27 bd
       0.07358732 0.05144179 -0.007924802 -0.040957745
0000f0 14 90 84 bd 44 28 04 3c f5 42 81 3d 68 7e 0b bd
       -0.06472793 0.008066241 0.06311599 -0.034056097
000100 c1 39 7f bc e0 6c a6 bd 5c bb 40 3d bf a3 41 3d
       -0.015577734 -0.08126235 0.04705368 0.0472753
000110 76 df ad bd ee 1a 6f bd c1 3a b4 3d ea 6d 4c 3d
       -0.084898874 -0.05837529 0.08800269 0.04990951
000120 ed c9 6b bc a4 7a 07 3c 2d be 23 bd f8 17 5f bd
       -0.014391405 0.008268986 -0.039976288 -0.054466218
000130 bb 89 b3 bd 6d 2a 49 3d 82 d6 9a bc 86 ae 25 bd
       -0.087665044 0.049112726 -0.018901113 -0.04044964
000140 3c 75 05 bd 95 57 82 bd 77 dc db bc fe c9 17 bd
       -0.032582507 -0.06364361 -0.026838524 -0.03705787
000150 6c f1 8b 3d d6 a8 c8 3c ed fc 1e bd 28 d7 2a bd
       0.06833157 0.02449457 -0.038815428 -0.041709095
000160 33 a7 24 3d a0 5f 2a bd a4 e1 4c 3d cd d2 79 3c
       0.040198516 -0.0415951 0.050019875 0.015248013
000170 b5 94 04 bd 9a 05 93 3c 61 60 ad bb 3f ab a1 3d
       -0.03236838 0.017947007 -0.0052910303 0.07893991
000180 6d e1 7e bd da 41 c9 bc e3 43 9f 3d 8d d0 89 bd
       -0.0622267 -0.024567533 0.0777662 -0.06729231
000190 f2 4e 5f 39 c9 81 bb 3d 99 be 79 bd b4 4e 8a 3d
       0.00021296347 0.09155614 -0.060972784 0.06753293
0001a0 04 f0 71 3d ce 5b 77 3d 28 dd 42 ba 7e 85 83 3d
       0.059066787 0.060390286 -0.00074334675 0.06421946
0001b0 2b eb 53 bd ad 4b 37 bd 62 a5 07 3d 5b 65 34 bc
       -0.051737946 -0.044749904 0.033116706 -0.011010493
0001c0 f0 d8 1d 3d f9 88 0c 3d e0 db a9 3c 87 7b 9a 3d
       0.038536966 0.034310315 0.020734727 0.07543092
0001d0 3d 4e 9b bc e4 ac 25 3d 70 8f 0b 3d e0 e4 86 bd
       -0.018958205 0.040448084 0.03407234 -0.06586623
0001e0 dd 95 80 bd 7d 3f a8 3d 65 4d 18 bd 78 a0 1a 3d
       -0.06278584 0.082152344 -0.037183184 0.03775069
0001f0 73 b8 b9 bd 66 8b f3 bc 8a f0 87 3c d8 df 3a 3d
       -0.09068384 -0.029729556 0.01659419 0.04562363
000200 4f ce 70 3d cd 65 eb bb 58 fe 50 bd 3d cd 01 3c
       0.0587905 -0.0071837665 -0.05102381 0.007922468
000210 b1 01 ce 3d 84 1f df bc ff 36 16 bd d0 79 ad bc
       0.10058916 -0.027236708 -0.036673542 -0.021176249
000220 ce f8 c7 3d c4 90 9f 3d 25 9a 93 3c f8 9a 8e bc
       0.097642526 0.07791284 0.018017838 -0.01740788
000230 0e 66 22 bd 7f 6c 6b 3d 09 ab af 3b c5 13 d3 3d
       -0.03964811 0.057476517 0.005360965 0.10306505
000240 a2 63 41 3d c4 83 5e 3d e6 3a c4 3d 40 01 94 bd
       0.047214158 0.05432488 0.095815465 -0.07226801
000250 3b 7a a2 3d 14 4d 92 bd 52 0f 8f 3c cd b1 54 bc
       0.0793347 -0.07143608 0.01746336 -0.012981844
000260 b1 25 4a bd 7c 53 9a bd 63 8a 9a bd 8d c7 b7 3c
       -0.04935235 -0.07535455 -0.075459264 0.02243402
000270 a3 d9 16 bc c4 d1 d9 bb a7 9e 61 3d 4a b6 0c bd
       -0.009207162 -0.0066473205 0.055082943 -0.034353532
000280 72 52 40 bc 6a e2 e0 bc d2 32 0f 3d 41 02 2d bd
       -0.0117384065 -0.027451713 0.034960575 -0.042238478
000290 af 27 bd 3d d7 7f b0 3d 1c 1b 7c 3d da 62 2f 3d
       0.09236085 0.086181335 0.06154929 0.04281888
0002a0 89 52 02 3d 48 3a 6f bd 63 76 a2 bd d5 e3 4d 3c
       0.031816993 -0.05840519 -0.07932737 0.012566526
0002b0 40 c4 a0 bc cd 5f 8c bd 82 bf 25 bd 17 e1 5d bd
       -0.01962483 -0.0685421 -0.04046584 -0.05416974
0002c0 f6 69 e3 bd 51 47 e6 bb ae b6 87 3d 07 75 0c 3d
       -0.11104195 -0.0070275445 0.0662664 0.034291293
0002d0 d5 b4 23 bd 4b 56 9a bd b7 31 70 bd 8e 63 8c 3a
       -0.039967377 -0.0753599 -0.05864116 0.0010710822
0002e0 43 5a 23 3d af e5 35 bd 05 f7 3b bd d0 91 6a bd
       0.039881002 -0.044408496 -0.045889873 -0.057267964
0002f0 08 00 56 bb 54 35 c7 bd cf f4 be bd 04 24 8a 3d
       -0.0032653827 -0.097269684 -0.09324037 0.06745151
000300 4e 73 3e bd 45 f9 c8 bc 93 1a da bb 84 2d 57 bd
       -0.046496682 -0.024532923 -0.006656 -0.05253364
000310 73 06 36 bc 8a 2c 99 3c 86 6f dd bc 8a 4e fd bb
       -0.011109936 0.018697996 -0.027030718 -0.00773031
000320 6f 49 a5 bb 0b f2 da bd 45 22 42 3d f6 15 b8 3d
       -0.0050441544 -0.10690697 0.047395963 0.08988564
000330 de ca 4a 3d 52 0d 71 bd 7a 60 41 3d da 72 a6 bd
       0.049509875 -0.058850594 0.047211148 -0.08127375
000340 b8 0f 18 bd ef 08 49 bb 78 d6 2d bd f2 e9 5d 3c
       -0.037124366 -0.003067549 -0.04244086 0.013544546
000350 d8 ea 38 bd 96 29 b6 bc 1b 91 07 bd bf 35 b2 bd
       -0.04514584 -0.022236627 -0.033097368 -0.087016575
000360 9e 3a 04 bd 15 36 ca bd dd 28 f2 3c cd 37 2a 3d
       -0.032282464 -0.098735966 0.0295605 0.041557122
000370 97 6b 97 3d 69 ef 2f bd 96 19 e6 bb 88 25 65 3c
       0.07393568 -0.04295293 -0.007022093 0.013985999
000380 5d c4 61 3d 2b 98 32 3d a2 36 61 bd 51 14 9b bd
       0.055118907 0.04360215 -0.054983743 -0.075722344
000390 70 9f b5 bd dd f5 3f bd b7 81 9e 3d e2 20 cc 3c
       -0.08868301 -0.046865333 0.07739585 0.024918023
0003a0 de 78 97 3d e9 0b 84 3d 6a bd 92 bc d4 23 8b bd
       0.073961005 0.06447584 -0.017912585 -0.06793943
0003b0 0f c0 73 3d 02 e0 5d 3d 40 70 0b 3d ca de 7c bd
       0.059509333 0.05416871 0.034042597 -0.061735906
0003c0 7b 65 15 3d 26 ae 81 3c 12 91 02 3d 24 a4 f2 3c
       0.036473732 0.01583011 0.03187663 0.029619284
0003d0 2c 8d ef 3c 1e a3 96 bd e7 72 76 bd 0f 95 47 3d
       0.02924212 -0.07355331 -0.060168173 0.048726138
0003e0 c5 80 64 bd d2 24 c5 bd 67 87 95 3d 34 7a 50 bc
       -0.055786867 -0.096261635 0.073012166 -0.012724448
0003f0 d4 12 d1 3d 97 05 c5 bc 6d 94 84 3d 36 8b f7 bc
       0.10208669 -0.024050517 0.064736225 -0.030217748

conv3.op.bias f4 [32]
000000 a3 5a ed bc 9f 9d 51 3d 6d 41 46 3d cd 7c 35 3d
       -0.028973883 0.05117571 0.04840224 0.044308472
000010 a8 ef 3d 3d 4d bc ca 3c 5d ba a0 bc b6 de b0 3d
       0.046371132 0.024747992 -0.019620115 0.08636229
000020 ef 4b 8f 3d 64 8d 13 3d b4 ed c4 bd c5 75 4b bc
       0.06996905 0.036023512 -0.09615651 -0.012418215
000030 8f d4 9e bd d7 90 99 3c 5c 2b 64 3d 7e ce 9d bd
       -0.07755386 0.018745823 0.055705413 -0.07705401
000040 8f 87 98 3c 44 22 9b 3c 74 ce 93 bd 1d 4f ab bb
       0.018619327 0.018937238 -0.07217112 -0.005227937
000050 9d a8 5b bc 48 11 31 bd 11 fa 2b bd c7 2a 93 3d
       -0.0134069 -0.04322937 -0.04198653 0.071858935
000060 e0 1a cd bc 64 cd bb 3a 5f bd cb bc e1 c7 a7 bc
       -0.025037229 0.0014328179 -0.024870573 -0.020481052
000070 0c 34 a7 3c f8 1e 82 bd f5 3b 42 3d fa 2a 91 bc
       0.02041056 -0.06353563 0.04742046 -0.017720688

conv3.bn.weight f4 [32]
000000 f1 d0 7a 3f 96 54 82 3f 7d 56 83 3f fc 79 83 3f
       0.9797507 1.0182064 1.0260769 1.0271602
000010 50 1c 81 3f 01 ed 83 3f 68 4a 84 3f 8c 54 84 3f
       1.0086765 1.0306703 1.0335207 1.0338302
000020 ee 9e 81 3f 1a a2 82 3f d1 52 83 3f 29 f0 80 3f
       1.0126626 1.020572 1.0259649 1.0073291
000030 a1 de 81 3f 8a 88 7a 3f e5 ff 82 3f 10 69 88 3f
       1.0146066 0.9786459 1.0234343 1.0657063
000040 3c 01 8b 3f 30 1b 87 3f 98 29 81 3f 27 60 88 3f
       1.0859752 1.0555172 1.0090818 1.0654343
000050 fc fd 80 3f b8 44 84 3f bd 86 7e 3f 6b 19 81 3f
       1.007751 1.0333471 0.99424344 1.0085882
000060 64 eb 86 3f 64 4f 89 3f f3 66 83 3f 88 bd 7f 3f
       1.0540586 1.0727353 1.0265793 0.99898577
000070 30 02 87 3f cd 9c 80 3f 10 0e 85 3f 8a 9d 86 3f
       1.0547543 1.0047852 1.0394917 1.0516827

conv3.bn.bias f4 [32]
000000 96 12 6f 3d 9e 92 c3 3a 5a 94 a7 3c 40 b2 a5 3d
       0.058367334 0.0014921015 0.020456482 0.08090639
000010 2c 4c 45 3d aa 8b bd 3c fb 60 d2 3b 5d 80 3a 3d
       0.048168346 0.023137886 0.0064202524 0.045532573
000020 3a 89 b6 3d 7f ed 01 3d 59 70 de 3c 61 4f d0 3c
       0.08912893 0.031720635 0.02715318 0.025428476
000030 4c 9c 87 3d 37 b7 05 bd 1b f6 ba 3d 72 ba 55 bd
       0.06621608 -0.03264543 0.09128972 -0.05217976
000040 4d 36 68 bc 50 5f b6 3d 45 83 89 3c fb 5f 99 3d
       -0.014173103 0.08904898 0.016786227 0.0748901
000050 9f 90 a3 3b 22 7f ee 3c 6e c5 d9 3b 82 12 6b 3d
       0.0049916054 0.029113356 0.00664585 0.057390697
000060 cc c6 4e 3d 1c 68 c2 ba 2e f7 af 3a cc b0 51 3c
       0.050482556 -0.0014832052 0.0013425106 0.012798499
000070 8c 17 e3 3c cb 3e 46 bd 37 c4 0c 3d 39 0e 42 3d
       0.027721189 -0.048399728 0.034366813 0.047376845

conv3.bn.running_mean f4 [32]
000000 7b 83 23 3d 75 c1 25 bd 13 be 7b 3d 65 ed b6 3d
       0.03992031 -0.040467698 0.061460566 0.08931998
000010 8b d2 bc 3c 4a 75 d0 bc 75 1d 1b 3b c1 7d 1e 3d
       0.023049613 -0.025446553 0.002366868 0.038694147
000020 77 c0 5c 3d 56 f4 05 bd 41 ba 31 be aa f5 e4 bd
       0.053894486 -0.03270372 -0.17356206 -0.11179669
000030 a7 4b 6a be f3 11 97 bd eb b5 70 bd d3 c3 5c bd
       -0.22880422 -0.073764704 -0.05876724 -0.05389769
000040 e4 f7 33 3d e2 d9 a2 bc 45 74 df 3c 2a 1c ef bd
       0.04393758 -0.019879285 0.027277121 -0.11675294
000050 c9 90 ca bd e0 54 95 bd cf 4e fa bc f2 82 6e 3c
       -0.09890897 -0.07291579 -0.030555157 0.014557587
000060 aa 78 bd 3c b4 4a c6 3c 94 4f fd bd 5b 2c e1 3c
       0.023128826 0.024205543 -0.12368694 0.02748697
000070 6f 33 1b bc 06 62 7f bd 1e 5d 33 3d 68 ac 32 3d
       -0.009472712 -0.06234934 0.043789975 0.04362145

conv3.bn.running_var f4 [32]
000000 ec 0e 82 3b 83 30 dc 3c e0 60 32 3c d7 a1 10 3c
       0.003969064 0.026878601 0.010887355 0.008827648
000010 be 41 52 3c 22 82 a8 3b 0a 6e 0b 3c 6c d4 c2 3b
       0.012833057 0.005142466 0.008510122 0.005945733
000020 e4 31 ae 3b 8f fd e0 3b 92 a2 1c 3c 1e 31 02 3c
       0.005316006 0.006866164 0.009560244 0.007946281
000030 59 b4 94 3b 94 aa 16 3d f9 de 86 3b 10 ce f2 3c
       0.0045381007 0.03678377 0.004115936 0.029639274
000040 8e ac 7b 3c 31 d3 ef 3b a8 64 30 3c 17 93 07 3c
       0.015360964 0.007318877 0.010766186 0.008274815
000050 3c 83 97 3c 37 7c a4 3b 06 8b 87 3c 90 9f 24 3c
       0.018495195 0.0050196904 0.016545784 0.010047808
000060 c1 18 16 3c ff a6 95 3c 71 bf 21 3c 96 4b 22 3c
       0.009161175 0.018268107 0.009872303 0.009905716
000070 ca af 19 3c e7 3a 95 3c 1d b6 bb 3b 03 6d ad 3b
       0.00938029 0.018216563 0.0057284967 0.005292536

conv4.op.weight f4 [32, 32, 3, 3]
000000 b3 c9 19 bd 8c 8f ba bc f3 9e ad bb 89 5f 0a bd
       -0.03754587 -0.022773527 -0.0052984892 -0.033782516
000010 75 9e a9 3b 6c 27 2d 3d 82 47 84 bd ec 76 41 bc
       0.0051763603 0.042273924 -0.064589515 -0.011808138
000020 b7 9a 34 3d fd 79 99 bc 09 6b b6 bc 96 9f 14 3c
       0.04409286 -0.018734926 -0.022267835 0.009071251
000030 36 be c1 3c 95 23 85 bb d1 9e 0c 3d b3 ae 35 bd
       0.02365027 -0.0040630796 0.034331147 -0.04435606
000040 f5 a5 46 bd a1 e8 16 3d 4e ca 74 bd 68 21 e3 bc
       -0.048498113 0.036842946 -0.059763245 -0.02772589
000050 37 53 29 3d 23 e3 50 bd e5 f8 6d bd d8 42 3d bd
       0.041339125 -0.050997864 -0.058098692 -0.046206325
000060 87 1b 60 bd ec ff 54 bd 90 44 9b bc f0 26 8e bd
       -0.054713752 -0.05200188 -0.018953592 -0.069410205
000070 f9 d5 4e bd 17 d9 8d 3c d5 0d 27 3d 4a 4b 64 3d
       -0.05049703 0.01731543 0.040784676 0.055735864
000080 9c 73 82 3d 9c d0 91 3c 26 b7 4d 3d 33 8f ca bc
       0.06369707 0.017799668 0.050223492 -0.024726486
000090 35 d9 9b bd 8f c0 16 3d da 67 3c 3d c1 f6 4c bc
       -0.07609788 0.036804732 0.045997478 -0.012510003
0000a0 1d 04 ea 3c 4f d4 95 bc 05 2d 45 3d 6e 62 04 3d
       0.028566414 -0.018289713 0.048138637 0.032320432
0000b0 c7 6e dc bc 60 bd 80 3d fa 5b 71 3d b1 67 eb bb
       -0.026908292 0.062861204 0.058925606 -0.007183992
0000c0 14 d2 28 3c 3b ee 70 3d de c2 09 bc 3f 98 29 3d
       0.010303993 0.058820944 -0.008408276 0.04140496
0000d0 d5 37 dc 3c af 86 5a bc 35 58 74 3d bb f3 9a bd
       0.026882092 -0.013337775 0.059654433 -0.07566019
0000e0 88 ba 14 3c de 3f 9c bb f0 26 ef bc 7d 33 af bc
       0.009077676 -0.0047683557 -0.029193372 -0.021386856
0000f0 c7 d1 39 3d cc a4 05 bc ae 2b 89 3d 2d 6b e2 3c
       0.045366075 -0.008156966 0.06697784 0.027638996
000100 1f 43 db 3c 01 05 f8 bc 11 4c 9f bc d8 4d 73 3c
       0.026765404 -0.030275824 -0.019445451 0.014850102
000110 bf 11 4d 3d 06 e8 17 ba cd e6 bb 3b 04 a7 fd bc
       0.050065752 -0.0005794767 0.0057343007 -0.030963428
000120 f0 5a 3e 3d 20 e4 84 3b b0 56 27 3a b8 a6 f1 bb
       0.046473444 0.004055515 0.0006383462 -0.0073746108
000130 80 3a ee bc 28 59 05 bd 9d 5e 8d bd e3 1e 8b 3c
       -0.02908063 -0.03255573 -0.06902812 0.016982501
000140 91 83 5f 3d da 80 99 3d 93 39 8e 3d b3 70 07 bc
       0.05456883 0.074952796 0.06944575 -0.008266616
000150 2e 4c 80 3d 22 16 18 3d 9b 17 95 3c 49 9e 1e bc
       0.0626453 0.037130482 0.018199733 -0.009681293
000160 c4 bb df bc 23 ab 8b 3b 04 a1 8f 3c 44 c0 54 3c
       -0.027311213 0.0042623444 0.017532833 0.012985293
000170 01 45 b4 bc 53 de 39 3d 5e 89 82 3b c3 be 5f bc
       -0.02200556 0.04537804 0.0039836606 -0.013656321
000180 0f 52 38 3c 86 a0 66 3c 4c 11 3d bd 6e 04 d4 3c
       0.011250033 0.014076358 -0.046159074 0.025881018
000190 8b 34 1f 3d 5c a5 e2 ba 65 d5 2b bd d9 5e 5e bd
       0.03886847 -0.0017291713 -0.041951556 -0.054289673
0001a0 a7 3b db 3c 35 c0 5a 3d 0d 34 ca 3c 45 54 12 bd
       0.026761843 0.05340596 0.024683023 -0.035724897
0001b0 5c ba ab bb 87 33 c3 bc c8 69 02 3c 55 9d d2 ba
       -0.0052407216 -0.023828281 0.0079597905 -0.0016068617
0001c0 56 25 74 3d fb 2b f3 bc 2c 40 05 bd d0 3d bb 3c
       0.05960592 -0.029684057 -0.032531902 0.022856623
0001d0 5d 78 17 bd 7c 6a b8 bb 62 65 95 3d 5a ed cf 3c
       -0.03698002 -0.0056279283 0.07294728 0.025381733
0001e0 35 a8 97 bd 23 46 7f bc 8c dc 24 3c 2f 70 87 3d
       -0.0740513 -0.015580687 0.010062348 0.06613194
0001f0 48 0d 16 bd 80 d4 4a 3d 19 3e 88 bd b8 b0 5c bd
       -0.03663376 0.049519062 -0.06652469 -0.05387947
000200 ad d2 40 bc 21 94 07 bd 61 e5 37 3c 77 4d dc 3c
       -0.011768979 -0.03310025 0.011224122 0.026892407
000210 b2 69 8b 3c 5b de 66 bd d7 a8 78 bc 77 a7 bd bc
       0.017018173 -0.0563644 -0.015176973 -0.023151143
000220 9a bc 48 ba 62 c0 3d 3d 44 3b a7 bc d0 0e 35 3c
       -0.00076574984 0.04632605 -0.020414002 0.011050895
000230 e0 cf 0e 3d b3 b3 ce 3c 23 61 8b 3d 6f c0 64 bc
       0.034866214 0.025232172 0.06805637 -0.013961895
000240 fb 24 69 3c f7 f7 18 3d 2a f6 d6 3c 4a bc df bb
       0.014230008 0.037345853 0.026240427 -0.0068278657
000250 31 90 e4 bc 73 97 61 3d 3e 5d b9 3c ac 76 06 3d
       -0.027900787 0.055076074 0.02262747 0.032828018
000260 e2 b0 67 3d e9 a7 2a bd a5 d0 a0 3c 14 0b fc bc
       0.056565173 -0.041664038 0.01963074 -0.030767001
000270 2c 31 cc 3b 6d 76 8e 3c 8b f0 ea bc 79 89 a1 3d
       0.0062314477 0.017390454 -0.028679153 0.07887549
000280 ad 97 f9 3c 16 5a 9f 3b 15 02 2b bd 76 14 20 3c
       0.030467832 0.004863034 -0.041750032 0.009770503
000290 b0 f4 85 3d 97 08 e9 bb 27 c2 4b 3d e6 38 06 3d
       0.06540811 -0.0071116197 0.049745705 0.032769106
0002a0 b9 64 ed bc e7 d5 5b 3d f2 44 63 3c b8 5f f2 3c
       -0.028978692 0.05367079 0.013871418 0.029586658
0002b0 9c 0c 24 bd 5e 77 2a bd bb cc 26 3d 2c 17 ca 3c
       -0.040051088 -0.041617744 0.04072259 0.024669252
0002c0 4b ad a6 3c d2 31 a9 bc a4 05 01 bd 50 d5 87 bc
       0.020346304 -0.020653639 -0.03149952 -0.016581208
0002d0 67 75 35 bd b1 e1 9f 3d 1f 16 8c 3d 2f 39 0b 3d
       -0.044301417 0.07806719 0.06840157 0.03399008
0002e0 ad c8 1f 3d 01 aa 27 bd e1 93 0c bb 0c b5 e0 3c
       0.03900974 -0.040933613 -0.0021450447 0.02743008
0002f0 33 74 ae bc 7e 07 10 3d ef 42 8c bc 8b e1 2b 3d
       -0.021295642 0.035163395 -0.01712176 0.04196314
000300 47 66 43 3d 5d 5c 8d 3d 12 3e 9b 3b 80 95 60 bd
       0.04770496 0.069023825 0.004737624 -0.054830074
000310 f9 5a 01 bd 08 22 f2 bc 18 53 17 3d c9 c5 b9 3a
       -0.0315809 -0.029557243 0.03694448 0.0014173324
000320 16 23 da 3c 01 32 9b 3c 32 9b 36 bb 4e f6 9f bb
       0.026628058 0.018944742 -0.00278635 -0.0048816567
000330 a7 80 01 bc d7 6f f4 3b 70 0b 3b bd 59 c4 e4 bc
       -0.007904208 0.0074596214 -0.045665205 -0.027925657
000340 bb 2e 8c 3d 79 c6 17 3d 72 da 87 bc b6 fc 3e 3d
       0.06844851 0.037054513 -0.016583655 0.046627723
000350 73 e6 e8 bc 2f 2d 98 3d fb 64 fb bb 22 35 1d 3d
       -0.0284302 0.07430493 -0.00767195 0.03838075
000360 2e a7 ed 3c 8b cc 85 bc be 2d 39 3d df d1 b3 3c
       0.029010382 -0.016332885 0.04520964 0.02195066
000370 c4 63 5d bd 7c 44 c7 3c 6b 59 0e 3d 40 58 08 3b
       -0.054050222 0.024324648 0.034753244 0.0020804554
000380 aa c3 00 3d 59 69 51 3d b7 cc 08 bd 33 06 75 3d
       0.0314366 0.051125858 -0.033398356 0.059820365
000390 32 0d a6 bd 36 e0 c1 3b 35 7a 52 3b 07 70 6d bc
       -0.081079856 0.0059166206 0.0032116298 -0.014492041
0003a0 17 d0 20 3d 03 d2 2a bd 43 23 c8 3c 4d 37 02 3d
       0.03926095 -0.04170419 0.024430877 0.03179102
0003b0 5f 27 82 3b 60 d1 0f 3d 80 75 3d bd 4b f2 8a bc
       0.0039719786 0.035111785 -0.046254635 -0.016961237
0003c0 a4 3f 9a 3c ea e8 a0 3c e7 09 3a bd af db 41 bd
       0.018829174 0.019642312 -0.0454196 -0.047328647
0003d0 ed f7 23 3d 53 ae e6 bc 89 92 03 bd eb e8 8c bd
       0.040031362 -0.028159296 -0.03212217 -0.06880363
0003e0 7f 71 05 bd 31 45 5e bd 83 b9 f3 3b 4c 00 6c 3d
       -0.03257894 -0.054265205 0.007437886 0.05761747
0003f0 d2 4f 90 3d 94 b7 3a bd 4a a8 d8 3d 8f 6a bb bd
       0.070464745 -0.04558523 0.105789736 -0.09151184

conv4.op.bias f4 [32]
000000 de d6 8a bd 7e dc 05 3d 00 d4 43 bd d2 c0 08 3c
       -0.06779264 0.03268098 -0.0478096 0.008346753
000010 a6 3f 61 bd b5 e3 1e 3d 18 ca 75 bc bb eb db 3b
       -0.05499234 0.038791377 -0.015001796 0.006711451
000020 33 68 75 3d 83 1c 5d 3c e9 6c 4f 3d 42 d6 31 3d
       0.059913825 0.013495567 0.050640974 0.043417223
000030 26 d9 c8 bb b0 43 0b 3c 76 b3 47 bd e7 88 52 bd
       -0.0061294017 0.008500025 -0.04875513 -0.05140009
000040 7c 55 11 3d 94 5c 83 3b 96 92 7d 39 61 6e 58 3d
       0.035481915 0.004008839 0.00024182568 0.05283964
000050 c4 9f 78 bd 28 cd 49 3d d4 41 ad 3c a6 55 49 bd
       -0.06069924 0.049267918 0.021149553 -0.049153946
000060 de eb 99 3c 37 a4 a6 3c d2 9f 28 bd c5 84 c6 3c
       0.018789228 0.020341976 -0.04116804 0.024233231
000070 db e4 a1 bb e9 c9 e3 bc a7 a3 06 3c 5d 4d 18 3d
       -0.004940612 -0.02780624 0.008217729 0.037183154

conv4.bn.weight f4 [32]
000000 8c cb 7f 3f 55 ac 80 3f 6c e4 80 3f 79 e5 7d 3f
       0.9991996 1.0052592 1.0069709 0.9917827
000010 d3 e0 84 3f ef 66 85 3f 8d 2e 81 3f e6 77 82 3f
       1.0381111 1.0422038 1.0092331 1.019284
000020 50 df 7d 3f 81 2e 7b 3f 2e 1f 83 3f e4 8b 84 3f
       0.9916887 0.98117834 1.024389 1.0355191
000030 37 a9 82 3f 76 a1 81 3f 2d f6 82 3f f4 16 85 3f
       1.020789 1.0127399 1.0231377 1.039763
000040 87 ac 81 3f 6d 36 7e 3f c9 2b 7c 3f 9a 76 81 3f
       1.0130776 0.993018 0.9850431 1.0114319
000050 bd f1 7c 3f 46 fe 81 3f f4 f5 7d 3f 18 56 84 3f
       0.98806363 1.0155723 0.9920342 1.0338774
000060 20 2c 85 3f 57 38 80 3f c9 af 7b 3f d3 97 7d 3f
       1.0404091 1.0017194 0.983151 0.9905979
000070 78 86 83 3f b1 55 83 3f 58 95 84 3f 64 96 82 3f
       1.0275412 1.0260526 1.0358076 1.0202146

conv4.bn.bias f4 [32]
000000 d4 95 97 3c 59 c1 f7 3c d7 cc 31 bb ef 54 3f 3b
       0.01850406 0.030243563 -0.002713015 0.0029194911
000010 fb 3a a0 3d 5d 45 fd bb 1c fc 3e bd b7 40 96 3b
       0.0782375 -0.007729216 -0.04662715 0.0045853513
000020 ca 7a 80 3c 19 16 51 3d 42 2d 71 3c 16 1a de bb
       0.01568355 0.051046465 0.014720263 -0.006778012
000030 fd 56 87 3b 04 26 8e bb ab 19 1a 3a 72 10 d5 bc
       0.004130243 -0.004338028 0.00058784586 -0.026008818
000040 91 0f 36 3c 6d 49 71 bc 61 b7 61 3d 8e b6 b8 ba
       0.01111211 -0.014726979 0.055106524 -0.0014092491
000050 5f c1 8a bc 97 11 0f 3c bb 8a d4 3b 4c 97 bf 3a
       -0.01693791 0.008732221 0.0064862645 0.0014617234
000060 01 5a 8f 3d db cb 8a 3c 5e ab 8f bc 6e f6 b0 bb
       0.06999589 0.016942909 -0.017537769 -0.0054004705
000070 99 8a 58 bc 26 a1 9a bc 89 e2 74 bb ce 7f 6b 3c
       -0.013216638 -0.01887567 -0.003736647 0.014373733

conv4.bn.running_mean f4 [32]
000000 ef d1 64 bb 4a b1 6e 3c 29 f8 a7 bd b0 b4 3b bd
       -0.003491517 0.014568636 -0.0820163 -0.045826614
000010 36 02 69 bd d7 7e 92 bc 95 69 b6 bd 9b 49 b4 bd
       -0.056886874 -0.017882748 -0.08906857 -0.08803102
000020 b6 4f e3 3d 3a 18 6c 3d 47 d5 07 3c 3f 8c ca bd
       0.11099188 0.05764029 0.008290595 -0.09890031
000030 fa d0 2a be 57 3a 82 bd 6e ed 59 bd 69 f8 62 be
       -0.1668128 -0.06358784 -0.053204946 -0.22165073
000040 5d 47 e3 bc 1f e8 ec 3d cb 5c b8 3d 8f 08 d7 bd
       -0.02774399 0.11567711 0.09002074 -0.10499679
000050 e6 19 a5 be 05 05 08 3e fb c4 61 3e 5f d4 05 be
       -0.3224632 0.13283165 0.22047798 -0.13069294
000060 71 6d 5c 3d 21 ba 77 3d 04 f9 45 be e9 28 3e bd
       0.05381531 0.06048024 -0.19333273 -0.046425734
000070 6b 7a 9b bd 48 83 78 be dc c2 16 be 97 eb 5b bd
       -0.07591709 -0.2426883 -0.1472277 -0.053691473

conv4.bn.running_var f4 [32]
000000 d3 a0 e0 3c 78 04 4f 3c f7 3b 45 3c e0 13 90 3c
       0.027420437 0.012635343 0.0120382225 0.017587602
000010 3f 02 95 3c 37 79 e6 3c c4 a1 93 3c 0a da 7f 3c
       0.018189548 0.028133972 0.018021472 0.015615949
000020 62 58 e7 3c 4e 7f 92 3c 74 a2 de 3c c2 f9 cc 3c
       0.028240386 0.01788297 0.027177073 0.025021438
000030 0e 85 c7 3c 8c aa f0 3c 81 de 1a 3c 99 ce 25 3d
       0.024355438 0.029378198 0.009452463 0.04048023
000040 07 01 2d 3c a5 58 7e 3c 1c d2 80 3c 35 3f e3 3c
       0.010559327 0.015524064 0.015725188 0.0277401
000050 b5 5b 9a 3d 79 e6 93 3c 52 eb 2f 3d 2d d4 a5 3c
       0.07537023 0.018054234 0.04294903 0.020242775
000060 a8 c8 0f 3c 97 57 85 3c 70 b4 9f 3c 80 be b9 3c
       0.0087758675 0.016277118 0.019495219 0.022673845
000070 49 3d 77 3c 98 ee dd 3c 65 bd 1b 3d 30 cf 95 3c
       0.015090295 0.02709131 0.038022418 0.018287271

conv5.op.weight f4 [64, 32, 3, 3]
000000 80 17 6a 3d bc 41 64 bd c4 ca 5c 3c 0b c4 63 bd
       0.057151318 -0.05572675 0.0134760775 -0.055606883
000010 5c 0b a3 3a 8a 4b 34 bc 85 e4 9c bc 5c 5d 83 bd
       0.0012439298 -0.011004338 -0.019151935 -0.06414291
000020 a7 1d ed 3c ee 3d 10 bd d9 91 2b bc f8 67 49 bd
       0.028944803 -0.03521531 -0.0104717845 -0.049171418
000030 16 5b 3a 3d 07 54 96 3c 83 f1 af 3c 54 a5 4c 3d
       0.045497023 0.018350614 0.021477466 0.049962357
000040 bf 43 c5 3c 57 56 75 3d 3d 42 e5 bb c3 aa 56 bc
       0.024080155 0.059896793 -0.0069964216 -0.013102236
000050 5b 23 f3 bc 44 04 11 3d 88 7c 9c bd 78 56 02 bd
       -0.029679945 0.03540446 -0.0764094 -0.031820744
000060 8c a3 85 bc e5 6c bc 3c 1a 2a 27 bd b2 3f d5 bc
       -0.016313337 0.023001144 -0.040811636 -0.026031349
000070 6c ed 02 bd c0 e6 b8 bc c8 6e 75 bc 73 e0 d8 3c
       -0.031964704 -0.022570968 -0.014980026 0.026474213
000080 a2 25 07 bd d6 5d 53 bd 33 4c 32 bc 57 3a 49 bd
       -0.032994874 -0.05160316 -0.010882425 -0.049127903
000090 b9 12 88 bc 6a 05 0b bd e0 8b 43 3d 48 bc e2 3c
       -0.01661049 -0.03394071 0.047740817 0.02767767
0000a0 55 99 0c bd 2b e9 20 3d 79 7b 13 bd 87 67 cf bc
       -0.034325916 0.039284866 -0.036006425 -0.02531792
0000b0 b5 cf 2b 3d 3d 6a 3c 3c b2 79 27 3d 8f aa 20 bd
       0.04194613 0.011499939 0.040887542 -0.039225157
0000c0 f8 6e d7 bc ce 65 9b 3c 75 59 2b 3d 8b de 67 bd
       -0.026298031 0.018969443 0.04183336 -0.056608718
0000d0 a0 03 1f 3d eb 5c d7 ba 17 c2 f5 3c 44 7c fb 3c
       0.038821816 -0.001643089 0.029999776 0.030698903
0000e0 4e 36 51 3c 49 c8 86 bc 78 78 d5 3c ff c3 80 bc
       0.012769295 -0.016452925 0.02605842 -0.015718458
0000f0 e4 71 4b bc ca 21 d8 3c 32 6c 11 3d a7 9e 61 3d
       -0.01241729 0.0263833 0.035503574 0.055082943
000100 64 d6 c3 3c ef 14 81 bd 35 f3 53 3c f2 5f cf 3c
       0.02390594 -0.06302821 0.012936403 0.025314305
000110 ed 7e a8 bd 81 7d 92 3d 4c f9 78 3d 27 24 c9 3c
       -0.08227334 0.07152844 0.060784623 0.024553372
000120 f8 48 73 3d 47 5b b3 3d 6b 5a 5a bb 7b 28 8e bc
       0.05939576 0.08757644 -0.0033318053 -0.017353287
000130 48 8d ea bc 9f f6 2e 3d a1 05 83 bc 1e b8 12 3d
       -0.028631821 0.042715665 -0.015993895 0.03582012
000140 2e ea 41 bb 60 d5 ba bc 65 2e 41 3c 31 dd b4 bc
       -0.0029589045 -0.022806823 0.0117908465 -0.022078129
000150 59 d4 c5 3c c0 38 db 3c 5c 09 50 bc 2b 8d 30 bc
       0.024149107 0.026760459 -0.012697544 -0.010775845
000160 b3 2c 11 bc 4f 37 99 ba 76 9d f6 3a b7 18 8c 3d
       -0.008860755 -0.0011689457 0.0018815238 0.068406515
000170 8c 86 a1 bb 9f 71 89 3d d1 de 21 3d 1b d7 e3 bc
       -0.0049293693 0.06711125 0.039519135 -0.027812531
000180 aa ec ea 3c 30 8d 97 3c f3 05 eb bc f1 ba 81 3c
       0.028677303 0.01849994 -0.02868936 0.01583621
000190 96 47 e6 bc 57 8f 48 3d 38 7a 9c bc 9e 85 de bc
       -0.028110307 0.048964825 -0.019101247 -0.027163323
0001a0 d2 7e e9 3b a7 05 7b bd 15 64 7f bd 46 e6 46 3d
       0.007125714 -0.061284687 -0.062351305 0.04855945
0001b0 38 87 50 bc 03 ca b2 3c 26 29 29 bb f9 b5 15 bd
       -0.012727551 0.021824842 -0.002581188 -0.036550496
0001c0 3c 24 48 3d 9a 97 6e 3d 78 9a f4 3c dd 32 3a 3d
       0.04886268 0.058250047 0.029858813 0.045458663
0001d0 f6 aa 18 bc c1 e2 c3 bb 6a 99 7a 3d a2 8f 25 3b
       -0.009318104 -0.005977959 0.061181463 0.0025262614
0001e0 4c 1e 72 3d 12 85 29 3c b3 6c f6 bb 5b ff d6 3c
       0.059110925 0.010346668 -0.007520282 0.02624481
0001f0 be b8 73 3d 16 f0 63 ba 41 6b 75 bb 77 f0 83 3d
       0.059502356 -0.00086951384 -0.0037447962 0.064423494
000200 51 5e 23 3d 4d 5e 0d bc 60 ea 02 3d 91 a9 68 bc
       0.03988487 -0.00862844 0.0319618 -0.014200584
000210 20 3e 59 3d 43 40 08 3d a5 fd 46 3d b6 38 93 bd
       0.053037763 0.03326441 0.048581738 -0.07188551
000220 7f 79 98 bb 30 2f d0 3c 46 6b 9d bc 28 34 bb bb
       -0.0046531553 0.025413126 -0.019216191 -0.0057130046
000230 0c 59 ea bc ba 8c 40 bc 12 5f c5 bb 03 00 e1 bc
       -0.028606914 -0.011752302 -0.006023296 -0.027465826
000240 24 b4 22 bd d8 31 25 3d 80 2c 09 bd 63 76 a8 3d
       -0.039722577 0.040330738 -0.033489704 0.082257055
000250 22 fb 8d 3d c8 21 94 3d 56 af 3e 3d 64 d5 74 3d
       0.069326654 0.07233006 0.046553932 0.059773818
000260 b4 49 c7 3c 22 d8 28 3d 7a d0 e5 bc 83 e1 14 bc
       0.024327137 0.041221745 -0.028053511 -0.009086969
000270 08 21 15 bd e2 26 09 bc d1 5a 79 bc f2 5c 07 b9
       -0.036408454 -0.008371087 -0.015219406 -0.00012909228
000280 5f 63 79 bd 67 be 04 3c 51 31 fa 3a b7 27 d5 bc
       -0.060885783 0.008102036 0.0019088184 -0.026019914
000290 32 8c 04 bd 69 e5 d7 bc c2 96 c0 3c 02 49 a7 3c
       -0.032360263 -0.026354508 0.023509387 0.020420555
0002a0 fa 48 91 ba a4 a1 51 bc 92 04 7b 3b 85 5b d8 bc
       -0.0011084371 -0.012794886 0.0038302285 -0.026410827
0002b0 fb b7 8d 3d 1b 93 cc bc b7 f1 b4 3c ee 7c 39 bd
       0.06919857 -0.02497249 0.022087915 -0.045285158
0002c0 49 bc 26 bd c5 e7 88 bd 4d 70 6a bd 55 54 6b bd
       -0.040706906 -0.066848315 -0.057236005 -0.057453472
0002d0 08 52 f1 bc 77 4a e6 bb e0 66 21 3d 56 82 cc bc
       -0.02945806 -0.00702792 0.03940475 -0.024964493
0002e0 74 23 2e 3c 36 55 6c bd 44 6b 20 bd b0 cb 6d bd
       0.01062857 -0.05769845 -0.039164796 -0.05805558
0002f0 12 f5 67 bd 7f b8 bb 3c e1 d9 83 3d 23 63 06 3d
       -0.0566302 0.022915123 0.064380415 0.032809388
000300 6e 68 d9 3b 28 8b 88 3d 74 35 93 3c 44 70 49 3c
       0.0066347634 0.06667167 0.017969824 0.012294833
000310 67 2c 21 bd dd cb 94 3b b5 2b 7b bb 56 fd 88 3d
       -0.039348986 0.004540904 -0.0038325612 0.06688945
000320 ff f0 d7 3a 73 9a 3e 3d fe f9 19 3c de 4e 4b bc
       0.0016475021 0.046534013 0.009397982 -0.01240894
000330 39 89 1a bc 45 96 fc bc af ea 58 3d d8 9d 41 3d
       -0.0094321305 -0.030833373 0.052958187 0.047269672
000340 44 c4 f3 bc cb aa 0e bd 60 48 d5 3c 1d ba 0f 3d
       -0.029756673 -0.03483085 0.026035488 0.0350896
000350 d8 94 e6 3c d7 7a 8a 3c 82 f6 8e bd d3 04 5b 3d
       0.028147146 0.016904278 -0.069806114 0.053471398
000360 30 69 e9 bc 33 0c 33 bd ec fe e6 3c 13 50 28 3c
       -0.02849254 -0.043712806 0.028197728 0.010272997
000370 8d 49 ea bc aa 4f 1a bd 00 ff 17 3d 2f f4 23 3d
       -0.028599525 -0.03767363 0.03710842 0.040027793
000380 81 c1 b2 3c cc c2 e8 3c ac 60 d3 3c 1f af ca bc
       0.021820785 0.028413199 0.025802933 -0.024741707
000390 00 17 49 bd 63 2d 4a bd 3a 82 26 3d 81 3d 58 bc
       -0.0490942 -0.04935969 0.040651537 -0.013198257
0003a0 85 fc b9 3b bc df 1d 3d 23 f0 01 bd 55 ab 92 bc
       0.0056758546 0.038543448 -0.031723153 -0.017903963
0003b0 1f e2 34 3d 4b 2c 0a bc 16 d0 f8 3c f3 d6 6e 3c
       0.04416096 -0.008433412 0.03037266 0.014577615
0003c0 2f 1e 40 bd 15 8d 91 bd dd c7 5a bc 99 09 33 bd
       -0.046903785 -0.071069874 -0.013353315 -0.043710325
0003d0 55 bc 10 3d 91 70 63 3d 4a de 07 3d 01 f2 83 3d
       0.035335857 0.055527274 0.033170976 0.06442643
0003e0 47 a5 02 bb e3 f2 2f 3d 07 49 1b bd f7 7f 18 bd
       -0.0019934939 0.042956244 -0.03791144 -0.03723141
0003f0 2f 86 9f 3a 4d 5f eb 3c 41 92 83 bd 55 e3 bd bd
       0.0012170727 0.028731966 -0.0642438 -0.09271876

conv5.op.bias f4 [64]
000000 61 e2 1e 3d f2 3e 29 bd b5 08 35 3d 96 8b 1e 3d
       0.03879011 -0.041319795 0.044197757 0.03870734
000010 ac 64 22 bc d0 52 8b bc 1b 2c b4 3c 2b a1 5e bb
       -0.009911697 -0.017007262 0.021993687 -0.0033970575
000020 2e 2d 0d bd f2 20 f9 bc 5c a7 fe 3c 21 ce 60 3d
       -0.034466915 -0.030411217 0.031085663 0.05488408
000030 b7 d2 8d 3b ec b5 43 3d 93 98 68 bd ec b4 1c bd
       0.0043280977 0.047780916 -0.05678613 -0.038258478
000040 77 ee 52 3d fb 27 72 3c ff 0e a4 3c 4b f3 14 3b
       0.05149695 0.01478004 0.020026682 0.0022728022
000050 fd ad 5b bd 6e d8 6b 3d 5b 11 f3 bc 6a a7 81 3d
       -0.053632725 0.05757945 -0.029671362 0.0633076
000060 81 05 41 3d 64 6f 4d 3b 38 28 17 3d 50 88 8e bc
       0.04712439 0.0031346912 0.03690359 -0.017398983
000070 6d 1f f2 bc 34 56 78 bd af b2 23 bd 96 01 17 bb
       -0.029556 -0.060629085 -0.039965328 -0.0023041717
000080 80 e2 28 bd 2a a7 a6 bc c8 4d c9 3c b6 3e 5e bd
       -0.041231632 -0.020343382 0.024573222 -0.054259025
000090 83 17 9a 3c fa 53 c9 3c 52 6d 23 bd 1d d1 09 bd
       0.01881004 0.024576176 -0.039899178 -0.03364669
0000a0 6a 91 e4 3c cf 05 d9 bc a5 94 23 3d 3c 80 de bb
       0.02790137 -0.026492028 0.03993668 -0.006790189
0000b0 a8 9d fb bc e9 92 3c bd ae 32 cb 3c 6a c1 27 3d
       -0.030714825 -0.046038542 0.02480444 0.04095594
0000c0 29 be 19 3d 92 82 1c 3d 4f 1d 8f 3c a2 65 4d 3d
       0.037534866 0.03821046 0.01747003 0.050145753
0000d0 93 9d 8c bc d7 6e 0b 3d 06 1c 5c 3d 59 78 a1 ba
       -0.017164981 0.034041252 0.053737663 -0.0012319192
0000e0 51 6f 9b 3c be 4a 83 3a 97 75 0c 3d 0d 0b 6c 3d
       0.018973978 0.0010016782 0.03429183 0.057627726
0000f0 b7 2e d3 3c b8 c3 06 bd ff 16 1f 3c 76 2a 79 bd
       0.025779111 -0.032901496 0.009710073 -0.06083151

conv5.bn.weight f4 [64]
000000 1b 5e 81 3f 2d 4f 78 3f 1a 2b 7b 3f 9c 03 7d 3f
       1.0106844 0.9699581 0.9811264 0.9883363
000010 3b ca 80 3f 49 1f 83 3f 93 27 7d 3f fa da 82 3f
       1.0061716 1.0243922 0.9888851 1.0223076
000020 4b 51 80 3f 2b 30 79 3f f2 6a 73 3f e0 e1 84 3f
       1.0024809 0.97339123 0.9508506 1.0381432
000030 f4 3c 83 3f 4f 75 74 3f 50 ad 7d 3f af cc 75 3f
       1.0252976 0.954915 0.9909258 0.9601545
000040 35 b2 7d 3f bb b3 81 3f 9a 50 81 3f d3 4e 7f 3f
       0.9910005 1.0132974 1.0102723 0.9972965
000050 2d a8 80 3f 8a 1b 77 3f 2a 60 79 3f 65 c1 81 3f
       1.0051323 0.96526396 0.9741236 1.0137144
000060 42 52 7f 3f fa 3d 87 3f de 09 83 3f 80 80 7c 3f
       0.9973489 1.0565789 1.0237386 0.98633575
000070 5c 3f 77 3f 8a 07 77 3f 6c 88 7b 3f 99 06 75 3f
       0.96581054 0.9649588 0.9825504 0.9571319
000080 0a ba 73 3f cb cb 79 3f eb a7 74 3f 53 dc 76 3f
       0.9520575 0.9757659 0.9556872 0.9642994
000090 ff 93 74 3f c5 6d 80 3f 1d 77 83 3f de 4b 81 3f
       0.95538324 1.0033499 1.0270725 1.0101278
0000a0 30 de 83 3f a8 89 7b 3f 13 ce 75 3f 0d 19 87 3f
       1.0302181 0.9825692 0.9601757 1.055452
0000b0 dd 54 7d 3f c2 0b 78 3f 9a 48 81 3f ba 59 81 3f
       0.98957616 0.9689294 1.0100281 1.0105507
0000c0 3a b0 7a 3f ba 6e 84 3f c6 fc 7e 3f bc 9d 82 3f
       0.9792515 1.0346291 0.9960445 1.0204387
0000d0 24 1c 77 3f 44 22 7c 3f 30 f4 81 3f 2e 40 7f 3f
       0.96527314 0.98489785 1.0152645 0.99707305
0000e0 36 5d 81 3f 7d 40 84 3f c9 49 75 3f a3 17 83 3f
       1.0106571 1.033218 0.9581571 1.0241588
0000f0 78 35 81 3f f1 be 81 3f 5d 3e 82 3f 88 78 7f 3f
       1.0094442 1.0136396 1.0175282 0.9979329

conv5.bn.bias f4 [64]
000000 a0 71 3f bb 90 72 09 bd df db ea bc 2f e3 20 bc
       -0.0029212013 -0.03355652 -0.028669296 -0.00981979
000010 be 2e 01 bb f0 f8 9c bb 85 89 03 bd 3a 49 62 bc
       -0.0019711698 -0.004790418 -0.03211357 -0.013811404
000020 69 ff fc bc b3 2c 1b bd 13 4c bc bc 71 86 e0 3b
       -0.030883508 -0.037884425 -0.022985494 0.006851964
000030 1f 8a 9c bc 7c d9 3a bd c7 f4 9a bc 70 32 a8 bc
       -0.01910883 -0.045617566 -0.018915547 -0.020531863
000040 ff 05 c9 bc d0 4e 03 3c b5 f6 5b bb c9 61 42 bd
       -0.024538992 0.008014396 -0.0033563797 -0.047456536
000050 cd 5f 35 bd 23 20 87 bc 1a 73 1f bc e2 19 6d 3b
       -0.044280816 -0.016494816 -0.009732032 0.0036178757
000060 ff e2 0b bd 98 6d 32 bc 43 df 9f bc 27 82 0d bc
       -0.034152027 -0.010890387 -0.01951564 -0.008636988
000070 18 05 1e bd 1f fc 4b bd bc a8 97 bc a0 d9 45 bd
       -0.038579077 -0.04980099 -0.018513076 -0.048303246
000080 54 e2 80 bd f8 1c 96 bc c8 76 37 bd 0c 63 e7 bc
       -0.06293169 -0.01832436 -0.044791013 -0.028245471
000090 76 d4 77 bd 6d 81 4f bc 04 be 07 bd df be 4f bd
       -0.060505353 -0.012665135 -0.033140197 -0.05071914
0000a0 67 0f 70 3b 88 3e f5 bc c5 48 d8 bc a2 07 96 3c
       0.0036630274 -0.029937044 -0.026401887 0.018314186
0000b0 fe d5 c6 bc 9f 40 db bc aa e8 4e bb a0 af c4 bc
       -0.024271961 -0.026764212 -0.0031571784 -0.024009526
0000c0 b6 f4 24 bd c1 90 1c 3c 71 8a bf bc df df d5 bc
       -0.040272437 0.009555996 -0.023381444 -0.026107727
0000d0 0d 08 13 bd f9 50 60 bc 94 11 dd bc 1b 4b 34 3c
       -0.03589635 -0.01369118 -0.026985921 0.011004235
0000e0 11 9e 85 3c ef bf 8e bc 71 a9 1a bd 6b f2 9a bc
       0.016310723 -0.017425505 -0.03775925 -0.018914422
0000f0 c8 e1 0a 3c 75 86 94 bc bb b7 07 bc 76 96 a0 bc
       0.008476682 -0.01813052 -0.008283551 -0.019602995

conv5.bn.running_mean f4 [64]
000000 9d 35 1a 3e 95 94 ca be 84 6d 60 be 4b d8 15 be
       0.15059514 -0.39566484 -0.21916777 -0.1463329
000010 f5 c4 a7 be c0 30 1c be 73 4a a9 bd c3 c1 02 be
       -0.32767454 -0.15252972 -0.08266153 -0.12769227
000020 f2 53 1a bd b1 01 42 be bf 38 92 bd 0a 71 0f 3e
       -0.037677713 -0.18945958 -0.0713973 0.14007965
000030 44 28 43 bd 18 b9 5b be c7 49 9d be a6 d1 bd be
       -0.047645822 -0.21457326 -0.3072035 -0.37074012
000040 8e f2 be bd 6e 28 4d be a6 7c d3 bd c4 1b 14 be
       -0.093236074 -0.20034954 -0.10326509 -0.14463717
000050 18 e2 4c be f4 44 54 be 90 e0 0c 3e aa 74 03 be
       -0.20008123 -0.20729429 0.13757539 -0.12837473
000060 43 7f b0 3d 23 6d d2 bc b1 89 25 be 95 26 3d be
       0.08618023 -0.025686806 -0.16165806 -0.18471749
000070 c7 e9 52 be 3c 94 66 be 00 fd 13 be cb ce 88 be
       -0.20596991 -0.22517484 -0.1445198 -0.2672027
000080 d0 33 c1 be 66 46 b7 bd 7f c1 53 bd 31 17 32 be
       -0.37734842 -0.08948974 -0.051698204 -0.1739166
000090 92 a6 87 bd d6 ea 96 3c c9 ee c2 bd ea d1 ed bd
       -0.06623568 0.018422525 -0.09518201 -0.116123036
0000a0 33 a9 4e be 96 56 43 be e7 fd a9 bc 68 6b 8a bc
       -0.20181732 -0.19075999 -0.020750953 -0.016896918
0000b0 d2 42 2b be 06 f8 51 be c0 e6 26 be fa b1 71 bc
       -0.16724709 -0.2050477 -0.16298962 -0.014751906
0000c0 bb 0a 5c bc 8a da 55 3e db 87 e4 bd 29 b4 3a bd
       -0.013430293 0.20884147 -0.11158725 -0.04558197
0000d0 33 ef 41 be 98 72 c1 bd f0 f1 ed 3a 9c 19 23 be
       -0.18938904 -0.09445685 0.0018153768 -0.15927738
0000e0 c4 3b 07 3e 2a 6c 9f bd 61 25 42 be e4 da a3 bd
       0.13206393 -0.077843025 -0.18959571 -0.080007344
0000f0 f9 26 8e 3e 52 32 a5 bc 73 5e 5d be 7c 15 3b be
       0.2776411 -0.020165596 -0.21618061 -0.18269914
