Results/leftandright/1D/200Epochs/width whole/checkpoint.pth.tar (torch, 581158 bytes, 21 tensors)

conv1.op.weight f4 [50, 128, 1]
0.0021534618 0.04643333 -0.07857497 -0.062232997 -0.046934113 0.030417731 0.0010576764 0.06715175
-0.0027499495 0.013837451 -0.050163247 -0.014620898 -0.115495495 -0.07839851 -0.03369252 -0.012089595
0.034681924 0.051978275 -0.03569823 -0.035110697 0.059246648 0.088705905 -0.012228508 0.10133846
-0.007196987 0.024707125 0.093606785 -0.07212144 -0.049681325 -0.02259872 -0.018703695 0.07436934
-0.051880445 -0.029020574 -0.05930138 -0.07527701 -0.048427157 0.078687966 0.035394493 0.044177458
0.0025729607 -0.059406135 0.017685108 -0.1057301 -0.07321124 -0.059673242 0.031498857 0.048575163
-0.07142556 -0.00037638537 0.043127283 0.09035394 0.047402583 0.015396439 0.080076225 -0.045263857
0.033491235 -0.060545214 -0.053943794 -0.04059517 0.041620735 0.035441652 -0.05138945 0.025996016
0.048196457 -0.009164358 0.004305039 0.016238553 0.05225735 0.08241767 -0.07119211 -0.036741756
0.027990209 0.07078705 0.077188 0.081137136 0.021005929 -0.07450737 0.009331779 -0.055190787
-0.08196731 0.07990854 0.069224864 -0.085536465 0.019606568 -0.011770715 -0.011295308 -0.037407696
0.03674417 -0.050017964 0.03422399 0.0462918 0.06483183 0.034707014 -0.08599485 -0.05580897
0.0456535 0.02026349 -0.06712382 -0.04902534 0.08517501 0.06169196 -0.03614099 -0.019719455
-0.08130404 0.0014103866 -0.063593954 -0.06500332 -0.0014508478 0.016669128 -0.03298811 0.055499762
-0.050917197 0.083008334 0.06326776 -0.071767285 -0.019318143 0.0066289 0.0155516 0.023638254
0.037506495 0.008130306 -0.040308803 0.04464012 -0.08197126 -0.04957321 -0.019310944 -0.044037174
-0.030897915 -0.078419484 -0.028738124 0.018916678 -0.05735774 0.0046774773 0.063292384 -0.0110199535
0.0025053031 -0.014951502 0.007241213 0.056197416 0.08975999 0.05868059 0.08388064 0.018668141
-0.080113634 -0.033544112 0.078736596 0.000111886846 -0.051285535 -0.074667394 -0.07848919 -0.083771355
-0.019767646 0.04902874 0.04029026 -0.082337685 0.055571757 -0.06873622 -0.011794044 -0.043811303
-0.019086994 -0.021850677 -0.07889339 -0.07923107 -0.018982904 0.0011742454 -0.05016904 0.032966148
-0.08325248 -0.014752732 0.07774561 -0.045453183 0.07667772 0.030554302 -0.08153109 0.055431604
-0.005694733 -0.039436 0.07944212 -0.0712807 0.022199113 -0.018138086 0.07335693 0.024800971
0.046929013 0.027554141 -0.026119785 -0.025285099 -0.07593528 0.043921653 0.068145305 0.055475235
-0.066157185 -0.004154192 -0.06914362 -0.05804783 -0.06184567 0.019273495 -0.064042896 -0.0052881516
0.0049562324 0.05797512 -0.066105686 -0.060213182 -0.05007335 0.06321757 -0.030636717 0.07540891
0.033443697 0.011394512 -0.000687612 -0.017990407 0.010407559 -0.02080326 -0.0013123122 0.01022041
-0.06985465 -0.04732742 0.070392385 -0.0734532 -0.007902169 0.08568143 0.030187815 0.001448444
-0.07745232 0.043399546 -0.06375929 -0.02547733 -0.029681154 -0.012842657 0.0014730695 0.07349864
0.011928508 0.08034609 0.055058137 -0.0550704 0.04048341 -0.062097732 -0.036867257 0.026097896
0.029396215 0.06613674 -0.02848878 2.8590424e-05 0.04520727 -0.08605231 0.06379618 -0.07305278
0.0012760152 -0.01498652 -0.046526667 0.011706267 0.07311296 -0.025814496 -0.05245229 -0.03866383
00000000: 1821 0d3b e030 3e3d eaeb a0bd 07e8 7ebd
00000010: fc3d 40bd 9b2e f93c bba1 8a3a db86 893d
00000020: 7f38 34bb 7ab6 623c fa77 4dbd 7e8c 6fbc
00000030: e788 ecbd 668f a0bd 2b01 0abd 7013 46bc
00000040: a20e 0e3d 2ce7 543d 4f38 12bd 3cd0 0fbd
00000050: 9dac 723d 71ab b53d 145a 48bc 8a8a cf3d
00000060: b4d4 ebbb 9966 ca3c eab4 bf3d 68b4 93bd
00000070: a57e 4bbd f320 b9bc 7e38 99bc f44e 983d
00000080: 9780 54bd 8ebc edbc 01e6 72bd d52a 9abd
00000090: 8e5b 46bd 2827 a13d d1f9 103d 6cf3 343d
000000a0: 1e9f 283b d953 73bd 5ce0 903c 0689 d8bd
000000b0: c6ef 95bd ee6b 74bd f204 013d c0f6 463d
000000c0: 9047 92bd 9755 c5b9 3ca6 303d 7d0b b93d
000000d0: 3629 423d 5841 7c3c 01ff a33d 9866 39bd
000000e0: 1b2e 093d 42fe 77bd 2bf4 5cbd 1f47 26bd
000000f0: 817a 2a3d 442b 113d be7d 52bd 99f5 d43c
00000100: a669 453d 1a26 16bc 4911 8d3b b706 853c
00000110: ce0b 563d 98ca a83d 2bcd 91bd 867e 16bd
00000120: b94b e53c cdf8 903d be14 9e3d 3a2b a63d
00000130: a014 ac3c 5297 98bd 51e4 183c bc0f 62bd
00000140: 7ade a7bd 17a7 a33d c4c5 8d3d be2d afbd
00000150: f49d a03c f5d9 40bc f50f 39bc d038 19bd
00000160: 0e81 163d a3df 4cbd 742e 0c3d 789c 3d3d
00000170: 8dc6 843d f128 0e3d 111e b0bd f297 64bd
00000180: 2aff 3a3d 9eff a53c 3778 89bd cbce 48bd
00000190: 3c70 ae3d b5b0 7c3d 9308 14bd b28a a1bc
000001a0: bc82 a6bd b9dc b83a 8c3d 82bd 7620 85bd
000001b0: 602a beba b28d 883c 8a1e 07bd b853 633d
000001c0: 8d8e 50bd 4600 aa3d 8792 813d bafa 92bd
000001d0: 1541 9ebc 3e37 d93b 23cc 7e3c 03a5 c13c
000001e0: 69a0 193d fa34 053c d81a 25bd 8fd8 363d
000001f0: 8ce0 a7bd 470d 4bbd fc31 9ebc 5360 34bd
00000200: a01d fdbc 659a a0bd 376c ebbc 26f7 9a3c
00000210: f3ef 6abd 8645 993b 709f 813d 098d 34bc
00000220: 0330 243b 25f7 74bc b347 ed3b 432f 663d
00000230: 16d4 b73d 0f5b 703d 9dc9 ab3d eeed 983c
00000240: 9e12 a4bd 8d65 09bd a740 a13d cba4 ea38
00000250: c810 52bd 38eb 98bd f1be a0bd 5190 abbd
00000260: c2ef a1bc 5cd2 483d 6607 253d a9a0 a8bd
00000270: 369f 633d 93c5 8cbd ce3b 41bc 7b73 33bd
00000280: 545c 9cbc 3100 b3bc dc92 a1bd e643 a2bd
00000290: 0982 9bbc 23e9 993a 0d7e 4dbd 8307 073d
000002a0: 4780 aabd 71b5 71bc 1739 9f3d 1e2d 3abd
000002b0: 3509 9d3d 044d fa3c c6f9 a6bd 400c 633d
000002c0: e29a babb a587 21bd 8db2 a23d 9efb 91bd
000002d0: eada b53c 5396 94bc 283c 963d 682b cb3c
000002e0: a338 403d 39b9 e13c 29f9 d5bc b222 cfbc
000002f0: f583 9bbd 31e7 333d c48f 8b3d 003a 633d
00000300: 6b7d 87bd e31f 88bb 2c9b 8dbd 90c3 6dbd
00000310: e351 7dbd 73e3 9d3c ec28 83bd 3b48 adbb
00000320: e467 a23b 5277 6d3d 6b62 87bd 19a2 76bd
00000330: b719 4dbd 3778 813d daf9 fabc fd6f 9a3d
00000340: 42fc 083d 0cb0 3a3c dc40 34ba 9e60 93bc
00000350: 7784 2a3c 996b aabc e401 acba 8273 273c
00000360: f40f 8fbd 66da 41bd e229 903d a26e 96bd
00000370: 1978 01bc bf79 af3d 704c f73c b7d9 bd3a
00000380: 529f 9ebd b9c3 313d 3b94 82bd d5b5 d0bc
00000390: e425 f3bc 026a 52bc 0314 c13a 7486 963d
000003a0: ca6f 433c 7e8c a43d a484 613d 8091 61bd
000003b0: efd1 253d 315a 7ebd 1f02 17bd 41cb d53c
000003c0: 55d0 f03c b372 873d 4d61 e9bc 78d5 ef37
000003d0: 422b 393d 323c b0bd 92a7 823d b29c 95bd
000003e0: f73f a73a 058a 75bc bf92 3ebd a4cb 3f3c
000003f0: 3fbc 953d ec78 d3bc 36d8 56bd f75d 1ebd

conv2.op.weight f4 [24, 50, 3]
0.046561457 -0.007980961 -0.009512463 0.017287876 0.018205015 0.070709966 0.09965677 0.024949325
0.08508719 -0.051020563 0.00920733 -0.04918304 0.064805984 0.02799969 -0.047896948 -0.094317965
-0.026705982 -0.043616913 -0.06738094 -0.10920928 -0.09012084 0.07197688 -0.029143885 0.046138767
0.0064746365 -0.009599987 0.028456341 0.058353376 0.0133035565 -0.008718343 0.085389785 -0.008503325
-0.01602657 0.09343726 -0.043978665 0.07108413 -0.055497173 -0.002220744 -0.059735857 0.0631503
-0.05491119 -0.04195218 0.06448014 0.032566637 0.06711401 0.053000342 -0.069367066 -0.06170062
-0.061998293 0.079890504 0.021584405 -0.096295774 -0.1276402 0.037104387 0.0748079 -0.04958998
0.02064367 -0.03899981 0.026174475 -0.06994531 0.06075255 0.08598405 0.05405276 -0.012741749
0.0076475414 0.03039727 -0.022052124 0.030473871 0.009356172 0.057548612 -0.038961813 0.07227545
-0.07034379 -0.04143991 0.059894554 0.0053666066 -0.04291816 0.0283802 -0.03304821 -0.0685481
-0.07003435 0.02906559 0.00759916 -0.032365188 0.028731974 -0.028780475 -0.067667164 0.029354183
-0.026754715 -0.023865998 0.11398522 0.14866236 0.01420608 0.07115953 0.07417357 -0.05762596
-0.07986616 -0.0631006 -0.021403188 0.010428815 0.022772048 0.010665184 0.014100309 -0.06580187
0.08430877 0.06970384 0.039539304 0.01974155 -0.04784155 0.004163318 -0.061070412 0.11433299
-0.02513911 0.09628575 0.08190853 -0.031305213 -0.06708611 0.025866084 -0.010896218 -0.014155258
-0.060811583 0.055977058 -0.042108055 -0.11710494 -0.08947569 0.014729682 0.03846477 0.05196948
-0.010584869 -0.09306563 0.0013967457 0.010606029 0.08473833 -0.037114657 0.0007075863 -0.007600438
-0.023565462 0.0051728482 -0.026918706 0.07617923 0.027860066 -0.030158225 -0.039224453 0.025100872
-0.0032995206 -0.034619212 -0.03669665 0.17084512 0.17668712 0.19075327 -0.029300138 -0.043654524
-0.045887996 -0.04616391 0.088635266 -0.031875677 -0.02877445 0.062581226 0.07130882 -0.074578434
-0.009532388 0.025407469 0.022891123 -0.0363181 -0.055606898 -0.04628897 0.03581285 -0.011294837
-0.059254963 0.09226249 0.046536013 -0.018556124 0.019190108 -0.022399103 -0.047187574 -0.0694136
0.059939656 -0.06827827 -0.055867225 0.07450209 -0.056869283 -0.033253115 -0.0074705137 -0.08171565
-0.07246752 -0.065820985 -0.016441556 -0.032441158 0.05760272 0.052006524 0.07812068 -0.069659926
-0.035951663 0.06192657 0.037843354 -0.054657 0.058597755 -0.051072326 0.08383485 -0.059008565
0.048537325 0.0013775743 -0.06241674 0.043095037 -0.023997916 0.007561758 -0.018570913 -0.023258414
-0.027476126 0.032854285 0.0040985085 0.06523773 0.043940425 0.0042884597 0.037250407 -0.021161407
-0.065984964 -0.052536506 -0.049494304 -0.06653584 0.012766325 -0.009078621 -0.07820115 0.03549369
0.049871746 0.08710415 0.020758653 0.011538224 0.05643098 -0.06362383 0.01285598 0.059099797
0.062176097 0.015291799 -0.0008309013 0.035705846 0.023366394 0.0043462897 0.07155871 0.0766059
-0.017452572 0.10422207 0.0070251534 0.02376449 0.0789585 -0.032293543 0.044355627 -0.004903545
-0.039958026 -0.00090279954 0.07519346 0.051957864 -0.03454847 0.08058324 0.022857312 0.07643729
00000000: 3ab7 3e3d 94c2 02bc 29da 1bbc 4e9f 8d3c
00000010: af22 953c 63d0 903d d918 cc3d 8762 cc3c
00000020: 3142 ae3d f0fa 50bd 57da 163c 2874 49bd
00000030: 00b9 843d 9b5f e53c 972f 44bd c729 c1bd
00000040: 81c6 dabc a6a7 32bd 05ff 89bd 1da9 dfbd
00000050: 4691 b8bd 9d68 933d 28bf eebc 01fc 3c3d
00000060: 3029 d43b 4449 1dbc 461d e93c f303 6f3d
00000070: 29f7 593c 62d7 0ebc d7e0 ae3d 8851 0bbc
00000080: 274a 83bc 095c bf3d f922 34bd 8e94 913d
00000090: 0151 63bd e789 11bb 96ad 74bd f254 813d
000000a0: 8eea 60bd 0dd6 2bbd 2a0e 843d 9864 053d
000000b0: 1273 893d e316 593d 5210 8ebd cab9 7cbd
000000c0: ecf1 7dbd a29d a33d c7d1 b03c b836 c5bd
000000d0: 1db4 02be c5fa 173d e234 993d dd1e 4bbd
000000e0: ea1c a93c 44be 1fbd da6b d63c 7d3f 8fbd
000000f0: aad7 783d 6818 b03d 6d66 5d3d c5c2 50bc
00000100: 3a98 fa3b b203 f93c a8a6 b4bc 57a4 f93c
00000110: a14a 193c 18b8 6b3d 6c96 1fbd 2705 943d
00000120: 6810 90bd e5bc 29bd fe53 753d 5cda af3b
00000130: f4ca 2fbd 987d e83c 8f5d 07bd f262 8cbd
00000140: 2b6e 8fbd f61a ee3c 6002 f93b 5c91 04bd
00000150: 515f eb3c 08c5 ebbc 1595 8abd 2f78 f03c
00000160: b42c dbbc a082 c3bc 1571 e93d f23a 183e
00000170: 9ec0 683c 16bc 913d 50e8 973d 3309 6cbd
00000180: df90 a3bd e33a 81bd bd55 afbc 9fdd 2a3c
00000190: 728c ba3c 06bd 2e3c fc04 673c 21c3 86bd
000001a0: 14aa ac3d e3c0 8e3d f7f3 213d 08b9 a13c
000001b0: 80f5 43bd 716c 883b f824 7abd 6a27 ea3d
000001c0: 89f0 cdbc 7731 c53d a9bf a73d e539 00bd
000001d0: 7164 89bd 1ce5 d33c 0d86 32bc 75eb 67bc
000001e0: 9115 79bd 3348 653d 7f79 2cbd b7d4 efbd
000001f0: 083f b7bd c454 713c 3c8d 1d3d f3dd 543d
00000200: 296c 2dbc 3199 bebd 0213 b73a e9c4 2d3c
00000210: 4a8b ad3d 8a05 18bd 507d 393a 180d f9bb
00000220: 5b0c c1bc ff80 a93b 9e84 dcbc db03 9c3d
00000230: cb3a e43c 620e f7bc d2a9 20bd 58a0 cd3c
00000240: c53c 58bb e0cc 0dbd 3a4f 16bd 06f2 2e3e
00000250: 78ed 343e d354 433e d806 f0bc 16cf 32bd
00000260: 0df5 3bbd 5e16 3dbd 6886 b53d 1290 02bd
00000270: 65b8 ebbc 962a 803d 5c0a 923d 94bc 98bd
00000280: bc2d 1cbc 5323 d03c 2a86 bb3c 4ac2 14bd
00000290: 0fc4 63bd 8199 3dbd 7fb0 123d fb0d 39bc
000002a0: 55b5 72bd 1ef4 bc3d 8c9c 3e3d 0303 98bc
000002b0: 9334 9d3c 537e b7bc c247 41bd b828 8ebd
000002c0: 4983 753d 7ad5 8bbd 08d5 64bd 8d94 983d
000002d0: c4ef 68bd 6b34 08bd 36cb f4bb 895a a7bd
000002e0: da69 94bd 27cd 86bd 71b0 86bc 05e1 04bd
000002f0: d4f0 6b3d cb04 553d bcfd 9f3d dda9 8ebd
00000300: 0d42 13bd b7a6 7d3d a201 1b3d 05e0 5fbd
00000310: 3304 703d 3731 51bd 9bb1 ab3d f7b2 71bd
00000320: 13cf 463d b98f b43a b2a8 7fbd 6c84 303d
00000330: 4797 c4bc a0c8 f73b 0722 98bc 6e88 bebc
00000340: 9d15 e1bc 3792 063d c84c 863b 5c9b 853d
00000350: e0fa 333d 3586 8c3b e293 183d b05a adbc
00000360: 2023 87bd 8530 57bd 8aba 4abd f143 88bd
00000370: d929 513c 7fbe 14bc ed27 a0bd d561 113d
00000380: 5146 4c3d a963 b23d 0d0e aa3c d20a 3d3c
00000390: 2c24 673d 364d 82bd e3a1 523c a112 723d
000003a0: 5dac 7e3d 748a 7a3c d8d0 59ba 4b40 123d
000003b0: e16a bf3c 526b 8e3b 5f8d 923d 8ee3 9c3d
000003c0: b2f8 8ebc 6172 d53d 4233 e63b bfad c23c
000003d0: feb4 a13d 3c46 04bd 3fae 353d ebad a0bb
000003e0: 07ab 23bd daa9 6cba 07ff 993d c5d1 543d
000003f0: b282 0dbd d308 a53d 423f bb3c 278b 9c3d

conv3.op.weight f4 [48, 24, 3]
0.1113321 -0.018740121 -0.075757556 -0.054992642 0.018231839 0.030704401 -0.056301802 0.037545286
-0.008318726 0.16257288 0.11902133 0.118029 0.07795947 -0.017368723 -0.02283867 0.13976428
-0.02666877 0.12286606 0.11063379 0.17792231 0.08759235 -0.07108251 0.0052909837 0.0361221
-0.086406365 -0.045403685 0.08649042 0.023703065 0.039894532 0.02345625 0.0339158 -0.080137655
-0.02862254 -0.007864307 -0.052274745 -0.10482494 -0.055992145 -0.0035219623 -0.07495844 0.007913665
0.016195497 0.02456026 -0.15739632 0.0789665 -0.02859401 0.05814216 -0.11269704 -0.0066358545
0.04742564 -0.065510586 -0.014098161 -0.10305269 0.044368718 0.10101114 0.030572975 0.068553634
-0.014599155 0.045639794 -0.10954187 0.12750989 0.0074412813 0.084532484 0.19223471 -0.0962646
-0.07072252 0.012624763 -0.110708654 0.053568188 0.031915423 -0.12092436 -0.023043228 -0.05467566
0.011384862 0.086844325 0.112179175 -0.110195786 0.042023793 -0.09070943 0.04188843 0.06487051
-0.11227159 -0.08506408 -0.1056744 -0.011049653 0.043189056 -0.086448036 -0.007667931 -0.041025884
0.106918015 -0.108051874 -0.06541204 -0.0011040086 -0.09184093 0.090715416 -0.10827368 -0.03802139
-0.04928224 -0.0010799568 -0.055992678 0.08460661 -0.10145584 -0.062162444 -0.053939957 -0.11263918
-0.11689156 0.04158385 0.11099562 -0.018018255 -0.04572402 0.05151948 0.06944359 -0.10576669
-0.056267925 0.099612474 0.052455295 -0.109408066 0.0022032827 -0.089244336 -0.09116164 -0.058534216
0.11697084 -0.067952156 0.08100471 -0.106951155 -0.00810741 0.10657922 -0.026462011 -0.040616944
-0.052101582 -0.085177206 0.037812874 -0.08590975 -0.074956626 0.1023745 0.087695144 -0.06162205
0.0024879004 -0.031665053 0.08971897 -0.105806194 -0.105883814 0.05768576 0.005616475 -0.03447431
0.07647307 0.07159476 -0.080179274 0.061496366 0.057669397 -0.026611542 -0.11010137 0.037674077
0.05863198 -0.10811542 -0.043844324 0.11292355 -0.06824434 -0.038506854 0.0798216 0.033115968
0.09994924 0.044333547 0.14499938 0.09535037 0.089883186 0.020459015 -0.09571022 0.06943776
0.011227401 0.102862656 -0.07075542 -0.09311452 0.08794259 -0.057023387 0.036303632 0.11862698
0.02225109 -0.066618636 -0.07007208 -0.082500786 -0.0928591 0.06030323 -0.012027551 0.010168693
0.067727596 0.11612649 -0.06515715 -0.011076036 -0.07299876 0.046818707 0.0059333756 -0.02195954
0.14422368 0.17798266 0.15461077 -0.11756776 -0.13373184 0.039668296 -0.015821492 0.045282196
-0.037518192 -0.04813432 -0.06584178 0.06397332 -0.080664895 -0.04765886 0.10292118 -0.017065898
-0.010288944 -0.11785867 -0.07360718 0.057959136 0.08073375 -0.1840581 -0.14762877 0.00913502
-0.08485897 -0.05943544 -0.06207351 -0.05313307 -0.020799054 0.120327994 -0.07946786 0.104456656
-0.075241975 -0.015015272 -0.028510895 0.08395751 -0.06769718 -0.035182916 -0.086925104 -0.02558016
0.05029492 0.11410519 0.122498676 -0.017953746 -0.05084827 0.04879237 0.10009088 0.12790951
0.08755658 -0.00034692168 -0.09120545 -0.043568213 0.094625704 -0.07993399 -0.06430517 -0.058866967
-0.012924275 0.048144888 0.066633396 0.082601115 0.08051025 0.050613225 -0.0028323308 -0.04707813
00000000: 1602 e43d e284 99bc c726 9bbd f73f 61bd
00000010: f05a 953c cc87 fb3c b89c 66bd 16c9 193d
00000020: 444b 08bc 8179 263e 74c1 f33d 30b9 f13d
00000030: 37a9 9f3d da48 8ebc 2a18 bbbc 5e1e 0f3e
00000040: 7778 dabc 33a1 fb3d f893 e23d 4431 363e
00000050: 9e63 b33d b593 91bd fd5f ad3b c4f4 133d
00000060: d2f5 b0bd 37f9 39bd e421 b13d ee2c c23c
00000070: 7368 233d 5227 c03c 4beb 0a3d 361f a4bd
00000080: d179 eabc 4bd9 00bc 0b1e 56bd 75ae d6bd
00000090: 0558 65bd b9d0 66bb d083 99bd 51a8 013c
000000a0: 6bac 843c 9932 c93c 802c 21be 30b9 a13d
000000b0: fc3d eabc 7926 6e3d b5cd e6bd 9571 d9bb
000000c0: 6341 423d 6a2a 86bd f9fb 66bc 4a0d d3bd
000000d0: f9bb 353d eede ce3d 2d74 fa3c d965 8c3d
000000e0: 4b31 6fbc cbf0 3a3d 7d57 e0bd f491 023e
000000f0: fed5 f33b 5e1f ad3d 2dd9 443e 6026 c5bd
00000100: f8d6 90bd 18d8 4e3c 38bb e2bd 516a 5b3d
00000110: bfb9 023d 31a7 f7bd 27c5 bcbc 96f3 5fbd
00000120: 9287 3a3c 70db b13d 32be e53d 54ae e1bd
00000130: 2421 2c3d dec5 b9bd 3493 2b3d d4da 843d
00000140: a6ee e5bd 1436 aebd d26b d8bd 9b09 35bc
00000150: 02e7 303d ab0b b1bd 4443 fbbb c20a 28bd
00000160: d5f7 da3d 4d4a ddbd bff6 85bd 62b4 90ba
00000170: 1917 bcbd 01c9 b93d 97be ddbd 51bc 1bbd
00000180: 2ddc 49bd 568d 8dba 9458 65bd 3b46 ad3d
00000190: 14c8 cfbd 0c9e 7ebd 25f0 5cbd 5faf e6bd
000001a0: d864 efbd d453 2a3d ac51 e33d 059b 93bc
000001b0: 1c49 3bbd 1706 533d 7138 8e3d 359c d8bd
000001c0: 3279 66bd a001 cc3d 5ddb 563d 5611 e0bd
000001d0: f364 103b bcc5 b6bd f4b2 babd 93c1 6fbd
000001e0: 688e ef3d 802a 8bbd cce5 a53d 3509 dbbd
000001f0: f1d4 04bc 3546 da3d dcc6 d8bc f45d 26bd
00000200: 7868 55bd 6371 aebd ace1 1a3d 73f1 afbd
00000210: dc82 99bd b9a9 d13d 8399 b33d 6767 7cbd
00000220: 0b0c 233b 37b3 01bd 94be b73d ebb0 d8bd
00000230: 9dd9 d8bd e747 6c3d 680a b83b ef34 0dbd
00000240: ea9d 9c3d 46a0 923d 0835 a4bd 9de3 7b3d
00000250: bf36 6c3d 7300 dabc d47c e1bd 2250 1a3d
00000260: 1628 703d 9e6b ddbd 1b96 33bd 7644 e73d
00000270: b0c3 8bbd 5db9 1dbd 8279 a33d 9ca4 073d
00000280: 30b2 cc3d 1897 353d b87a 143e 0e47 c33d
00000290: ad14 b83d aa99 a73c b803 c4bd 6235 8e3d
000002a0: 22f3 373c a8a9 d23d 38e8 90bd d3b2 bebd
000002b0: 3f1b b43d 5b91 69bd 1eb3 143d b4f2 f23d
000002c0: eb47 b63c 5a6f 88bd f381 8fbd 2cf6 a8bd
000002d0: e92c bebd 8500 773d 350f 45bc 979a 263c
000002e0: c4b4 8a3d bad3 ed3d 1d71 85bd 4378 35bc
000002f0: 6080 95bd f9c4 3f3d c36c c23b 7ee4 b3bc
00000300: 5faf 133e 1641 363e 4952 1e3e 5ec7 f0bd
00000310: 00f1 08be 397b 223d 139c 81bc d379 393d
00000320: adac 19bd 7e28 45bd 0ed8 86bd 7204 833d
00000330: a333 a5bd f035 43bd 57c8 d23d c8cd 8bbc
00000340: f592 28bc e35f f1bd 5cbf 96bd 8f66 6d3d
00000350: bc57 a53d ba79 3cbe ff2b 17be 0dab 153c
00000360: 8aca adbd 9372 73bd cb40 7ebd 10a2 59bd
00000370: c762 aabc 866e f63d 0cc0 a2bd 5fed d53d
00000380: 7718 9abd 9e02 76bc ae8f e9bc eaf1 ab3d
00000390: d2a4 8abd f61b 10bd ca05 b2bd 7c8d d1bc
000003a0: 0c02 4e3d fbaf e93d 96e0 fa3d bc13 93bc
000003b0: 4746 50bd 82da 473d 73fc cc3d b6fa 023e
000003c0: dd50 b33d 0ae3 b5b9 ecc9 babd 9574 32bd
000003d0: 1fcb c13d 6fb4 a3bd 6eb2 83bd 7d1e 71bd
000003e0: 57c0 53bc 9333 453d 1777 883d c62a a93d
000003f0: 8fe2 a43d d04f 4f3d a09e 39bb ffd4 40bd

conv5.op.weight f4 [64, 48, 3]
-0.081129305 -0.0017812587 -0.009884739 0.07731131 0.043997526 0.022083512 -0.02452801 -0.060116637
0.034360852 0.0832617 0.023064455 0.08019972 0.07487776 -0.056555267 0.020561904 -0.015166851
0.009988759 0.0133138355 0.014315158 0.04892274 0.061215196 0.01144353 -0.023411902 -0.02046802
0.026987825 0.03620417 0.07874989 -0.06332587 -0.056742948 -0.03784528 0.040811606 0.06223879
-0.010434465 -0.04777518 0.025453895 -0.052068315 0.057766173 -0.061551657 0.016151667 0.0056590834
0.046451986 -0.052034818 0.04354905 0.008113572 0.01595304 -0.053262204 0.08594699 0.000530394
-0.04507463 -0.020631408 -0.023912545 0.08598129 0.06684467 0.010223018 0.08669508 0.0069333888
0.020263012 0.013055848 -0.0142708765 -0.057993565 0.03228126 0.0007870096 0.04382931 -0.025991889
-0.01898416 -0.037383333 -0.02899899 -0.06592431 0.011794028 -0.0727189 -0.037940834 0.020531718
0.046652697 0.054572314 -0.0671699 0.019467734 -0.08433422 0.03766601 -0.068794966 0.011294021
0.01953081 -0.03139669 0.01999427 0.043546014 0.027019486 0.017708356 0.08888652 0.07989609
-0.05969712 0.07840195 0.0718419 -0.008907505 0.023929317 -0.03125143 -0.026719825 0.023730116
-0.02863628 0.02808356 0.041323952 0.056467235 -0.054868612 -0.032763902 -0.010645428 0.036686655
-0.025622448 -0.042651717 -0.01671789 0.022702474 -0.0049457084 -0.035656784 0.03725738 -0.049850617
-0.0828721 0.044191826 0.08028043 0.0043363827 0.057891518 0.059892125 0.076353945 0.014789305
-0.0025818 -0.07446836 0.0029795014 -0.024996908 0.0037106948 0.09354199 -0.026809992 -0.06720041
0.087826885 -0.013107662 -0.060412277 -0.012529244 -0.0015972172 0.020550748 0.07571978 -0.038905367
-0.04235728 0.00061161374 0.077877186 0.098413676 -0.036087517 -0.06610212 -0.038784254 -0.09519669
0.015509743 0.117989555 0.07097913 0.060415976 -0.013547997 -0.041105203 0.1287604 0.00013071219
-0.022230713 0.08490318 -0.000624679 0.042999588 -0.014246156 0.06489204 0.07271786 -0.033423193
-0.07332369 0.0016552323 -0.04406292 0.06722124 0.07417129 0.018130131 0.07764758 0.06730024
0.1135915 0.029710311 -0.13996582 -0.034449946 0.10784104 0.03378475 -0.06390624 0.08870018
0.009190498 -0.128041 -0.06313446 -0.10937878 -0.028517997 -0.0012429167 -0.0038119624 -0.0052483673
-0.00072950823 0.0708296 0.06561398 -0.07391815 0.022113713 0.032253116 0.032781288 -0.05472335
-0.05363761 -0.059371028 -0.10072209 -0.012584653 -0.008951768 -0.08415144 0.049888883 -0.032244325
-0.032324746 0.057874653 0.13152462 0.038717825 -0.04412709 0.075593755 -0.010193648 -0.020389676
-0.11601974 0.071146935 -0.049545154 0.015999628 0.0014909671 0.034637276 0.068966866 0.036336724
-0.004617716 0.013275416 0.004879809 -0.020691508 -0.116416566 0.0039513432 -0.07623616 0.05889378
-0.023278233 -0.020035174 -0.03433411 -0.03940394 -0.018416688 -0.063809626 -0.058688927 0.042791422
0.08347689 -0.07916701 -0.042325318 0.009633268 -0.031393833 0.042717796 0.0031037978 0.0029462134
-0.03856374 -0.06788601 -0.0041469773 0.07137024 0.10234498 0.07298553 0.02137937 0.08099998
-0.038990166 0.046889205 -0.023253312 -0.070915684 0.0069199726 0.16235398 -0.036193345 -0.10507506
00000000: 1f27 a6bd 2079 e9ba 9af3 21bc 6455 9e3d
00000010: c036 343d 7be8 b43c f7ee c8bc dd3c 76bd
00000020: f7bd 0c3d 1c85 aa3d abf1 bc3c c03f a43d
00000030: 8359 993d 7fa6 67bd 7071 a83c 627e 78bc
00000040: e4a7 233c 4622 5a3c 208a 6a3c 3663 483d
00000050: c9bc 7a3d a57d 3b3c 51ca bfbc 8dac a7bc
00000060: 9215 dd3c d34a 143d 9f47 a13d feb0 81bd
00000070: 4b6b 68bd a703 1bbd 122a 273d 1aee 7e3d
00000080: 51f5 2abc e8af 43bd b084 d03c 9645 55bd
00000090: 399c 6c3d 971d 7cbd 8050 843c d56f b93b
000000a0: 7044 3e3d 7622 55bd 7d60 323d caee 043c
000000b0: f3af 823c 7829 5abd fa04 b03d 240a 0b3a
000000c0: 2da0 38bd 3303 a9bc 3ee4 c3bc f516 b03d
000000d0: dce5 883d 727e 273c 318d b13d 7b31 e33b
000000e0: 9efe a53c 32e8 553c 65d0 69bc a98a 6dbd
000000f0: 5b39 043d 524f 4e3a 5d86 333d f1ec d4bc
00000100: ab84 9bbc 441f 19bd 4a8f edbc 5303 87bd
00000110: bd3b 413c a6ed 94bd d967 1bbd 2232 a83c
00000120: e616 3f3d 3887 5f3d 5f90 89bd cc7a 9f3c
00000130: 6bb7 acbd ad47 1a3d 60e4 8cbd 8f0a 393c
00000140: 14ff 9f3c d199 00bd 06cb a33c 4e5d 323d
00000150: f857 dd3c 1d11 913c 230a b63d 90a0 a33d
00000160: f884 74bd 3491 a03d d921 933d c9f0 11bc
00000170: 6a07 c43c 8001 00bd 89e3 dabc a965 c23c
00000180: a296 eabc 7e0f e63c 4e43 293d 304a 673d
00000190: e9bd 60bd 7133 06bd 296a 2ebc bf44 163d
000001a0: 2be6 d1bc 91b3 2ebd f5f3 88bc 8afa b93c
000001b0: 9c0f a2bb d90c 12bd 329b 183d 2930 4cbd
000001c0: d9b8 a9bd 7d02 353d 116a a43d 3718 8e3b
000001d0: a81f 6d3d 7251 753d 755f 9c3d d74e 723c
000001e0: 6b33 29bb de82 98bd bd43 433b 51c6 ccbc
000001f0: 212f 733b f192 bf3d a1a0 dbbc 5ea0 89bd
00000200: 95de b33d 85c1 56bc dd72 77bd 7547 4dbc
00000210: b759 d1ba 0b5a a83c f912 9b3d 3c5b 1fbd
00000220: d47e 2dbd b454 203a 137e 9f3d 1c8d c93d
00000230: 81d0 13bd 8c60 87bd 3ddc 1ebd 7bf6 c2bd
00000240: 941c 7e3c 82a4 f13d 825d 913d be76 773d
00000250: 6bf8 5dbc ee5d 28bd c4d9 033e c90f 0939
00000260: 2f1d b6bc b8e1 ad3d 80c1 23ba 5620 303d
00000270: b668 69bc 1ee6 843d 1aed 943d c2e6 08bd
00000280: bb2a 96bd 61f4 d83a 527b 34bd 4aab 893d
00000290: 1ee7 973d a485 943c b205 9f3d b5d4 893d
000002a0: a9a2 e83d 0a63 f33c 3353 0fbe 631b 0dbd
000002b0: c3db dc3d e161 0a3d 46e1 82bd 71a8 b53d
000002c0: be93 163c 2e1d 03be a44c 81bd fb01 e0bd
000002d0: 939e e9bc 5de9 a2ba 1ed2 79bb 7ffa abbb
000002e0: 783c 3fba 1c0f 913d 9f60 863d 6662 97bd
000002f0: d127 b53c d81b 043d ac45 063d 9725 60bd
00000300: 1cb3 5bbd 092f 73bd 6247 cebd dc2f 4ebc
00000310: 70aa 12bc 9757 acbd 4958 4c3d a012 04bd
00000320: f466 04bd f90d 6d3d 64ae 063e 9596 1e3d
00000330: 9cbe 34bd e6d0 9a3d 4203 27bc 4008 a7bc
00000340: c29b edbd 7cb5 913d dcef 4abd a711 833c
00000350: 8e6c c33a d1df 0d3d 803e 8d3d d1d5 143d
00000360: 3650 97bb 2181 593c cee6 9f3b 3d81 a9bc
00000370: cf6b eebd 457a 813b b421 9cbd 9b3a 713d
00000380: feb1 bebc ce20 a4bc eca1 0cbd 0766 21bd
00000390: 98de 96bc 9fae 82bd cd63 70bd 0f46 2f3d
000003a0: eff5 aa3d 5022 a2bd 505d 2dbd dbd4 1d3c
000003b0: d296 00bd dbf8 2e3d 1669 4b3b 4215 413b
000003c0: 03f5 1dbd d207 8bbd 5ee3 87bb 8f2a 923d
000003d0: 3f9a d13d 7079 953d ca23 af3c 51e3 a53d
000003e0: 27b4 1fbd e50e 403d bb7d bebc 3e3c 91bd
000003f0: f0c0 e23b 1f40 263e 793f 14bd 9831 d7bd

conv7.op.weight f4 [80, 64, 3]
0.0074012713 0.044661988 0.05216074 -0.060496543 -0.01459456 -0.024720043 -0.029485105 -0.030754656
-0.05815108 0.005442655 0.044505037 -0.07608672 0.07605341 0.036502887 -0.0016245011 -0.037998267
-0.028956797 -0.013158972 0.05262254 0.053625215 0.030485269 -0.09011785 -0.0019431541 -0.018353624
0.03876575 -0.020866007 -0.057691205 -0.055417247 -0.021066321 -0.06281846 -0.020731935 0.05984348
-0.045080185 0.048315544 0.09657181 0.016507944 -0.006847806 -0.0061103734 0.022919416 0.05260308
0.056122467 0.06213776 0.07310413 0.026320202 -0.059144847 -0.0140295625 0.036194164 0.036157575
-0.024383247 -0.058925886 0.06598843 0.058577288 0.060487963 -0.06597073 -0.06501836 0.058699045
-0.085222326 -0.0072670965 0.04578373 -0.045292687 0.06688033 -0.0015852104 -0.13662507 -0.03256141
0.05818887 -0.07357272 -0.029498601 -0.026570741 -0.010538786 -0.025142604 -0.03165836 0.060015086
0.020133127 0.075329095 -0.048271216 -0.022597115 0.03160292 -0.07899411 -0.022828883 0.08703617
-0.07653829 -0.026011422 0.09765416 0.049626715 -0.0620213 -0.07123313 -0.05628249 0.0041436935
-0.025409298 0.034375876 -0.02157044 0.059824172 -0.039887 -0.0024327638 -0.05744184 -0.022334082
0.0456361 0.05734681 -0.099223465 -0.04834519 0.039843094 0.0044661923 0.012598623 0.03848038
-0.062059663 -0.082849786 0.046719547 0.024132302 -0.048270836 0.0063983737 -0.05238386 -0.003160612
-0.010029507 0.017349862 -0.020447994 0.03250142 -0.04009957 -0.0013385527 -0.01924666 0.042933583
0.08882859 -0.042961225 0.0073553887 0.04377028 0.05479157 0.014203445 0.017872531 0.0048359795
-0.012595759 -0.0121383 0.019673936 0.009884677 0.053122275 -0.037165493 -0.1442209 0.05169174
-0.094006166 0.047486812 0.026078062 -0.0461249 0.05814656 -0.014071228 -0.059536804 -0.047436796
-0.062555574 -0.036317557 -0.042780425 -0.011719988 -0.006778871 0.02837118 -0.045747884 -0.057926755
-0.04348026 0.047819637 -0.071741655 -0.05318279 -0.044858877 -0.01649034 0.060779028 0.01041963
0.058183376 -0.01246762 -0.088639535 0.057161532 -0.016450316 -0.05899943 0.04927821 0.027818646
-0.058733054 -0.003588533 -0.06891517 -0.07198582 -0.005297658 0.069374196 -0.030033372 0.022899173
-0.06555519 0.041342124 -0.02156831 0.024337515 0.062582575 0.020568147 0.02504239 -0.07053681
-0.027901394 -0.12075652 -0.0436283 -0.0011605708 -0.011384289 0.06176891 -0.07886837 0.11142931
-0.06461665 0.030958561 -0.01979325 0.022041874 -0.03426057 0.017937902 -0.08850281 -0.06200505
-0.012544566 -0.004683881 -0.011619043 0.04747018 0.033576563 0.03684799 0.034339715 0.02426625
0.036715943 0.04892853 0.030759593 0.065395646 0.030779399 0.026398964 -0.008888834 0.07692674
-0.04015978 0.035297293 0.02493262 -0.07339445 -0.032657176 0.029612165 -0.018160777 -0.034422334
0.035600927 -0.05227993 -0.018055571 0.06494493 0.065212324 0.03057216 -0.036624074 0.028760448
0.02000258 -0.061400197 -0.030185523 0.031246383 -0.009933292 -0.02145429 -0.0037054282 0.028463969
0.025316184 -0.020334115 -0.061507743 -0.04160604 -0.06345637 -0.030752031 0.060163252 0.017550668
-0.036236502 0.031794984 -0.026318425 -0.009471977 0.03411481 -0.1181018 0.005994288 -0.009058294
00000000: 5d86 f23b 7def 363d 80a6 553d 39cb 77bd
00000010: 051e 6fbc b081 cabc bf8a f1bc 30f1 fbbc
00000020: d42f 6ebd 4d58 b23b ea4a 363d 5bd3 9bbd
00000030: e4c1 9b3d 0d84 153d 36ed d4ba 12a4 1bbd
00000040: ce36 edbc bb98 57bc bc8a 573d 1da6 5b3d
00000050: 3ebc f93c b58f b8bd 6fb1 feba 575a 96bc
00000060: d6c8 1e3d 30ef aabc 9d4d 6cbd 32fd 62bd
00000070: 4793 acbc f7a6 80bd 05d6 a9bc 701e 753d
00000080: 00a6 38bd 85e6 453d 71c7 c53d ab3b 873c
00000090: 8f63 e0bb 8739 c8bb 80c1 bb3c 5476 573d
000000a0: ace0 653d 2a84 7e3d 9eb7 953d 779d d73c
000000b0: de41 72bd 40dc 65bc 5540 143d f719 143d
000000c0: 60bf c7bc 455c 71bd f124 873d bdee 6f3d
000000d0: 3ac2 773d a91b 87bd 5928 85bd 696e 703d
000000e0: 0b89 aebd d320 eebb b887 3b3d d384 39bd
000000f0: 8ef8 883d d6c6 cfba 71e7 0bbe 1d5f 05bd
00000100: 7457 6e3d 4bad 96bd 0da7 f1bc e2aa d9bc
00000110: dfaa 2cbc ddf7 cdbc 32ac 01bd 61d2 753d
00000120: 3aee a43c 2446 9a3d 0ab8 45bd 961d b9bc
00000130: 1072 013d aac7 a1bd a303 bbbc 0540 b23d
00000140: 1bc0 9cbd e815 d5bc e7fe c73d 6245 4b3d
00000150: 0c0a 7ebd ade2 91bd 7888 66bd d2c7 873b
00000160: 2927 d0bc b8cd 0c3d 7eb4 b0bc 310a 753d
00000170: 8d60 23bd 016f 1fbb 2348 6bbd f7f5 b6bc
00000180: ebec 3a3d 7de4 6a3d ac35 cbbd 9b05 46bd
00000190: 8332 233d 2359 923b 746a 4e3c 9a9d 1d3d
000001a0: 4632 7ebd 26ad a9bd ff5c 3f3d 1bb1 c53c
000001b0: a4b7 45bd 73a9 d13b 7590 56bd 4522 4fbb
000001c0: cd52 24bc 4c21 8e3c 8d82 a7bc 3520 053d
000001d0: 723f 24bd 6072 afba 2cab 9dbc 20db 2f3d
000001e0: c4eb b53d 1cf8 2fbd 7905 f13b 7748 333d
000001f0: 206d 603d 91b5 683c 6a69 923c 2377 9e3b
00000200: 715e 4ebc b8df 46bc 3c2b a13c 57f3 213c
00000210: be96 593d d83a 18bd a5ae 13be b8ba 533d
00000220: 4e86 c0bd 8881 423d a9a1 d53c 77ed 3cbd
00000230: 162b 6e3d 028b 66bc dddc 73bd 164d 42bd
00000240: 231d 80bd b8c1 14bd 873a 2fbd 3105 40bc
00000250: 4b21 debb ad6a e83c 2262 3bbd 9b44 6dbd
00000260: 5b18 32bd 86de 433d 4aed 92bd 32d6 59bd
00000270: f1bd 37bd c016 87bc 6ef3 783d 19b7 2a3c
00000280: b151 6e3d fd44 4cbc a588 b5bd 3622 6a3d
00000290: d0c2 86bc 63a9 71bd f3d7 493d eee3 e33c
000002a0: 1292 70bd 982d 6bbb 6623 8dbd 4d6d 93bd
000002b0: fa97 adbb 0f14 8e3d 8c08 f6bc 0c97 bb3c
000002c0: cd41 86bd 5c56 293d 06b0 b0bc 785f c73c
000002d0: 4b2b 803d 887e a83c b325 cd3c 9a75 90bd
000002e0: 7791 e4bc 324f f7bd 97b3 32bd 4b1e 98ba
000002f0: 2b85 3abc 6601 7d3d bd85 a1bd 0d35 e43d
00000300: bc55 84bd cf9c fd3c 7425 a2bc 2991 b43c
00000310: d054 0cbd 82f2 923c f640 b5bd 02f9 7dbd
00000320: b987 4dbc 3e7b 99bb cc5d 3ebc 1770 423d
00000330: 9487 093d ebed 163d cda7 0c3d 04ca c63c
00000340: 7563 163d 4869 483d 8bfb fb3c 27ee 853d
00000350: 1425 fc3c a442 d83c 79a2 11bc c48b 9d3d
00000360: 957e 24bd e593 103d 7e3f cc3c d44f 96bd
00000370: 88c3 05bd 3695 f23c e9c5 94bc 6ffe 0cbd
00000380: 47d2 113d 7b23 56bd 47e9 93bc d901 853d
00000390: 0a8e 853d 7772 fa3c 2003 16bd 089b eb3c
000003a0: 73dc a33c c67e 7bbd a147 f7bc 6af8 ff3c
000003b0: 3fbf 22bc e8c0 afbc c5d6 72bb 452d e93c
000003c0: e363 cf3c bb93 a6bc 8bef 7bbd 186b 2abd
000003d0: 6af5 81bd afeb fbbc be6d 763d 6bc6 8f3c
000003e0: ba6c 14bd 753b 023d bd99 d7bc 5a30 1bbc
000003f0: f9bb 0b3d 5bdf f1bd bb6b c43b 3d69 14bc

conv8.op.weight f4 [32, 80, 3]
-0.03096048 0.012576981 -0.032273352 0.008634092 0.019082656 0.021640373 -0.033282306 0.005411423
-0.032279726 0.04241571 -0.0010437777 -0.016076753 -0.020489344 0.033920377 -0.020782512 -0.0020772838
0.0049767015 -0.036713403 0.05358926 -0.059071004 0.034771528 -0.052979637 -0.0063996166 -0.009767401
0.0058695935 -0.035533287 -0.05376247 -0.028018862 0.049463686 -0.017007865 -0.024879547 0.055325497
0.036493823 0.062397774 -0.012431573 -0.041857004 0.04237701 -0.0133512365 0.025033727 0.05776598
-0.010981078 -0.03788297 0.012548123 0.030364344 -0.06601244 0.015433639 -0.03830856 -0.04545288
0.046607047 -0.027678296 0.00811313 -0.0014128207 -0.042975467 0.02226291 0.0507009 0.0067769447
-0.06072872 -0.03524736 0.029878132 0.00025004926 -0.008162477 0.019047989 -0.017464306 -0.04952595
-0.024593446 -0.05697291 -0.006340514 -0.022560861 0.034824613 -0.02027255 0.019511553 0.039789945
0.049902048 0.042606995 0.031657677 0.0150347175 -0.009137096 -0.046573848 -0.056487747 -0.026144193
0.035746805 0.055386208 -0.050864547 0.049781334 0.00050182664 -0.015023147 -0.019664913 0.0475448
0.015284323 0.051536202 0.024556454 0.015301294 -0.046496473 -0.026799545 0.02745153 0.05232624
0.044763163 -0.03569137 -0.01372319 0.006702333 -0.063455485 0.018238666 -0.007796747 -0.012156412
-0.04274726 -0.029413944 -0.009276385 -0.0385552 0.0077505144 0.045846447 0.04551813 -0.029478751
-0.05212354 0.02945718 0.017129261 -0.058399204 -0.032703944 -0.05806517 0.011174746 0.0030617462
-0.057160154 0.002319654 -0.062338088 0.021989191 -0.0043858164 -0.001722894 -0.010945117 0.013968456
-0.060933996 -0.028194841 0.008772893 0.01682445 0.00016934225 -0.03387233 0.011382535 -0.02884906
-0.006313179 -0.027054872 -0.04048689 0.0027139224 0.026943829 0.030900158 -0.06261346 -0.021545636
-0.054577727 0.038870238 0.03346081 -0.047118004 -0.057743836 -0.0028192594 0.04217437 -0.0004357277
-0.018781496 -0.04808041 0.0226695 -0.052060872 -0.058842085 0.027134467 -0.02666938 0.029377526
-0.060754746 0.03491092 0.035375923 0.034841217 -0.008730964 -0.044559017 0.0033608666 -0.015531098
-0.012722527 -0.021461837 -0.019270582 -0.017450985 0.061367862 0.0314377 0.0010618614 -0.061940633
-0.021967975 0.017772565 0.008075409 -0.0035317815 0.06027623 0.035448737 0.024735361 0.037389927
-0.045642935 -0.027571468 -0.041536383 -0.036467448 0.025314746 -0.031004187 -0.023963178 -0.051288847
-0.05933768 0.039593328 -0.061742768 -0.036192816 -0.057109296 0.033091757 0.010135907 -0.05035889
0.026478961 0.022045849 0.0510415 0.0047891843 0.011089705 -0.0029183356 0.04113977 -0.036922682
-0.050444894 -0.054432537 -0.04046848 -0.02399802 0.023199437 -0.04828551 -0.022290105 -0.04786142
-0.0011290269 -0.042654973 0.05672193 -0.03785611 -0.008573686 -0.035605934 -0.05660944 0.0041090013
0.015477824 -0.033222407 -0.034187585 -0.025454171 -0.054957964 -0.00300981 0.011744812 0.025074886
0.031002479 -0.048693363 0.0076962863 0.040546697 0.028093848 0.03302332 -0.04579868 0.045278642
0.05248947 0.02667827 -0.030025793 0.040006317 0.02259036 -0.004715869 0.0014149972 0.050352268
0.07774397 -0.019763203 -0.006372058 -0.079270184 0.07179579 0.0022247513 0.048994943 0.024629887
00000000: d5a0 fdbc af0f 4e3c 1031 04bd 0276 0d3c
00000010: 3b53 9c3c 2747 b13c 0753 08bd 4e52 b13b
00000020: bf37 04bd 18bc 2d3d 5ecf 88ba 65b3 83bc
00000030: 45d9 a7bc 18f0 0a3d 1640 aabc 0a23 08bb
00000040: 9913 a33b cb60 16bd 6980 5b3d 70f4 71bd
00000050: 976c 0e3d 2d01 59bd e0b3 d1bb 7307 20bc
00000060: b855 c03b 5a8b 11bd 0936 5cbd d087 e5bc
00000070: 6f9a 4a3d 1454 8bbc 31d0 cbbc fd9c 623d
00000080: 8c7a 153d cf94 7f3d ccad 4bbc 4072 2bbd
00000090: 8493 2d3d 25bf 5abc 8813 cd3c 059c 6c3d
000000a0: fbe9 33bc 2c2b 1bbd a496 4d3c a5be f83c
000000b0: 8831 87bd 60dd 7c3c 70e9 1cbd cd2c 3abd
000000c0: 08e7 3e3d 98bd e2bc efec 043c 652e b9ba
000000d0: 0b07 30bd b560 b63c bfab 4f3d 2211 de3b
000000e0: aebe 78bd 895f 10bd fcc2 f43c 0b19 8339
000000f0: e9bb 05bc 870a 9c3c 4e11 8fbc b9db 4abd
00000100: 3278 c9bc 6d5c 69bd 16c4 cfbb 8ed1 b8bc
00000110: 41a4 0e3d 9e12 a6bc b1d6 9f3c c8fa 223d
00000120: 1766 4c3d ac84 2e3d 7bab 013d 2d54 763c
00000130: c2b3 15bc 38c4 3ebd b25f 67bd 592c d6bc
00000140: 3e6b 123d a6dc 623d 5857 50bd 83e7 4b3d
00000150: 048d 033a a523 76bc 5018 a1bc 56be 423d
00000160: 196b 7a3c a017 533d 9e2a c93c 47b2 7a3c
00000170: 1673 3ebd b88a dbbc 08e2 e03c 0a54 563d
00000180: 9459 373d 1d31 12bd 3bd7 60bc 3f9f db3b
00000190: f3f4 81bd 4169 953c db7b ffbb b02b 47bc
000001a0: c017 2fbd 83f5 f0bc fbfb 17bc 0fec 1dbd
000001b0: 07f8 fd3b 7cc9 3b3d 3871 3a3d 6c7d f1bc
000001c0: 7e7f 55bd 2f50 f13c aa52 8c3c 0134 6fbd
000001d0: 92f4 05bd bed5 6dbd 4816 373c 94a7 483b
000001e0: c420 6abd 5605 183b 3956 7fbd ad22 b43c
000001f0: e5b6 8fbb bbd2 e1ba 2653 33bc f3db 643c
00000200: ed95 79bd def8 e6bc 2ebc 0f3c 6ed3 893c
00000210: 7791 3139 b6bd 0abd d07d 3a3c dd54 ecbc
00000220: c9de cebb 2ea2 ddbc 95d5 25bd 10dc 313b
00000230: 4eb9 dc3c 5422 fd3c 7c3b 80bd 7980 b0bc
00000240: e58c 5fbd 6636 1f3d 340e 093d cffe 40bd
00000250: cd84 6cbd 53c3 38bb 08bf 2c3d 6272 e4b9
00000260: a7db 99bc f7ef 44bd 63b5 b93c c83d 55bd
00000270: 6604 71bd 1a49 de3c be79 dabc 23a9 f03c
00000280: f8d9 78bd c1fe 0e3d 58e6 103d aab5 0e3d
00000290: 510c 0fbc 8483 36bd fc41 5c3b 2576 7ebc
000002a0: 2572 50bc bcd0 afbc 57dd 9dbc 5ef5 8ebc
000002b0: de5c 7b3d d1c4 003d 282e 8b3a 76b5 7dbd
000002c0: 2ff6 b3bc c597 913c b84e 043c 7675 67bb
000002d0: 35e4 763d b232 113d d0a1 ca3c 2e26 193d
000002e0: 16f4 3abd 8fdd e1bc 0e22 2abd e45e 15bd
000002f0: df60 cf3c 7efc fdbc 6d4e c4bc 4114 52bd
00000300: 110c 73bd 9d2c 223d fce5 7cbd eb3e 14bd
00000310: 70eb 69bd 398b 073d 1311 263c 2045 4ebd
00000320: 68ea d83c 7f99 b43c e410 513d 97ee 9c3b
00000330: 98b1 353c 8c41 3fbb 2d82 283d 3d3c 17bd
00000340: 4e9f 4ebd a7f4 5ebd 47c2 25bd 7f97 c4bc
00000350: bf0c be3c 07c7 45bd bd99 b6bc 560a 44bd
00000360: dbfb 93ba fbb6 2ebd 4155 683d 020f 1bbd
00000370: a578 0cbc 87d7 11bd 4ddf 67bd cda4 863b
00000380: b396 7d3c 3814 08bd 4808 0cbd 4485 d0bc
00000390: 9a1b 61bd 3c40 45bb 506d 403c d969 cd3c
000003a0: e9f8 fd3c b172 47bd 2131 fc3b 4b14 263d
000003b0: 1225 e63c 7643 073d 6697 3bbd 1976 393d
000003c0: 33ff 563d 638c da3c a7f8 f5bc aadd 233d
000003d0: 6b0f b93c 9487 9abb 6d77 b93a 2e3e 4e3d
000003e0: 3b38 9f3d 71e6 a1bc b2cc d0bb 6858 a2bd
000003f0: ac09 933d 22cd 113b ecae 483d 9ec4 c93c

fc.op.weight f4 [3, 160]
0.010595526 0.05333759 0.010786916 -0.039018877 -0.016033335 -0.13380606 -0.05391804 0.060873266
0.046556164 0.04199986 -0.018948581 -0.04024553 -0.028422602 -0.04544859 -0.0013317626 -0.104807876
0.12375158 -0.043174304 0.08214002 0.02911874 0.09349173 0.024360837 0.044986323 -0.03999425
0.032737248 0.04875572 -0.009577523 -0.021370623 -0.030122694 -0.10284434 0.077121824 0.095991015
0.06721133 -0.020907072 0.022621792 0.005442605 -0.03144286 -0.04196072 0.004074255 -0.033379216
-0.03434801 -0.057864565 0.012934809 -0.033902638 -0.09797362 -0.016916208 -0.0785465 0.07721643
0.030170025 -0.023715524 -0.044004362 0.033843953 0.0300594 0.0034577027 -0.047513545 0.01946154
0.0023177373 -0.043980177 -0.034320615 0.08158242 -0.0040553217 -0.041150205 -0.12435561 -0.083295666
-0.025607783 -0.09878674 -0.037874985 -0.0924086 -0.04978221 0.028784396 0.14018172 -0.11482039
-0.12648048 -0.05197624 -0.12942155 -0.005935148 0.03412773 -0.056365546 -0.0999685 0.03604795
-0.14255957 0.036939833 -0.018954666 -0.07960557 0.10857043 -0.05568097 -0.009640688 0.09103501
0.04466332 0.07923468 0.07125255 -0.013537309 0.00299578 0.08499538 -0.020085445 0.073157065
-0.042527277 -0.021812892 -0.0068237674 0.055534337 -0.008109531 0.017855886 0.04275089 0.08109413
-0.077077456 0.13230321 0.070681 -0.12514368 -0.02384626 -0.002025474 -0.003904113 0.088172115
0.030500956 -0.017958827 -0.0047609415 0.13179296 0.05117071 0.033426493 -0.055154923 0.075687304
0.0952797 -0.05854984 0.023561876 0.040733572 -0.043689415 -0.038811963 -0.040294796 0.01638548
0.079631805 -0.06235862 0.0014047512 0.043003194 -0.026921803 -0.013511034 -0.048640378 0.08263572
0.059486263 -0.10772179 -0.040910244 -0.09263946 0.03325142 0.03123568 -0.00064537756 0.020461636
0.004873901 0.076113865 0.059439614 -0.034480624 0.07649242 0.0006639529 0.07964991 -0.085330814
-0.03932787 0.013711274 0.05396075 0.020619696 -0.0879904 -0.06298844 -0.100601465 -0.041653134
-0.025059804 -0.049430344 0.01791597 -0.017369844 0.0149761895 0.09007063 0.043144356 -0.042471297
0.06468575 -0.0619772 0.0661709 0.023441447 0.054484896 -0.0018792561 0.026101355 0.105003215
-0.07438153 -0.005738593 -0.069580585 -0.04838463 -0.05339096 0.026485067 -0.055737857 0.0016725151
0.043325674 -0.030959934 0.009995733 -0.04870573 -0.010008684 0.009368808 0.047797274 0.05234175
-0.067857236 0.08534846 -0.0028772277 0.06069733 0.01306986 0.04000958 0.057698704 0.06440397
0.04071613 -0.06458011 0.0125694955 0.049911823 -0.079706535 -0.124475904 -0.0264864 0.005153239
-0.0013885542 0.093769334 -0.015523183 -0.029741097 -0.05418186 0.096523836 -0.051300246 -0.040052075
0.02984972 0.01675048 -0.037522737 -0.015086024 -0.07925475 0.007080609 0.004938971 0.010445624
0.011647101 -0.055713248 -0.025631716 -0.074677296 0.03301295 -0.088414 -0.12020688 0.07104487
0.12210721 -0.075611584 0.07398424 -0.08255281 0.014504765 -0.07086269 -0.022275386 -0.09040715
0.061383598 -0.10040959 0.04737643 -0.053546853 -0.08098594 0.0029786164 0.035736028 0.054712627
0.0207306 0.092556186 -0.0015232308 0.055343598 0.075418934 -0.0055433684 0.013608499 0.047758885
00000000: db98 2d3c 8478 5a3d 9bbb 303c 42d2 1fbd
00000010: 5758 83bc 7504 09be 2ad9 5cbd 3f56 793d
00000020: adb1 3e3d 0c08 2c3d 0e3a 9bbc 7fd8 24bd
00000030: 84d6 e8bc 4d28 3abd 8a8e aeba 83a5 d6bd
00000040: 7871 fd3d 8ad7 30bd 0739 a83d 6d8a ee3c
00000050: 9878 bf3d 6190 c73c 9443 383d 03d1 23bd
00000060: 7e17 063d 14b4 473d 0beb 1cbc 7211 afbc
00000070: dec3 f6bc 0ea0 d2bd 0cf2 9d3d f096 c43d
00000080: 18a6 893d 4f45 abbc 5651 b93c e157 b23b
00000090: 3aca 00bd 01df 2bbd 5481 853b a5b8 08bd
000000a0: 80b0 0cbd 6503 6dbd 85ec 533c 7edd 0abd
000000b0: 65a6 c8bd dc93 8abc fddc a0bd a623 9e3d
000000c0: 2127 f73c 0f47 c2bc eb3d 34bd f59f 0a3d
000000d0: 213f f63c a09a 623b 909d 42bd cf6d 9f3c
000000e0: 2ee5 173b 8f24 34bd c693 0cbd af14 a73d
000000f0: 81e2 84bb 1e8d 28bd 27ae febd eb96 aabd
00000100: 6ac7 d1bc b450 cabd cd22 1bbd b840 bdbd
00000110: 6ee8 4bbd 41cd eb3c cc8b 0f3e f426 ebbd
00000120: 1984 01be 0ae5 54bd 1587 04be a17b c2bb
00000130: 85c9 0b3d 8fdf 66bd 49bc ccbd 04a7 133d
00000140: 23fb 11be 394e 173d d146 9bbc 3f08 a3bd
00000150: 2c5a de3d bb11 64bd faf3 1dbc 9070 ba3d
00000160: e3f0 363d cb45 a23d dbec 913d 97cb 5dbc
00000170: d954 443b 0f12 ae3d 3b8a a4bc 5fd3 953d
00000180: 1531 2ebd f3b0 b2bc e999 dfbb f977 633d
00000190: d7dd 04bc 8246 923c 8f1b 2f3d ae14 a63d
000001a0: c9da 9dbd 7e7a 073e 33c1 903d aa25 00be
000001b0: 3b59 c3bc d1bd 04bb 26dc 7fbb 9593 b43d
000001c0: 24dd f93c 641e 93bc ac01 9cbb bcf4 063e
000001d0: 6198 513d 38ea 083d 21ea 61bd f201 9b3d
000001e0: 0122 c33d f5d1 6fbd d604 c13c 3fd8 263d
000001f0: acf3 32bd 4bf9 1ebd 280c 25bd d83a 863c
00000200: 0016 a33d c16b 7fbd a11f b83a 1e24 303d
00000210: 1d8b dcbc 625d 5dbc 223b 47bd eb3c a93d
00000220: dea7 733d 3e9d dcbd 8091 27bd c2b9 bdbd
00000230: a432 083d f8e1 ff3c 8e2e 29ba 299f a73c
00000240: 3fb5 9f3b 96e1 9b3d f476 733d 8e3b 0dbd
00000250: 0fa8 9c3d 200d 2e3a 7e1f a33d ecc1 aebd
00000260: 4316 21bd 40a5 603c f305 5d3d a3ea a83c
00000270: 5034 b4bd 1500 81bd 2408 cebd 7a9c 2abd
00000280: 384a cdbc 7977 4abd 83c4 923c 344b 8ebc
00000290: b15e 753c f376 b83d 23b8 303d 62f6 2dbd
000002a0: f679 843d cedb 7dbd 9c84 873d 4708 c03c
000002b0: 8e2b 5f3d 5f51 f6ba 82d2 d53c ed0b d73d
000002c0: 5855 98bd cf0a bcbb 4480 8ebd f62e 46bd
000002d0: 7bb0 5abd 36f7 d83c 614d 64bd 4b38 db3a
000002e0: 4376 313d b09f fdbc 25c5 233c a97f 47bd
000002f0: 77fb 23bc a17f 193c 13c7 433d 4e64 563d
00000300: bcf8 8abd 2ccb ae3d df8f 3cbb c39d 783d
00000310: f722 563c 16e1 233d 7a55 6c3d 3be6 833d
00000320: f5c5 263d 9442 84bd 49f0 4d3c 5770 4c3d
00000330: 2e3d a3bd 39ed febd 02fa d8bc 80dc a83b
00000340: 2600 b6ba 230a c03d f354 7ebc 9aa3 f3bc
00000350: cced 5dbd 4aae c53d 3520 52bd a50d 24bd
00000360: 6687 f43c 4d38 893c 71b1 19bd 5f2b 77bc
00000370: 5050 a2bd 7404 e83b 17d7 a13b 1f24 2b3c
00000380: 7bd3 3e3c 9333 64bd 9bf9 d1bc 69f0 98bd
00000390: 9638 073d 6612 b5bd 062f f6bd f97f 913d
000003a0: 5813 fa3d 3fda 9abd 0d85 973d 7311 a9bd
000003b0: 65a5 6d3c 7520 91bd df7a b6bc 6227 b9bd
000003c0: 5e6d 7b3d 8ba3 cdbd ca0d 423d f253 5bbd
000003d0: f5db a5bd e434 433b f15f 123d 591a 603d
000003e0: 38d3 a93c 198e bd3d 25a7 c7ba f8af 623d
000003f0: 3e75 9a3d 25a5 b5bb 2ff6 5e3c d29e 433d
