Results/leftandright/1D/200Epochs/width whole/qat_checkpoint.pth.tar (torch, 581158 bytes, 21 tensors)

conv1.op.weight f4 [50, 128, 1]
00000000: 8638 8a3b 17c2 553d e574 96bd 4473 76bd
00000010: 8c7c 4fbd fd48 023d efa3 4c3b c30b 843d
00000020: d441 feb8 4c0d aa3c 3c75 64bd 3c6a 4dbc
00000030: eacb f6bd f7df a1bd da94 01bd c63e 6bbc
00000040: 5366 1a3d 3ed8 743d 65dc e5bc 42ea 09bd
00000050: 6081 7e3d 635f b83d 2b9f 2cbc 3d85 ec3d
00000060: 2acd 9fbb 0cd0 073d e113 cd3d 0fd0 8ebd
00000070: 6ea0 43bd 5f24 a4bc 3577 a5bc 3713 993d
00000080: da73 4dbd 030e efbc 1325 66bd 9993 92bd
00000090: c38d 2fbd 59a8 a53d b91c 4c3d 241d 4b3d
000000a0: 41a6 943b d1ec 7bbd ace2 a13c b24b e8bd
000000b0: 89ea 9abd 985c 80bd 6e71 cf3c de4c 4d3d
000000c0: 3c23 9dbd 86d4 dc3a 0c8f 1f3d d819 bd3d
000000d0: 9bd9 4d3d 71e2 8e3c a8ee b23d cddb 2abd
000000e0: 73c7 3a3d d046 50bd 6ce4 2bbd 76f9 dcbc
000000f0: 2dd1 433d de1a 363d 9e00 42bd c399 e43c
00000100: 7e5f 523d 6f6d d4bb 291c d53b 940d 9b3c
00000110: cda0 603d 85b9 ad3d e38e 8ebd 507a 12bd
00000120: 5630 e53c 5e30 923d b1c7 a03d 5942 a93d
00000130: f8f6 b93c ad46 95bd aa7f 343c 955e 5abd
00000140: a7fb a3bd bb0d a73d 2b1b 913d c694 abbd
00000150: 6439 b03c 0989 1fbc d2d8 13bc 52bc 0fbd
00000160: 03af 1f3d 76eb 43bd 9ad6 143d 5693 463d
00000170: b2f1 883d 3cd1 143d 2ed9 adbd 198d 60bd
00000180: fe67 3d3d 1464 ac3c 83bd 87bd ad69 45bd
00000190: 6989 b03d 71f7 813d be45 0abd 509c 89bc
000001a0: 69fb 9fbd 7e7b 9f3b 0833 77bd e263 7fbd
000001b0: f525 b239 7a53 913c cc17 06bd f44e 613d
000001c0: 86f2 55bd 5d89 a53d 654a 783d 58b3 96bd
000001d0: 967c adbc a1f1 b13b 0f15 7e3c 51ad c93c
000001e0: 9b44 203d 410d 253c 60be 1cbd 374b 3f3d
000001f0: f4a5 a3bd 8998 42bd de47 8dbc 1ccf 1cbd
00000200: 42b5 f4bc 92da bcbd 2765 42bd 855e a33c
00000210: e146 b3bd ae2a ea3b dfcc 833d b6d9 bcbc
00000220: 095d f53a 7f81 d1bc 4fb6 8fbc 3259 6a3d
00000230: 0f4d a93d 332b 853d 2aa5 ae3d 2666 483d
00000240: fc4f a4bd 0a29 04bd 64f0 993d 5095 4b3b
00000250: 1396 7dbd 17cf b6bd 03fb 89bd 9159 8abd
00000260: 569f f7bb 2831 793d 3935 243d 0a58 c2bd
00000270: a059 433d 982d 82bd 3a14 7bbc 8b1f 19bd
00000280: 9612 00bc 418a 0abc c614 a0bd 33ab 6abd
00000290: f556 19bc fac9 063b d258 5dbd 2e51 003d
000002a0: 2539 c0bd bcb8 42bd 9e2f a13d a63f 81bd
000002b0: 3d74 a33d 0066 fc3c 3cb2 90bd c292 6a3d
000002c0: ef41 233c ba7a 1dbd b90e c53d 784d 90bd
000002d0: 89ef 3a3d 4494 82bc 3118 d63d 16f3 f33c
000002e0: 4909 af3d ee5c 323d 049f 4dbc 1c58 82bc
000002f0: c0e1 98bd 1eec 343d 5395 773d 1726 4a3d
00000300: 4d4e acbd b232 89bc 065d a0bd 3e41 8fbd
00000310: df46 92bd ca5d 523c 695c 8bbd 436a ffbb
00000320: 5d13 253c cc8e 803d b8ff 7dbd 0a06 68bd
00000330: 3534 4cbd 8b75 823d aa6f 04bd f476 993d
00000340: 8420 043d f174 243c f013 1bbb 0ad6 91bc
00000350: ec74 403c 54d9 a2bc 391c 5aba 7c91 283c
00000360: f968 90bd c377 47bd d3d7 8a3d 8550 9fbd
00000370: 97a0 56bc 419e 9e3d f154 b53c 416c 7ebb
00000380: bc9e a6bd 8ee5 2e3d 29ce 84bd f3a7 c9bc
00000390: 585c debc a10e 08bc b25d 903b 2082 973d
000003a0: 2059 143c d882 973d 57bf 353d 0404 86bd
000003b0: a6df e63c 3c6c 93bd e3bd 40bd ade0 953c
000003c0: e1bc ad3c 43ce 7a3d c7c2 f3bc 16d8 f03a
000003d0: 4104 4e3d 5885 a6bd ebce 8c3d 6e24 8ebd
000003e0: d930 3e3b df4d 66bc 0b87 3abd ea72 503c
000003f0: 51d6 973d 8e10 cbbc 8fa3 52bd addd 56bd
0.004218164 0.05218705 -0.073465146 -0.06016852 -0.050655887 0.03180789 0.0031225642 0.06447556
-0.00012123925 0.020758294 -0.055775866 -0.012537535 -0.12050612 -0.07904046 -0.031636097 -0.014358228
0.03769524 0.059776537 -0.028059194 -0.03367067 0.0621351 0.090025686 -0.0105359955 0.11548851
-0.0048767524 0.033157393 0.10013557 -0.06973278 -0.04776042 -0.020036874 -0.020198444 0.07474368
-0.050159313 -0.029181486 -0.0561877 -0.07157058 -0.042859804 0.080887504 0.04983208 0.049588338
0.0045364206 -0.061505143 0.019761406 -0.11342563 -0.07564265 -0.06267661 0.025322642 0.050122134
-0.07672736 0.0016848005 0.03895478 0.09233445 0.050256353 0.01744196 0.08736926 -0.041713525
0.045600366 -0.050848782 -0.041965887 -0.026974421 0.047806907 0.044459216 -0.04736387 0.02790535
0.0513606 -0.006482772 0.006503601 0.018927373 0.05484085 0.08482651 -0.06960847 -0.035761178
0.02797715 0.071381316 0.07850588 0.08264608 0.022700772 -0.07288871 0.011016766 -0.053312857
-0.08006983 0.08156916 0.0708526 -0.08377986 0.021511741 -0.009737262 -0.009023862 -0.035091706
0.038985264 -0.047831975 0.036337472 0.048480354 0.06686725 0.036332354 -0.08488689 -0.05482206
0.046241753 0.021043815 -0.06627943 -0.048196483 0.08619959 0.06346024 -0.033757918 -0.016798168
-0.078116246 0.0048670163 -0.0603514 -0.062351115 0.00033979086 0.01774 -0.03273754 0.055006936
-0.05223324 0.080828406 0.060617823 -0.07358426 -0.021177571 0.0054304157 0.01550795 0.024618777
0.039127927 0.010073961 -0.038267493 0.04670259 -0.079906374 -0.04750875 -0.017246183 -0.038283452
-0.029871587 -0.092213765 -0.047459748 0.019942531 -0.087537535 0.007146201 0.064355604 -0.023053031
0.0018719743 -0.025574444 -0.017542986 0.05721397 0.08266651 0.0650238 0.08527596 0.04892554
-0.08023068 -0.0322657 0.07516554 0.003106434 -0.0619107 -0.08926218 -0.0673733 -0.06755365
-0.007556836 0.060837895 0.04008982 -0.09489448 0.047692895 -0.063563526 -0.015324647 -0.037383597
-0.007816931 -0.008455814 -0.07816462 -0.057292175 -0.009359111 0.0020567165 -0.054039784 0.03132742
-0.093858995 -0.047539458 0.078704104 -0.06310968 0.07981155 0.030810356 -0.070652455 0.057268865
0.00996445 -0.03844712 0.09621949 -0.07046026 0.045638595 -0.01593984 0.10453833 0.029778998
0.08546693 0.043545656 -0.012550119 -0.015911154 -0.074649334 0.04417049 0.06044514 0.04935273
-0.08413372 -0.016747806 -0.07830243 -0.06994866 -0.07142424 0.012839744 -0.06804735 -0.00779465
0.010075417 0.06277236 -0.06201145 -0.056646384 -0.049854476 0.06370076 -0.032333054 0.07493392
0.03225757 0.010037647 -0.0023663007 -0.017802257 0.011746626 -0.01987902 -0.00083202455 0.010288592
-0.07051272 -0.048698198 0.067794465 -0.0777903 -0.013099811 0.07745028 0.02213523 -0.0038821849
-0.08135745 0.04269939 -0.064846344 -0.024616217 -0.027143642 -0.008304269 0.0044057006 0.07397866
0.009054452 0.07398003 0.04437193 -0.06543735 0.028182816 -0.071983784 -0.04705609 0.01829561
0.021208229 0.061231863 -0.029755963 0.0018374946 0.050297026 -0.08130902 0.06875404 -0.06940542
0.0029020815 -0.014056652 -0.045538943 0.01272271 0.074139245 -0.024788167 -0.051425513 -0.0524575

conv2.op.weight f4 [24, 50, 3]
00000000: 1c75 a13d 31b9 2b3d bbc4 813b d07c 8d3c
00000010: b16f 8a3c 78f5 943d c6bf 003e dee0 563d
00000020: 9d57 cd3d 29a1 4dbd 4f65 573c 6bb6 2fbd
00000030: 7a44 a33d 06a9 103d e102 24bd f54a e2bd
00000040: 4537 0dbd 493c 9dbd 5e7d 8ebd d180 dabd
00000050: 0d90 a7bd cebf 953d 6c2e e1bc 2eef 413d
00000060: b354 833c 1858 1bba 13a3 143d 9485 7b3d
00000070: 3b3b 823c 3056 adbb 05c4 e83d c1df db3b
00000080: d825 51bc e7cd bf3d 39a2 36bd 1da6 943d
00000090: 9f4f b6bd 8887 22bc e6d1 dabd 2c95 aa3d
000000a0: 4a3d fdbc 612d e6bc a4dd 8b3d cec8 1d3d
000000b0: da81 943d 34a5 c1bb 93ad abbd 9234 bebd
000000c0: d7f9 26bd 1adb c43d d006 013d 3ae1 11be
000000d0: c1f2 3abe bb1c 0a3d 84ec cf3d ba9b 0abc
000000e0: 43b5 b63c 39e2 3ebd d97c 5d3c 1bc5 9fbd
000000f0: 336a a93d c792 bb3d c421 523d 84ca 7abc
00000100: 2d1e 6f3b 6e9e d53c 36c7 25bd c223 923c
00000110: d8bf eebb ca69 673d 18d1 2cbd b6aa 953d
00000120: 9867 c0bd a4df 3fbd 2e5f 923d 3266 80bb
00000130: de12 63bd aaa8 ad3c 1e3c babc 255a 78bd
00000140: 4ffb 87bd fd9c fb3c 45a1 163c 7a07 fcbc
00000150: 6b53 073d 9fdd dbbc 1bc1 83bd b4c5 483d
00000160: 8ff4 c7bc ee2b 8fbc 3ecd 323e 65b6 443e
00000170: 2053 853c e047 903d 4d0f 993d c191 65bd
00000180: 9b92 aabd 6e14 93bd 8cb9 00bd e4b5 923c
00000190: 0cf6 bf3c f15d dc3b bf47 353b 0dc2 a1bd
000001a0: 5993 ae3d f821 893d a4cd 153d 572f a03c
000001b0: 7416 37bd fb44 b63b 394f 79bd 2836 243e
000001c0: b3ef 973c 2456 8a3d 53d5 db3d 15f6 bfba
000001d0: 1497 37bd b3df 2cbe ef92 3ebe 4a10 3ebe
000001e0: 2e94 98bd 01b7 e13c 13f5 80bd 3aaf 12be
000001f0: 5afd d1bd acbf bd3b 18e3 2f3d 1358 5f3d
00000200: 8b98 78bb 866b e6bd 9766 f3bb c32d 693a
00000210: d6ca b33d 8b41 17bd 97c9 273a 29f1 193b
00000220: 665c d2bc bbd5 9dbc 40d3 24bd c0f5 993d
00000230: d86e 073d 8396 e6bb b0bb 04bd 1401 a23b
00000240: b7b3 58bc e533 0abd 6b66 e0bc 9cb5 743e
00000250: 30cf 713e 257f 583e cb10 4cbd 96ae afbd
00000260: 05b5 b3bd a2e7 9abc 2e88 dd3d 941f 86bc
00000270: 160e fbbd 4b4c f4ba ce35 0e3c 1df3 b1bd
00000280: f013 b6bc bd87 483c d509 af3c 1866 f5bc
00000290: 5ecd 40bd 33ee 80bd 6e22 1d3c 37e5 4dbc
000002a0: 2e25 68bd 22ea c93d a034 643d bc08 d0bc
000002b0: 5ad4 383c dec6 e0bc 96dc 19bd 3aef 80bd
000002c0: 204f 883d 070e 7dbd ba24 37bd 8218 b03d
000002d0: 4c17 96bd 2a17 15bd 54b5 63bc ac13 b5bd
000002e0: 740f 9ebd 0b6b 92bd b7aa 61bd 93e4 a4bd
000002f0: 0615 563c ee90 733d 9866 b23d 24e2 96bd
00000300: 388f 63bd 25cf 593d 3fee b83c 9b0d b7bd
00000310: 7b0a 133c aced eabd 9c91 e03d b322 19bd
00000320: 5719 743d 60ec d0bc 2fed 09be c8c2 8fbd
00000330: de81 f3bc 85e6 c2bc 7097 c4bc e252 1cbd
00000340: e2e6 2bbd 928f 093c 6978 043d 78ee b03d
00000350: 8d44 723d b19c 12bc 98ec 043d 62cd e6bc
00000360: 580b 9cbd fbcd 88bd 15c3 71bd 441f bebd
00000370: b3ab 703b 4f8e d0bc 10c1 a0bd 4240 203d
00000380: c95e 633d 8fce bf3d c061 d43c 1611 a23c
00000390: e8dc 753d fef4 66bd ff1b 993c f349 813d
000003a0: edcb 873d 037f 9f3c e427 d939 8907 303d
000003b0: 8de1 d13c 02e8 5d3d a7ef b83d 6fed e53d
000003c0: 5c1c 933d a3de 123e 25cc 173d c486 2f3d
000003d0: 632c c63d 1c82 8cbc 157d 2d3d 1aaa 20bc
000003e0: 94e2 3cbd c126 24bc 2c33 913d 318e 233d
000003f0: 6ac3 4bbc 42cc d13d 8878 3f3d 3e45 c03d
0.07883665 0.04192466 0.0039602197 0.01727143 0.016898962 0.07273382 0.12573156 0.052460544
0.100264765 -0.050202522 0.013146712 -0.042898577 0.07972045 0.035317443 -0.040041808 -0.11049453
-0.034476537 -0.07677514 -0.06957506 -0.10669101 -0.081817724 0.073119745 -0.027487956 0.04734724
0.016031599 -0.0005925908 0.036288332 0.061406687 0.015897384 -0.0052898154 0.11365513 0.006710023
-0.01276537 0.09365445 -0.0445883 0.07258246 -0.08901905 -0.0099200085 -0.10684566 0.083292335
-0.030913014 -0.02809781 0.06829384 0.03852158 0.0725133 -0.0059095863 -0.08382716 -0.09287371
-0.04076561 0.09612103 0.031500638 -0.14246073 -0.18256666 0.033718806 0.10152534 -0.00845998
0.02230323 -0.04660246 0.0135185355 -0.07801267 0.08272209 0.09158855 0.051301733 -0.015307073
0.0036486492 0.026076522 -0.040473185 0.017839316 -0.007286053 0.056497373 -0.042191595 0.07307951
-0.09394759 -0.04684414 0.0714706 -0.0039184326 -0.055437915 0.02119859 -0.022733744 -0.060632844
-0.0663973 0.030714506 0.009193723 -0.030765284 0.033038538 -0.026839076 -0.06433316 0.04901667
-0.024408607 -0.017477002 0.17461106 0.19210203 0.016274989 0.07044959 0.074736215 -0.056047205
-0.08328744 -0.07181631 -0.03142695 0.017908998 0.023432754 0.006725066 0.0027661172 -0.078983404
0.08524198 0.06695932 0.036573067 0.019553823 -0.044699147 0.0055624223 -0.06086657 0.16036284
0.018546915 0.06754711 0.10734048 -0.0014645482 -0.044821814 -0.1688221 -0.18610738 -0.18560901
-0.07450138 0.027553083 -0.06296744 -0.14324656 -0.10253401 0.0057906713 0.042941183 0.054527353
-0.003793272 -0.11250977 -0.007428001 0.00088950637 0.08778922 -0.03692774 0.00064005837 0.002348969
-0.025678825 -0.019266954 -0.040240526 0.07517576 0.033064693 -0.0070369854 -0.032405555 0.004943976
-0.013226441 -0.033740897 -0.027392587 0.23897403 0.23614192 0.21142252 -0.049820703 -0.085782215
-0.08774761 -0.01890928 0.1081699 -0.01637248 -0.12258546 -0.001863846 0.00867982 -0.08688948
-0.022226304 0.012239394 0.021366993 -0.029955909 -0.047070853 -0.06295433 0.009590728 -0.012566856
-0.056676082 0.098591104 0.05571425 -0.02539479 0.011281097 -0.027438577 -0.037563883 -0.06295629
0.06655717 -0.061780956 -0.04471276 0.085984245 -0.07328662 -0.036399044 -0.013898212 -0.08841643
-0.07717791 -0.07149323 -0.055094447 -0.080514096 0.013066536 0.059464388 0.087109745 -0.07367352
-0.055556506 0.053176064 0.022574542 -0.08938142 0.008974667 -0.114711136 0.10965273 -0.037386607
0.05959448 -0.025503337 -0.13469385 -0.070195735 -0.029725011 -0.02379156 -0.023997992 -0.03816498
-0.041968234 0.008396046 0.032341395 0.08639234 0.059147406 -0.008948491 0.032452196 -0.028174106
-0.07619351 -0.06679913 -0.059023935 -0.09283307 0.0036723434 -0.025458483 -0.07849324 0.03912378
0.055510316 0.0936557 0.025925517 0.019783538 0.060025126 -0.056385987 0.018690107 0.06312933
0.06630693 0.019469744 0.00041419186 0.042975936 0.025620246 0.054176338 0.09030085 0.112269275
0.071831435 0.14342742 0.03705992 0.042853132 0.09676435 -0.017151885 0.042355616 -0.00980618
-0.04611452 -0.010019005 0.070898384 0.039930526 -0.012436727 0.10244037 0.046745807 0.09388207

conv3.op.weight f4 [48, 24, 3]
00000000: a776 4d3e b74b 8ebd a4d4 06be c059 5ebd
00000010: 5cd0 093c 35f8 f03c 0a12 73bd 7dd7 043d
00000020: c669 9abc 002d 653e 80dc 0e3e bc06 dd3d
00000030: b4f7 993d b414 0ebd cc97 16bd 9af5 613e
00000040: f4a3 53bd 7505 803d 2fd4 063e 9920 463e
00000050: f57f c53d f700 c9bd 11b9 21bd 01fd 773b
00000060: 9c3d b8bd ddef 62bd 4df3 9c3d ca2b a73d
00000070: f4d9 4e3d 52fb abbc c61d 3d3d 2db1 c5bd
00000080: 8099 3ebd 445a 4c38 3b5c b6bd 6b74 08be
00000090: 577b 80bd 3f55 8bbc 3015 a4bd 51bb 0d3d
000000a0: 9abb b13c 3d6c bd3c 2a29 42be b6b4 a73d
000000b0: 9ac8 bdbc 0929 6b3d 3d23 f3bd 1172 58bc
000000c0: f44d 8b3d 3e59 90bd 9aea cbbc 2b2a ebbd
000000d0: b2e0 293d c157 f03d c6fa e73c 5750 6f3d
000000e0: e045 0dbd 800a 183d 9a9b f5bd cb50 063e
000000f0: 609b cb3b 81ba 6f3d 3add 233e 8117 e4bd
00000100: f97a a2bd 5898 473c 60f5 b4bd 03d7 943d
00000110: eb07 fa3c 28a4 febd 750b d0bc 2e81 18bd
00000120: 9287 3a3c 70db b13d 32be e53d 54ae e1bd
00000130: 2421 2c3d dec5 b9bd 3493 2b3d d4da 843d
00000140: a6ee e5bd 1436 aebd d26b d8bd 9b09 35bc
00000150: 02e7 303d ab0b b1bd 4443 fbbb c20a 28bd
00000160: d5f7 da3d 4d4a ddbd bff6 85bd 62b4 90ba
00000170: 1917 bcbd 01c9 b93d 97be ddbd 51bc 1bbd
00000180: 2ddc 49bd 568d 8dba 9458 65bd 3b46 ad3d
00000190: 14c8 cfbd 0c9e 7ebd 25f0 5cbd 5faf e6bd
000001a0: d864 efbd d453 2a3d ac51 e33d 059b 93bc
000001b0: 1c49 3bbd 1706 533d 7138 8e3d 359c d8bd
000001c0: 3279 66bd a001 cc3d 5ddb 563d 5611 e0bd
000001d0: f364 103b bcc5 b6bd f4b2 babd 93c1 6fbd
000001e0: 688e ef3d 802a 8bbd cce5 a53d 3509 dbbd
000001f0: f1d4 04bc 3546 da3d dcc6 d8bc f45d 26bd
00000200: 7868 55bd 6371 aebd ace1 1a3d 73f1 afbd
00000210: dc82 99bd b9a9 d13d 8399 b33d 6767 7cbd
00000220: 0b0c 233b 37b3 01bd 94be b73d ebb0 d8bd
00000230: 9dd9 d8bd e747 6c3d 680a b83b ef34 0dbd
00000240: 5dff 873e 4373 8c3e ace0 5bbd b00d b53d
00000250: 156a 5b3d a20d 25bd b7b2 e8bd 40fe e53c
00000260: 5d48 6b3d a54a 1ebe f051 7bbc 6b1d 423e
00000270: 0c27 3dbd c48f b1bc da75 9a3d dfbc 323e
00000280: 8f0a 853e 7f14 a03d 3650 133e 07f3 f13d
00000290: bf1e ee3d 3246 01bd 5af3 08be c33b ae3d
000002a0: 9497 423c 6be4 c43d 35db 98bd 7bff 09be
000002b0: 330d 133e 3805 353d e624 853d 9d6a 0e3e
000002c0: dafa da3c 2dbd 4f3b c4bc 57bd 8467 efbd
000002d0: a8c3 c7bd 6174 833d d77f 26bc fff6 3d3c
000002e0: f4a8 b73d a771 143e ffa6 92bd 7b2d 46bd
000002f0: 7840 bebd 2395 843d fb28 273c 7bab debc
00000300: 6bfe 2c3e 70b1 4e3e 72cb 313e a354 17be
00000310: d57f 44be ea15 a83c 61e1 373b 3dc5 563d
00000320: c6d2 1fbd d55f 39bd d3fd bebd 77b8 163d
00000330: 862e f2bd 4215 79bd ac18 f73d eb62 68bc
00000340: b028 00bd 8859 12be 895f 0ebe 39fd 233d
00000350: 2c92 ed3d b003 4ebe 00dc 3bbe a593 d23b
00000360: 306e b1bd f5f9 c9bc 972c 403c 3b34 3cbd
00000370: 26fb ccbb 7eea 073e d9a9 9bbd a29a e03d
00000380: 0f42 aebd 1933 ecbc 7d4c 7cbd c642 723d
00000390: b6cb c7bd f271 36bd 964a b4bd b90c 2abd
000003a0: f5d3 3b3d 5613 003e 13ac f23d 2d06 dcbc
000003b0: cf9c 83bd dd9f d33d 5cb4 1d3e ce17 1a3e
000003c0: 8127 af3d 6659 5d3b 00e1 bbbd 587f 8fbd
000003d0: a084 233d d30e 01be e07e b7bd 0b4c 9fbd
000003e0: 733d 51bc 2574 373d 78f1 de3d 667c 0e3e
000003f0: 6bac 5a3d feeb 543c 15df c8bc e1a2 8cbd
0.20064794 -0.06948035 -0.13167053 -0.05428481 0.008411493 0.02941523 -0.059343375 0.03243207
-0.018849265 0.22380447 0.13951302 0.107923 0.07517949 -0.034687713 -0.03676586 0.22066346
-0.05167003 0.06251041 0.13166879 0.19348373 0.096435465 -0.09814637 -0.039483134 0.003784001
-0.08996126 -0.055404533 0.076635934 0.08162649 0.050500825 -0.020993862 0.046170972 -0.09652934
-0.046533108 4.8721457e-05 -0.0890431 -0.1332566 -0.06273525 -0.017008422 -0.08011854 0.034602467
0.0216959 0.023122901 -0.18961015 0.08188765 -0.023166943 0.05741218 -0.118719555 -0.013210789
0.06801978 -0.070482716 -0.02489214 -0.11482652 0.04147405 0.11735488 0.02831782 0.058426227
-0.034490466 0.03711939 -0.11992569 0.13116758 0.0062135905 0.058527473 0.1600236 -0.111372955
-0.079336114 0.012182318 -0.08835864 0.07267573 0.030521354 -0.12433654 -0.025396088 -0.03723257
0.011384862 0.086844325 0.112179175 -0.110195786 0.042023793 -0.09070943 0.04188843 0.06487051
-0.11227159 -0.08506408 -0.1056744 -0.011049653 0.043189056 -0.086448036 -0.007667931 -0.041025884
0.106918015 -0.108051874 -0.06541204 -0.0011040086 -0.09184093 0.090715416 -0.10827368 -0.03802139
-0.04928224 -0.0010799568 -0.055992678 0.08460661 -0.10145584 -0.062162444 -0.053939957 -0.11263918
-0.11689156 0.04158385 0.11099562 -0.018018255 -0.04572402 0.05151948 0.06944359 -0.10576669
-0.056267925 0.099612474 0.052455295 -0.109408066 0.0022032827 -0.089244336 -0.09116164 -0.058534216
0.11697084 -0.067952156 0.08100471 -0.106951155 -0.00810741 0.10657922 -0.026462011 -0.040616944
-0.052101582 -0.085177206 0.037812874 -0.08590975 -0.074956626 0.1023745 0.087695144 -0.06162205
0.0024879004 -0.031665053 0.08971897 -0.105806194 -0.105883814 0.05768576 0.005616475 -0.03447431
0.26562014 0.27431688 -0.05368106 0.08840501 0.053567965 -0.040296204 -0.11362212 0.028075337
0.057442058 -0.15458162 -0.01533936 0.18956535 -0.046179816 -0.021674998 0.0754201 0.17454861
0.25984618 0.07816409 0.14386067 0.11813932 0.11626958 -0.031561084 -0.13374081 0.085074924
0.011876959 0.0961388 -0.074636854 -0.13476364 0.14360504 0.04419443 0.065011784 0.13907857
0.026730943 0.003169845 -0.052670255 -0.11689666 -0.09754115 0.06418682 -0.010162315 0.011594533
0.08967772 0.1449648 -0.07160758 -0.048383217 -0.0928964 0.06473758 0.010202642 -0.027181378
0.16893928 0.20184875 0.17362764 -0.1477838 -0.19189389 0.020518262 0.002805792 0.052434195
-0.03901937 -0.04525741 -0.09325757 0.036797013 -0.1182528 -0.06081129 0.12065253 -0.01418374
-0.031288803 -0.14291966 -0.13903631 0.040036414 0.11600146 -0.20118594 -0.18345642 0.006426292
-0.08663595 -0.024655322 0.011729381 -0.04594825 -0.006255525 0.13273045 -0.07600755 0.10966994
-0.085086934 -0.028832959 -0.061596382 0.05914571 -0.09755652 -0.04454226 -0.08803289 -0.04151604
0.045856435 0.12507376 0.11849227 -0.026858414 -0.06426393 0.10333226 0.15400833 0.15048143
0.08552457 0.003377521 -0.09173775 -0.07006711 0.039921403 -0.12603311 -0.08959746 -0.07778176
-0.012770998 0.0447885 0.108859 0.13914642 0.053387087 0.012995718 -0.024520436 -0.06867004

conv5.op.weight f4 [64, 48, 3]
00000000: 7031 c1bd 2bac 18bc 4a2b d83a 6455 9e3d
00000010: c036 343d 7be8 b43c 3a13 18bd aae8 3cbd
00000020: 0af8 363d 2ff4 f13d 7e27 c93c bac7 b93d
00000030: b9aa e03c 968d b4bd b981 36bc 4be3 293c
00000040: e660 23bd caf4 c6bb e508 903c 7d4c 323d
00000050: 54b3 803d 4b00 903c 9d8a e8bc f673 51bd
00000060: 3028 973b 5fb2 243d 106a c23d 0962 82bd
00000070: bdf4 60bd ac17 04bd 4d9b 8f3d 6984 783d
00000080: e9ee 34bc 53ab 20bc 2ce5 bfbc 9080 9bbd
00000090: 4c3c c43d 528f 26bd 35ba 903c fc1d 943c
000000a0: f5ed 513d c247 44bd 36a1 203d 26a8 4cbb
000000b0: 75cd b33b c27a 78bd b7c5 c13d d018 a03b
000000c0: 4258 67bd 988b 07bd 11c6 53bd c195 b93d
000000d0: 48e8 de3d 8ecf 663d 7ff3 a93d 7698 b53c
000000e0: e0e0 fd3c c2a8 933c 5fd6 483a 8d9c 26bd
000000f0: c764 ac3d 2fee 633d f6ac 443d 5d1f 83bd
00000100: 4b1f 61bd ce67 3dbd 9905 75bd b734 8ebd
00000110: 3956 013d 3ad8 c3bd 6f57 30bd 4aaa 703a
00000120: b696 643d e764 7a3d eb76 88bd c25e 783d
00000130: 5d93 e1bd 4d56 343d 9022 27bd c797 8a3c
00000140: daee f53c 6d7d cfbc 909e 253c bb77 1a3d
00000150: e3a8 193d 4a6f 503d e1c0 fa3d 0a27 a53d
00000160: dfc7 5bbd 3cf3 c93d bb5b bb3d ae44 3bb8
00000170: f796 043d 93e1 37bd 2a87 b3bc 4845 953c
00000180: a801 01bd 569e 0a3d 4538 5d3d f1a7 a83d
00000190: 1b5c 1abd e612 a1bc fe67 acbc 6f21 333d
000001a0: e931 f9bc b1de 07bd e895 47bd 96e5 fe3c
000001b0: ee71 b7b9 689a b5bc d827 643d 547b aebd
000001c0: a27b cabd 0b6b 103d 8703 993d 5f3b 0f3d
000001d0: 9c1c a93d b875 b63d 970b 163e ce63 573d
000001e0: 7fe9 f7bb 8812 8ebd c346 af3b 8551 b5bc
000001f0: fa25 2e3d 2bc7 0c3e c768 cfbb b83f 47bd
00000200: 9cee cb3d ad63 98bc 2bdb 87bd cb56 05bd
00000210: 056f b13c 77ef 323c 0733 b33d 4314 1dbd
00000220: bda2 ecbc e09f 583c 4577 c23d b98c 1b3e
00000230: 8759 d53c 18cd 8cbd 9606 9dbd 2797 b5bd
00000240: 234b 393d 84ee 733e 8f03 843d be76 773d
00000250: 6bf8 5dbc ee5d 28bd 7240 203e 3517 ac3c
00000260: b036 efbc 6586 733d 3b55 34bd ecd7 593d
00000270: 903c 09bb 7bd4 bc3d 5877 9f3d 432f ebbd
00000280: a1de f1bd b43f 493d e01f 5cbd 5bad b13d
00000290: 3c61 a13d dca5 5c3d 1f8b 983d b5d7 4b3d
000002a0: 388b 1a3e b363 d33c 7c91 14be 4b69 f6bc
000002b0: 55e8 fe3d e632 163d e385 a4bd 764d c73d
000002c0: 6aa6 683c 4225 3bbe ad9d 0fbe f545 8ebd
000002d0: 3304 0cbd fc41 873b 9460 52bd 96b4 d8bb
000002e0: 741b 343c b37e 8c3d 1ebb 903d f093 a5bd
000002f0: 9454 b13c 6652 643d d87f 513d a165 66bd
00000300: 8c16 24bd c716 80bd e89a d8bd 3a26 3c3d
00000310: c9f2 4fbc 3001 dbbd 4ffe b63d 24e6 04bd
00000320: bcb3 43bd 7a8b 8a3d 7d12 2e3e 6c2c 4d3d
00000330: f526 26bd 7fd8 b23d 2946 5abd dbb0 20bd
00000340: 1620 dabd b1d3 ab3d e480 07bd 56c4 4b3d
00000350: dda0 1a3c 8fd4 8d3d d7e4 8f3d 473b c73c
00000360: b4d6 663b 3659 5f3c 6a29 bd3b fc06 95bd
00000370: 354a 12be ed16 093d df9b 99bd 073c f33d
00000380: bef9 f1bc dfe8 f3bc 6170 22bd c877 0bbd
00000390: 89b6 013d 3ba8 47bd 41c3 91bd db9f 253d
000003a0: b29f 0d3e 6ad9 a2bd 5cbc 7dbd f491 b13c
000003b0: 5e92 cabc 498f ae3d c834 0e3b 76af 3abc
000003c0: 20dc eabc 2a9d 74bd 9c91 c4b8 6458 a33d
000003d0: fc9a 183e a3d8 913d 4479 453d 8a8d b63d
000003e0: 355b 62bd e5e2 c33c d314 acbd 37c9 37bd
000003f0: 928e 383d 61e6 6e3e c540 10bd 9f6b d3bd
-0.094332576 -0.009318392 0.0016492393 0.07731131 0.043997526 0.022083512 -0.03712771 -0.046120323
0.044670142 0.118141524 0.024554964 0.09071298 0.027425157 -0.08816068 -0.011139327 0.010369132
-0.03988733 -0.0060716616 0.017582366 0.043529976 0.06284204 0.017578265 -0.028386408 -0.05113598
0.004612945 0.04020917 0.09492886 -0.06366355 -0.0549209 -0.032249138 0.07012043 0.06067315
-0.011043289 -0.009806472 -0.023424707 -0.07592881 0.09581813 -0.040664025 0.017666915 0.018080704
0.051252324 -0.047919996 0.039216243 -0.0031228154 0.005487139 -0.060663946 0.09461539 0.0048857704
-0.056480654 -0.03309211 -0.051702563 0.090617664 0.10884148 0.056350283 0.08298396 0.022167426
0.030991018 0.018024806 0.00076613383 -0.040676642 0.08417659 0.05564707 0.04801651 -0.064024664
-0.054961484 -0.046241574 -0.05981979 -0.06943648 0.03157637 -0.09562726 -0.043052133 0.00091806485
0.05580779 0.061131384 -0.06663307 0.060637243 -0.110144354 0.044027615 -0.040804446 0.016918076
0.03002112 -0.025328362 0.010108605 0.03771184 0.03751458 0.050887384 0.1224382 0.08064087
-0.05365741 0.098608464 0.091483556 -4.4648237e-05 0.032370534 -0.04489286 -0.021915037 0.018221512
-0.03149572 0.033842407 0.05400874 0.08235157 -0.037685495 -0.019662332 -0.021045681 0.043733057
-0.030419307 -0.03317136 -0.048726946 0.031115334 -0.00034989364 -0.022168353 0.05570206 -0.08519617
-0.09886862 0.035258334 0.07471376 0.03496873 0.0825741 0.08909172 0.14652859 0.052585416
-0.0075656767 -0.06937128 0.0053490116 -0.022133598 0.042516686 0.13747852 -0.006329629 -0.04864475
0.099576205 -0.018602217 -0.066336 -0.032553475 0.021659384 0.010921351 0.08749967 -0.0383494
-0.028886193 0.013221711 0.09495405 0.151904 0.026043667 -0.06875056 -0.07667272 -0.08866721
0.04523767 0.23821455 0.06445991 0.060415976 -0.013547997 -0.041105203 0.15649584 0.02100716
-0.029200882 0.05945434 -0.044026595 0.053184435 -0.002094064 0.09220215 0.07786435 -0.11483624
-0.11810041 0.049133018 -0.053741336 0.08675643 0.07879874 0.053869113 0.0744841 0.04976626
0.1509217 0.025804376 -0.14508623 -0.030079504 0.124466576 0.036669634 -0.08033349 0.097315714
0.014199832 -0.18275931 -0.14024992 -0.06946937 -0.034183692 0.004127739 -0.051361635 -0.0066133244
0.010992873 0.068601035 0.0706694 -0.080848575 0.021646775 0.055742644 0.051147312 -0.056249265
-0.040060565 -0.062543444 -0.10576421 0.045934893 -0.012692162 -0.10693586 0.08935224 -0.03244604
-0.04777883 0.06764884 0.1699924 0.050091192 -0.040564496 0.087326996 -0.053289566 -0.039231163
-0.10650651 0.08389986 -0.033081904 0.049747787 0.009437767 0.06925308 0.070260696 0.024320258
0.0035223188 0.013632109 0.005772759 -0.07276723 -0.1428612 0.03346913 -0.07500433 0.11876684
-0.029538032 -0.029774128 -0.039657954 -0.03404978 0.03166822 -0.04874442 -0.0711732 0.040435653
0.1383045 -0.07951625 -0.06194721 0.021676041 -0.024727996 0.08523423 0.002169894 -0.011394372
-0.028669417 -0.059720196 -9.37313e-05 0.079758435 0.14902872 0.07121398 0.04821135 0.08913715
-0.055262763 0.023911903 -0.084024094 -0.044869628 0.04505784 0.2333007 -0.03521802 -0.103232615

conv7.op.weight f4 [80, 64, 3]
00000000: 4f45 bb3c c490 863d c0bf 7b3d f851 8fbd
00000010: c0e5 b0bc 5837 2cbc f6cd f9bc 051b b8bb
00000020: 1048 8ebd 99e0 1e3d ad93 763d 6764 41bd
00000030: 3784 873d 9733 c93c 6b4e 8c3c fc27 d2bc
00000040: b6c8 9abc 0634 9aba 270d 983d b72a ad3d
00000050: a969 6c3d a020 97bd eb53 0cbc 8a97 1f3c
00000060: 7c11 693d 4ee2 e4bc 1e55 03bd 6885 80bd
00000070: 317e 04bc 2605 69bd 0e74 6e3c e474 8e3d
00000080: e70d 48bd 541c 0e3d ad21 cf3d d241 9c3c
00000090: 214a a9bc 24a9 a3bc 947d d7bc 1060 c63d
000000a0: 327b 923d b775 9d3d 0d95 7b3d 957f ec3c
000000b0: 5fcf 7bbd 55ea 923d 667b 383d 7035 37bd
000000c0: 636d 37bd ad17 51bd 2f20 893d 34c9 8d3d
000000d0: 8e4e 8d3d a4d8 09be e301 8fbd eff6 7d3d
000000e0: 4dbd cfbd ea26 ea3b 200d 683d a985 13bd
000000f0: 629c 133d 8216 c5bb 86dd 08be 6603 f4bc
00000100: 1221 a23d ef32 94bd de9c 46bd b6f4 94bc
00000110: 53dc 93bb 5434 6bbd bf24 f7bc 8306 8f3d
00000120: f2cd 6e3d d0d9 c13d 5b8d 1abd a529 dbbc
00000130: b894 363c 0b80 c2bd 531a 8a3c 7c77 f83d
00000140: 996a edbc 20fd adbc d8d1 ca3d 7584 883d
00000150: c108 49bd fa86 4abd 5405 3bbd 2460 593c
00000160: 9282 34bc 6a52 243d b4d3 36bd 82d1 073d
00000170: afdb 09bd 8652 bb3c 4134 3dbb 2d3b 2ebd
00000180: 65b6 8c3d 8add a23d abb0 f6bd 4ea8 7abd
00000190: fcd1 b73c a7be 253b 746a 4e3c 9a9d 1d3d
000001a0: 4632 7ebd ddcb 51bd 729a b33d fcdd fdbd
000001b0: ee7c 42bd 32b2 303d 052c 9dbd ea9a cabc
000001c0: 462d a4bd baf7 7d3b 4ece bc3d 3732 02bd
000001d0: 8f81 47bd 8e35 debc 2317 a1bc e8a9 1e3d
000001e0: 9561 723d 54e9 4dbd 57be 01bb 45fd 863d
000001f0: e6db 8b3d af2a 153d ed86 343d e058 bc3c
00000200: b0bd 49bd fbdf 02bd 2561 913c c2dc 74bc
00000210: f4e3 9b3d c10e d5bc 94be 60be c4c2 923c
00000220: 8ce1 ebbd 8b9c a83c 962d 3e3d bc6c 0ebd
00000230: f42a 703d 3aa9 bebc c772 3fbd f1ee 4cbd
00000240: 6640 2ebd a681 1abe a6d1 85bd 5a72 b438
00000250: 2ffa 413c 1535 ce3b 9277 34bd c04a 78bd
00000260: 7ec7 86bd 17b6 d53c 4cb3 8bbd fbcc 94bd
00000270: 72e2 d4bc fd58 82bc 2c2e 8e3d 58cb d23c
00000280: 2834 8a3d 6836 c9bc e3e7 a2bd 154e 763b
00000290: a5b4 83bd c4c3 f5bd 6145 8e3d 17fa 5f3d
000002a0: 466b 89bd 78ea 1abc 9cc2 9abd 1e26 94bc
000002b0: 0dce 693c 1130 a43d 56ca 9836 ca29 1d3d
000002c0: 2648 90bd 49cb a53c 106d 8fbb e7a4 b83c
000002d0: 8b72 523d 570e b33c 3b7d f83c 9a6f 18bd
000002e0: e1b2 89bb b775 a0bd 3b65 e4bc e802 fc3c
000002f0: ef32 c8bc a4b1 783d e611 ffbd 6c51 c73d
00000300: b2f3 4fbd b0b8 803d 698d 35bb 1bb7 de3c
00000310: 04f2 d6bc 8add 583d 3a74 bfbd 60fe a0bd
00000320: ec88 88bc 68fd d5ba fc9e 473c f041 103d
00000330: 79dc ec3c e2ec 483d 5fba 723d 0bd9 bb3c
00000340: 7d11 4e3d ba08 6c3d 59ce 5b3d a858 d53d
00000350: c76b 973d 15d3 ac3c 8859 943c 6aaa e33d
00000360: f7d0 8cbd fe89 8e3d 995f ea3c e2b8 d1bd
00000370: 13d4 38bd a103 db3c 4a21 a9bc 5aa6 23bd
00000380: d941 4ebc aa0e 6dbd 4495 d1bc 2efe 773d
00000390: b37c 9d3d add0 d83c d278 523d b25e 083d
000003a0: c935 cd3c 3622 31bd 1538 a6bb 4da0 113c
000003b0: 5da6 d33a 523d a2bc 1015 63bd 0a63 483d
000003c0: 6c41 223d 2569 e2bc d426 eabc b465 b9bd
000003d0: 7bbb 7abd 0a90 adbc add2 863d 0243 6bbb
000003e0: 79b6 22bd fa39 153d f835 30bd 38a2 c7bb
000003f0: a336 f73c cc0b fdbd df47 983c 3fd6 0d3a
0.022860197 0.065705806 0.061462164 -0.06998056 -0.021593928 -0.010511242 -0.030493718 -0.0056184554
-0.069473386 0.03878841 0.06019943 -0.04721489 0.06617015 0.024560733 0.017127236 -0.025653832
-0.018894535 -0.0011764772 0.074243836 0.08455413 0.057717953 -0.073792696 -0.0085649295 0.00974072
0.05690144 -0.027939942 -0.032063596 -0.06275445 -0.008086727 -0.056889676 0.014554037 0.06955889
-0.048841383 0.034694985 0.10113845 0.019074354 -0.02066523 -0.019978113 -0.026304998 0.09686291
0.07152404 0.07688468 0.061421443 0.02886943 -0.06147706 0.071736015 0.045039557 -0.044728696
-0.044782054 -0.05104797 0.06695592 0.06923142 0.06899749 -0.13461548 -0.06982782 0.062003072
-0.10143528 0.007145752 0.056653142 -0.03601614 0.03603781 -0.006014646 -0.13365754 -0.029786777
0.07916464 -0.07236277 -0.048489444 -0.018183094 -0.0045123487 -0.05742295 -0.03016889 0.06983664
0.058301874 0.094653726 -0.037732463 -0.026753256 0.011143856 -0.094970785 0.016858255 0.12132165
-0.028981494 -0.021238863 0.09903306 0.06665889 -0.049080614 -0.04944513 -0.04565938 0.013267551
-0.0110174585 0.04011766 -0.04463549 0.033158787 -0.033656772 0.022866499 -0.0028870257 -0.042536903
0.068707265 0.079524115 -0.120454155 -0.061195664 0.022438996 0.002529064 0.012598623 0.03848038
-0.062059663 -0.05121981 0.087696925 -0.12395856 -0.047482423 0.04313869 -0.07674412 -0.024732072
-0.08016448 0.0038752393 0.09219037 -0.03178617 -0.04870754 -0.027125146 -0.019664353 0.038736254
0.059175093 -0.050271347 -0.001979729 0.06591276 0.06829052 0.03641766 0.044073988 0.022991598
-0.049253166 -0.031951886 0.017746517 -0.014945211 0.07611838 -0.026008012 -0.219477 0.017915137
-0.11517629 0.020582458 0.046430193 -0.034771666 0.058634713 -0.023274053 -0.04674032 -0.05003256
-0.042541884 -0.1508852 -0.06534128 8.6043685e-05 0.011839434 0.006292949 -0.044059344 -0.060618162
-0.06581019 0.026087804 -0.068213075 -0.072656594 -0.025986884 -0.015911574 0.069424 0.025731727
0.06748229 -0.024562076 -0.07954385 0.0037583162 -0.064309396 -0.1200023 0.06946827 0.054681864
-0.06709914 -0.009455316 -0.0755665 -0.018084582 0.014270318 0.080169804 4.553508e-06 0.03836993
-0.07045011 0.020238535 -0.004377015 0.022539569 0.051378768 0.021857424 0.030333152 -0.037215807
-0.004202232 -0.07834952 -0.027880302 0.030763105 -0.02443835 0.060716286 -0.12454586 0.09732327
-0.050769515 0.06285226 -0.0027702695 0.02718692 -0.026238449 0.05294565 -0.0934834 -0.07861018
-0.016666852 -0.0016326131 0.012183901 0.035219133 0.028913723 0.049054034 0.05925977 0.022930643
0.050309647 0.05762551 0.053663585 0.104173005 0.07393604 0.021096746 0.018109098 0.11116488
-0.068757944 0.06959914 0.028610038 -0.10240342 -0.045124125 0.026735129 -0.020645756 -0.039953567
-0.0125889415 -0.057875313 -0.02558387 0.06054514 0.076898 0.026466692 0.051384754 0.033293433
0.02505006 -0.043245517 -0.0050726035 0.008888316 0.0016147603 -0.01980463 -0.05544001 0.048922576
0.039613172 -0.027638027 -0.028582968 -0.090526015 -0.06121395 -0.021186847 0.06583152 -0.0035898094
-0.0397248 0.036432244 -0.04302022 -0.006092336 0.03017742 -0.12355766 0.018588958 0.00054106483

conv8.op.weight f4 [32, 80, 3]
00000000: d5a0 fdbc af0f 4e3c 1031 04bd 0276 0d3c
00000010: 3b53 9c3c 2747 b13c 0753 08bd 4e52 b13b
00000020: bf37 04bd 18bc 2d3d 5ecf 88ba 65b3 83bc
00000030: 45d9 a7bc 18f0 0a3d 1640 aabc 0a23 08bb
00000040: 9913 a33b cb60 16bd 6980 5b3d 70f4 71bd
00000050: 976c 0e3d 2d01 59bd e0b3 d1bb 7307 20bc
00000060: b855 c03b 5a8b 11bd 0936 5cbd d087 e5bc
00000070: 6f9a 4a3d 1454 8bbc 31d0 cbbc fd9c 623d
00000080: 8c7a 153d cf94 7f3d ccad 4bbc 4072 2bbd
00000090: 8493 2d3d 25bf 5abc 8813 cd3c 059c 6c3d
000000a0: fbe9 33bc 2c2b 1bbd a496 4d3c a5be f83c
000000b0: 8831 87bd 60dd 7c3c 70e9 1cbd cd2c 3abd
000000c0: 08e7 3e3d 98bd e2bc efec 043c 652e b9ba
000000d0: 0b07 30bd b560 b63c bfab 4f3d 2211 de3b
000000e0: aebe 78bd 895f 10bd fcc2 f43c 0b19 8339
000000f0: e9bb 05bc 870a 9c3c 4e11 8fbc b9db 4abd
00000100: 3278 c9bc 6d5c 69bd 16c4 cfbb 8ed1 b8bc
00000110: 41a4 0e3d 9e12 a6bc b1d6 9f3c c8fa 223d
00000120: 1766 4c3d ac84 2e3d 7bab 013d 2d54 763c
00000130: c2b3 15bc 38c4 3ebd b25f 67bd 592c d6bc
00000140: 3e6b 123d a6dc 623d 5857 50bd 83e7 4b3d
00000150: 048d 033a a523 76bc 5018 a1bc 56be 423d
00000160: 196b 7a3c a017 533d 9e2a c93c 47b2 7a3c
00000170: 1673 3ebd b88a dbbc 08e2 e03c 0a54 563d
00000180: 9459 373d 1d31 12bd 3bd7 60bc 3f9f db3b
00000190: f3f4 81bd 4169 953c db7b ffbb b02b 47bc
000001a0: c017 2fbd 83f5 f0bc fbfb 17bc 0fec 1dbd
000001b0: 07f8 fd3b 7cc9 3b3d 3871 3a3d 6c7d f1bc
000001c0: 7e7f 55bd 2f50 f13c aa52 8c3c 0134 6fbd
000001d0: 92f4 05bd bed5 6dbd 4816 373c 94a7 483b
000001e0: c420 6abd 5605 183b 3956 7fbd ad22 b43c
000001f0: e5b6 8fbb bbd2 e1ba 2653 33bc f3db 643c
00000200: ed95 79bd def8 e6bc 2ebc 0f3c 6ed3 893c
00000210: 7791 3139 b6bd 0abd d07d 3a3c dd54 ecbc
00000220: c9de cebb 2ea2 ddbc 95d5 25bd 10dc 313b
00000230: 4eb9 dc3c 5422 fd3c 7c3b 80bd 7980 b0bc
00000240: e58c 5fbd 6636 1f3d 340e 093d cffe 40bd
00000250: cd84 6cbd 53c3 38bb 08bf 2c3d 6272 e4b9
00000260: a7db 99bc f7ef 44bd 63b5 b93c c83d 55bd
00000270: 6604 71bd 1a49 de3c be79 dabc 23a9 f03c
00000280: f8d9 78bd c1fe 0e3d 58e6 103d aab5 0e3d
00000290: 510c 0fbc 8483 36bd fc41 5c3b 2576 7ebc
000002a0: 2572 50bc bcd0 afbc 57dd 9dbc 5ef5 8ebc
000002b0: de5c 7b3d d1c4 003d 282e 8b3a 76b5 7dbd
000002c0: 2ff6 b3bc c597 913c b84e 043c 7675 67bb
000002d0: 35e4 763d b232 113d d0a1 ca3c 2e26 193d
000002e0: 16f4 3abd 8fdd e1bc 0e22 2abd e45e 15bd
000002f0: df60 cf3c 7efc fdbc 6d4e c4bc 4114 52bd
00000300: 110c 73bd 9d2c 223d fce5 7cbd eb3e 14bd
00000310: 70eb 69bd 398b 073d 1311 263c 2045 4ebd
00000320: 68ea d83c 7f99 b43c e410 513d 97ee 9c3b
00000330: 98b1 353c 8c41 3fbb 2d82 283d 3d3c 17bd
00000340: 4e9f 4ebd a7f4 5ebd 47c2 25bd 7f97 c4bc
00000350: bf0c be3c 07c7 45bd bd99 b6bc 560a 44bd
00000360: dbfb 93ba fbb6 2ebd 4155 683d 020f 1bbd
00000370: a578 0cbc 87d7 11bd 4ddf 67bd cda4 863b
00000380: b396 7d3c 3814 08bd 4808 0cbd 4485 d0bc
00000390: 9a1b 61bd 3c40 45bb 506d 403c d969 cd3c
000003a0: e9f8 fd3c b172 47bd 2131 fc3b 4b14 263d
000003b0: 1225 e63c 7643 073d 6697 3bbd 1976 393d
000003c0: 890d 753d 4ce8 01bd bd7d 19bb c807 783d
000003d0: 7f31 983d 8045 783d b143 aa3c 433d 3e3d
000003e0: 6db8 bf3d 3d76 4fbc f7e3 f13b 2b85 06be
000003f0: 095b b63d 3cf8 bbba 067c 5a3d 003a 1d3d
-0.03096048 0.012576981 -0.032273352 0.008634092 0.019082656 0.021640373 -0.033282306 0.005411423
-0.032279726 0.04241571 -0.0010437777 -0.016076753 -0.020489344 0.033920377 -0.020782512 -0.0020772838
0.0049767015 -0.036713403 0.05358926 -0.059071004 0.034771528 -0.052979637 -0.0063996166 -0.009767401
0.0058695935 -0.035533287 -0.05376247 -0.028018862 0.049463686 -0.017007865 -0.024879547 0.055325497
0.036493823 0.062397774 -0.012431573 -0.041857004 0.04237701 -0.0133512365 0.025033727 0.05776598
-0.010981078 -0.03788297 0.012548123 0.030364344 -0.06601244 0.015433639 -0.03830856 -0.04545288
0.046607047 -0.027678296 0.00811313 -0.0014128207 -0.042975467 0.02226291 0.0507009 0.0067769447
-0.06072872 -0.03524736 0.029878132 0.00025004926 -0.008162477 0.019047989 -0.017464306 -0.04952595
-0.024593446 -0.05697291 -0.006340514 -0.022560861 0.034824613 -0.02027255 0.019511553 0.039789945
0.049902048 0.042606995 0.031657677 0.0150347175 -0.009137096 -0.046573848 -0.056487747 -0.026144193
0.035746805 0.055386208 -0.050864547 0.049781334 0.00050182664 -0.015023147 -0.019664913 0.0475448
0.015284323 0.051536202 0.024556454 0.015301294 -0.046496473 -0.026799545 0.02745153 0.05232624
0.044763163 -0.03569137 -0.01372319 0.006702333 -0.063455485 0.018238666 -0.007796747 -0.012156412
-0.04274726 -0.029413944 -0.009276385 -0.0385552 0.0077505144 0.045846447 0.04551813 -0.029478751
-0.05212354 0.02945718 0.017129261 -0.058399204 -0.032703944 -0.05806517 0.011174746 0.0030617462
-0.057160154 0.002319654 -0.062338088 0.021989191 -0.0043858164 -0.001722894 -0.010945117 0.013968456
-0.060933996 -0.028194841 0.008772893 0.01682445 0.00016934225 -0.03387233 0.011382535 -0.02884906
-0.006313179 -0.027054872 -0.04048689 0.0027139224 0.026943829 0.030900158 -0.06261346 -0.021545636
-0.054577727 0.038870238 0.03346081 -0.047118004 -0.057743836 -0.0028192594 0.04217437 -0.0004357277
-0.018781496 -0.04808041 0.0226695 -0.052060872 -0.058842085 0.027134467 -0.02666938 0.029377526
-0.060754746 0.03491092 0.035375923 0.034841217 -0.008730964 -0.044559017 0.0033608666 -0.015531098
-0.012722527 -0.021461837 -0.019270582 -0.017450985 0.061367862 0.0314377 0.0010618614 -0.061940633
-0.021967975 0.017772565 0.008075409 -0.0035317815 0.06027623 0.035448737 0.024735361 0.037389927
-0.045642935 -0.027571468 -0.041536383 -0.036467448 0.025314746 -0.031004187 -0.023963178 -0.051288847
-0.05933768 0.039593328 -0.061742768 -0.036192816 -0.057109296 0.033091757 0.010135907 -0.05035889
0.026478961 0.022045849 0.0510415 0.0047891843 0.011089705 -0.0029183356 0.04113977 -0.036922682
-0.050444894 -0.054432537 -0.04046848 -0.02399802 0.023199437 -0.04828551 -0.022290105 -0.04786142
-0.0011290269 -0.042654973 0.05672193 -0.03785611 -0.008573686 -0.035605934 -0.05660944 0.0041090013
0.015477824 -0.033222407 -0.034187585 -0.025454171 -0.054957964 -0.00300981 0.011744812 0.025074886
0.031002479 -0.048693363 0.0076962863 0.040546697 0.028093848 0.03302332 -0.04579868 0.045278642
0.05982736 -0.031715676 -0.0023420893 0.060554296 0.07431316 0.060613155 0.02078423 0.046445142
0.09361348 -0.012662468 0.007381912 -0.13136737 0.08904082 -0.0014340947 0.053340934 0.03838539

fc.op.weight f4 [3, 160]
00000000: db98 2d3c 8478 5a3d 9bbb 303c 42d2 1fbd
00000010: 5758 83bc f8e1 81be a17a 1f3d 443b 633d
00000020: 0854 093e a845 07be 3a75 a93c b0b0 bcbd
00000030: adde 05be 1e87 28be fed1 4b3d 91d2 4dbe
00000040: 3794 293e 6f65 9abd 7f70 ab3d 5c92 6f3d
00000050: 61b4 0c3e 3f6b e73c c666 7d3d 9a22 b5bc
00000060: 30df 013d 5952 263d 19f1 3fbc 293c e8bc
00000070: f666 4abd 3c6e 10be 43a3 0f3e b1e4 ef3d
00000080: ee04 3c3d 2deb 70bc 8a61 b33c 094c bb3d
00000090: 50f6 cfbc b1a9 09be e251 42bd a8da d8ba
000000a0: 363c afbd 623a 19be 781a 373c a162 4abd
000000b0: bf2a edbd 4bf9 6e3d 64c8 16bc c828 3b3e
000000c0: bfe1 6b3d afaa aabd 4494 48bd 73e0 c93d
000000d0: e5cb d33c c046 033d 6d34 28be ba08 bc3d
000000e0: cd2d 263c c7c9 99bd c8dc 29bc d321 5b3e
000000f0: 104e 36bd 323b c5bd bfc6 9bbe cb46 27be
00000100: 8501 89bc 528a 11be f40e f0bc 77cf c6bd
00000110: 4f8b 6fbd cf43 12bb 2abf 253e 82cc 6cbe
00000120: 6b24 fbbd d91f 03be 0924 0ebe 1c29 2abe
00000130: 5e7a 8cbc dd87 e9bc 5625 b9bd 38ed 61bd
00000140: 79bf 89be 176a 763d 570d 60bd 5e3a c2bd
00000150: 5307 043e 3158 4cbd ecee 00bc 72df 2a3d
00000160: f259 893d fc79 c83c a575 023e 34c3 353d
00000170: 4c62 bfbc b4c1 2a3e 14fc 86bc 051a f43d
00000180: 15a7 1fbc 81ed 37be 769b 2b3d a81f 663d
00000190: c28d 01bd ce09 eb3d d263 103e 583c 07bd
000001a0: 1281 00be ae7b 6b3e fc57 893d c974 14be
000001b0: ed09 09be 70ed 213d 6ade 303d d154 d83d
000001c0: e2d0 603c 8f7a 37bd 3dfc 13bd db08 233e
000001d0: 85a1 313d f933 8e3b aff2 72bd f886 663d
000001e0: 723d 313e 40fe 14bd 6b1a 253d dfa6 6d3c
000001f0: 9f44 b8bd 7c1c 1fbd 280c 25bd d83a 863c
00000200: 0016 a33d c16b 7fbd a11f b83a 1e24 303d
00000210: 1d8b dcbc 625d 5dbc 223b 47bd b2df 103e
00000220: 14a3 9d3d c6a7 f6bd 2a4f 8abd afba fbbd
00000230: a432 083d f8e1 ff3c 8e2e 29ba 299f a73c
00000240: 3fb5 9f3b c0c7 143e 8878 c63d 05f7 6ebd
00000250: 6b80 b63d 4b15 953c 66d0 da3d 3734 2bbe
00000260: a53f 64be 649f 193d 0891 81bb 729c 8e3d
00000270: a529 fdbd 9178 abbd e4d9 2fbe 7c79 7fbd
00000280: 384a cdbc 7977 4abd 83c4 923c 344b 8ebc
00000290: b15e 753c 5b5d 063e de10 d73c 114a 04bc
000002a0: 603b 7e3d 5c1f 3dbe 9dba f83d 943e 413d
000002b0: f43a 7c3d 6116 f73b b725 ad3d 6137 eb3d
000002c0: ca65 ccbd 5397 a0bc 6dda 9bbd e850 82bd
000002d0: 4098 f1bd 32ad 803c c597 2cbd 6e94 853d
000002e0: 502b a73d b194 87bd 1321 f1bb b6f9 a9bd
000002f0: 592e 32bd 0852 06bc 2b5a b43d a832 363d
00000300: d725 d3bd 1c60 fb3d bac3 c03c a2ee 773d
00000310: 18cf d83c dd83 683d 4eba 4c3e 350b 123e
00000320: 5e87 f33c b768 abbd 9151 a13c 579e 143d
00000330: 9440 e3bd 1a05 b3be 9a12 72be 63c0 2abe
00000340: 5119 a43c 8851 3d3e a347 17bd 046c 7ebd
00000350: 595f d2bd 02e6 dc3d 0a9e f1bd d591 f7bc
00000360: 403c 98bd 63f3 f83d d7f2 753d 4374 953d
00000370: 1ce8 dbbd 7865 2f3c c546 92bd 12c5 aabd
00000380: b79d bdbc ffeb bebd db9b febc a9ab d8bd
00000390: 1338 5f3c ec59 f9bd 6df2 58be 12f7 2a3e
000003a0: 72ff 343e 7f86 9ebd 30c2 bc3d ae87 4dbe
000003b0: da8c 573b a6c8 9bbd 87d7 eabc 99e8 8fbe
000003c0: 3daa 953d 568e d3bd c5a4 c33c 3cb0 bfbd
000003d0: b6f2 4dbe eddf b73d de73 8c3d 3962 c93b
000003e0: 7bac c8bd 7ba1 f13c 2f6c 84bc cfc8 333d
000003f0: 5188 7c3e 1666 de3d 71eb 963d 8c43 cc3d
0.010595526 0.05333759 0.010786916 -0.039018877 -0.016033335 -0.25367713 0.038935307 0.055476442
0.13410962 -0.13210166 0.02068578 -0.09213388 -0.13073225 -0.16457793 0.04976081 -0.20099856
0.16560446 -0.07538878 0.08371066 0.05848919 0.13740684 0.028249381 0.06186559 -0.022111226
0.03170699 0.040605877 -0.011715197 -0.028349 -0.049414597 -0.14104551 0.14027123 0.11713541
0.04590314 -0.014704508 0.021897096 0.09145362 -0.025386006 -0.13443638 -0.04744137 -0.0016544657
-0.08556406 -0.14963678 0.011175744 -0.049410466 -0.11580419 0.058343213 -0.00920305 0.18277276
0.057588335 -0.083333366 -0.048969522 0.098572634 0.02585406 0.032049894 -0.16426249 0.09181352
0.010142756 -0.07509189 -0.01036758 0.21399622 -0.04450804 -0.09630431 -0.3042507 -0.16335599
-0.016724357 -0.14212921 -0.029304005 -0.097075395 -0.058482464 -0.002231825 0.16186205 -0.23124889
-0.122628056 -0.12805118 -0.13880934 -0.16617244 -0.017148193 -0.028507167 -0.090403244 -0.05515787
-0.26903895 0.06015977 -0.054700222 -0.09483789 0.12893419 -0.049888793 -0.007869463 0.041717
0.06706609 0.02447223 0.1274019 0.044375613 -0.023362301 0.16675454 -0.016477622 0.11919025
-0.009744425 -0.17961694 0.041896306 0.056182534 -0.03162933 0.114764795 0.14100578 -0.033016533
-0.12549236 0.22996399 0.06706235 -0.14497675 -0.13382693 0.03953308 0.04318086 0.105630524
0.013721677 -0.044794615 -0.036129225 0.15921347 0.043366928 0.0043396917 -0.059313472 0.05628106
0.17308596 -0.036375284 0.040308397 0.014505117 -0.089974634 -0.038845524 -0.040294796 0.01638548
0.079631805 -0.06235862 0.0014047512 0.043003194 -0.026921803 -0.013511034 -0.048640378 0.14147833
0.0769712 -0.12043719 -0.067533806 -0.122914664 0.03325142 0.03123568 -0.00064537756 0.020461636
0.004873901 0.14529324 0.09690958 -0.058341045 0.089112125 0.01819863 0.1068428 -0.16719137
-0.22289903 0.037505522 -0.0039540567 0.06963433 -0.12361459 -0.083726056 -0.17172962 -0.062371716
-0.025059804 -0.049430344 0.01791597 -0.017369844 0.0149761895 0.1312155 0.02625316 -0.008074299
0.062068343 -0.18468994 0.12144969 0.04717882 0.06157966 0.0075405096 0.08454459 0.11485172
-0.09980352 -0.019603407 -0.07610021 -0.06363088 -0.117966175 0.015707586 -0.042136926 0.06522451
0.08162558 -0.066201575 -0.007358679 -0.08299582 -0.04350123 -0.008198269 0.08806261 0.044481903
-0.10309952 0.12274191 0.02353083 0.060530312 0.026465937 0.05676638 0.19992945 0.14262088
0.029727634 -0.08369582 0.019692214 0.036283817 -0.11096302 -0.3496483 -0.23639908 -0.16674952
0.020031603 0.18488133 -0.036933552 -0.06211473 -0.10272092 0.10786058 -0.11797722 -0.030220905
-0.07433367 0.12155797 0.060046043 0.07297566 -0.10737631 0.010705344 -0.071424045 -0.083383694
-0.023146493 -0.093223564 -0.031080177 -0.105796166 0.013624209 -0.12175354 -0.21186228 0.16695812
0.1767557 -0.07740497 0.09216726 -0.20071289 0.003289035 -0.0760663 -0.028667225 -0.28107145
0.07307861 -0.10329883 0.02388228 -0.09359786 -0.20112118 0.08978257 0.068580374 0.0061457423
-0.09798523 0.029495945 -0.016164867 0.043892678 0.24661376 0.10859315 0.07369126 0.09973821
